checkpoint_critic_target0.pth (torch_old, 574967 bytes, 9 tensors)

fcs1.weight f4 [400, 52]
000000 7f 74 8c b9 ea c4 9d 3d b5 8d 4d bd 68 35 1d 3e
       -0.00026789677 0.07703574 -0.05018397 0.15352404
000010 7c 8f 94 3d e5 f1 02 be b3 8f 2b bb 30 43 b0 3d
       0.0725393 -0.12787588 -0.002617818 0.08606565
000020 dc a3 c0 3c 72 c2 2a 3e fb ec 82 bd 10 a2 3b 3d
       0.023515634 0.16675738 -0.06392857 0.04580885
000030 8d 16 94 3d 64 de c8 bd 99 26 85 bd c6 87 1a bd
       0.07230864 -0.09808043 -0.065015025 -0.03772714
000040 49 0f 80 3c f2 a5 03 3e 72 88 13 3d a6 d4 13 3c
       0.015632289 0.12856272 0.036018796 0.009022867
000050 df df 02 ba a4 59 bf bd e6 9e 81 3d 7d 0c 27 3d
       -0.0004992466 -0.093432695 0.063291356 0.040783394
000060 34 d1 45 3d 00 ee e7 3c 79 3d 46 3d 5b 3f d6 3d
       0.048295215 0.02831173 0.04839847 0.10461303
000070 4e d7 bc bc 10 1f f7 bd 86 38 2c 3d 2a d7 c3 3d
       -0.023051884 -0.120664716 0.042046092 0.09562524
000080 27 dd 94 3d 0e 39 d4 3d 64 db 99 3c 54 7c 2d 3c
       0.07268744 0.10362445 0.018781371 0.010588724
000090 77 78 34 bc 1a 70 e0 bd e3 8c 40 3d e0 b4 38 bd
       -0.011015049 -0.10958882 0.04700936 -0.04509437
0000a0 11 c9 1a 3d e3 93 87 3d e5 30 28 3d 1d f2 73 bd
       0.037789408 0.06620004 0.041062254 -0.05955707
0000b0 5d 11 b1 3b ad f8 9b bd ca 91 b6 3c c1 a7 03 bc
       0.005403681 -0.076157905 0.022286315 -0.008035601
0000c0 f6 45 00 3e f7 ec 4d bc 25 b7 ba 3d 94 28 8c 3d
       0.12526688 -0.012568704 0.09116963 0.06843677
0000d0 5f 1b a2 3c 3c e3 65 3c e0 cf 2e 3d 6a a7 a5 3d
       0.019788442 0.014031228 0.042678714 0.08088572
0000e0 cc 4d f3 3c 07 50 1c be 4d 4f 29 bd e5 8c 4f 3d
       0.029700182 -0.15264903 -0.041335393 0.050671477
0000f0 bc d2 4f 3c 56 07 96 bc 2f ca 1b 3d 7b e6 30 3d
       0.01268452 -0.018314045 0.038034614 0.043188553
000100 eb 56 9e bc 2d 93 6e bd fa 35 0f bd d6 8a 04 bd
       -0.019328555 -0.058245827 -0.034963585 -0.032358967
000110 aa 96 36 3b 71 5e 9f 3c d9 0a 7a 3c 50 41 d4 bc
       0.00278608 0.019454213 0.015261375 -0.02591005
000120 f0 80 c1 bc 9b df e2 bd 57 d2 38 bc 04 f8 c7 bd
       -0.023621053 -0.110778056 -0.011280618 -0.09764102
000130 7c b4 fd bc 8d 01 0a 3d 75 7a d8 bc 06 10 d3 bd
       -0.03096985 0.033692885 -0.02642558 -0.103057906
000140 7c da 35 3d ae f5 06 be ae e0 17 bc 29 5a 0d be
       0.044397816 -0.13179657 -0.009269876 -0.13803925
000150 d7 26 61 bd 1a 5b cb bd 35 e7 31 3b 2a ea 2c be
       -0.05496868 -0.099294856 0.0027145867 -0.16886202
000160 43 af 9d 3d 41 d3 86 bd 9b 98 2b bd eb ac f6 bd
       0.07699444 -0.06583262 -0.041893583 -0.120447
000170 c9 02 56 bd 0c e6 94 bd 74 51 7f bc 8b 9b 72 be
       -0.05224875 -0.072704405 -0.015583385 -0.23692147
000180 52 11 6e 3c 84 a2 79 bd 00 9a fb 3a cd 18 7d be
       0.014530497 -0.060946003 0.0019195676 -0.24716492
000190 ee 6c c8 3c ca 03 c1 3d c2 d8 37 3e 4b 86 42 3e
       0.024466004 0.09424551 0.1795378 0.18996541
0001a0 ca e2 ec bd 15 76 2e be b1 0e 17 bc d5 9c 71 bd
       -0.11566694 -0.17037232 -0.009219811 -0.058987457
0001b0 e3 63 2f 3d bc 00 05 3e 70 91 c5 3c 6e aa cc bd
       0.04281987 0.12988561 0.024117202 -0.099934444
0001c0 bc 51 51 bd 22 4c d2 bd 4b 3d 03 3d e2 0f ab 3c
       -0.05110334 -0.102684274 0.032040875 0.020881597
0001d0 c5 13 94 bd 4c 39 0a 3e d5 dc ce bc 16 75 1d 3c
       -0.07230333 0.1349842 -0.025251785 0.009610435
0001e0 7b 62 be bd a3 7e 2f be 86 f1 fe bb b7 7a 44 bd
       -0.092961274 -0.17138152 -0.0077802567 -0.047968592
0001f0 f3 fc 37 bd dd 1b 0e 3d 54 ee e3 3c 6d e2 eb bd
       -0.044918966 0.03469454 0.027823605 -0.11517797
000200 14 2d b1 bd 44 16 9e 3c f2 ff 8a 3b 3f 55 a7 3b
       -0.08651176 0.019297726 0.004241937 0.0051065977
000210 15 fe 38 3d e6 e8 12 3e ec dc 4a 3c f4 a8 a6 bc
       0.045164187 0.14346656 0.012381773 -0.020344235
000220 09 80 25 be 89 cd 39 bd de ad af 3c 90 0e 99 3d
       -0.16162123 -0.04536203 0.021445211 0.07473481
000230 e0 10 f0 3b f0 57 e4 3d 7f 1e 63 3c 8d 27 13 3d
       0.0073262304 0.11149585 0.013862251 0.03592639
000240 81 e8 63 be f3 8f f0 bd 2e 3a b3 bb 72 35 8c 3c
       -0.22256662 -0.11746206 -0.005469582 0.017115328
000250 6d 42 b7 3d 52 45 69 3c fe 5a 11 3d 9e 7b 14 bc
       0.089482166 0.014237719 0.035487168 -0.009062676
000260 98 10 7a bb 12 bc 57 3e c1 7b a8 be 04 6e 21 bd
       -0.0038156863 0.21067837 -0.32906917 -0.03941156
000270 5b a8 21 bd d0 30 26 3e a7 45 88 bc 37 e0 66 3d
       -0.039467197 0.16229558 -0.016634775 0.05636617
000280 a2 a3 a1 3b 2d 05 bd bd 14 45 55 3c c4 5e 02 3d
       0.0049328366 -0.09229503 0.013016958 0.031828657
000290 a1 9d ae bd 0e 83 2e 3e 10 f2 af bc 5b 1e f8 3c
       -0.08526159 0.17042181 -0.02147773 0.030287912
0002a0 d0 e6 a3 3d e6 d5 d9 bd 76 f9 f3 3c c7 52 0c 3d
       0.08003008 -0.10636501 0.029782038 0.03425863
0002b0 85 c4 8c bd c7 41 67 3e 6c d0 fc 3b 5a eb f9 3c
       -0.068734206 0.22583686 0.0077152755 0.030507732
0002c0 ff ac 94 3c 3e fb fe bd c9 70 33 bd e2 d1 c9 3c
       0.018148897 -0.124502644 -0.043808732 0.024636213
0002d0 d7 c4 a7 3d dc 13 0a 3d ef 95 32 3d 74 00 9c bd
       0.08191841 0.033710346 0.04360002 -0.07617274
0002e0 6a 36 aa bd 38 ac 2a be b9 21 a3 bc 08 e7 aa bc
       -0.0831116 -0.16667259 -0.019913541 -0.020862117
0002f0 bf 95 8b 3d bc bb 53 bd 18 f6 f3 bc ff 82 e5 bd
       0.06815671 -0.05169271 -0.029780433 -0.11206626
000300 72 5e de bc dd 63 dc bd 93 48 8b 3c 34 e4 cc bd
       -0.027144644 -0.10761235 0.01700238 -0.10004464
000310 a1 46 63 3d f5 01 15 be a8 1d 38 bd 5a 56 9f bd
       0.05548728 -0.14551528 -0.044950157 -0.07780142
000320 2c 75 0a bc 21 28 b6 bd c8 9e 97 bd 62 f6 2b be
       -0.0084507875 -0.08894373 -0.07403332 -0.16793206
000330 0f df f1 bd 1e 7d 7c 3d c8 47 0b 3e 57 87 5d 3e
       -0.11810123 0.06164276 0.13601601 0.2163366
000340 98 bb 6a bc 4a d2 94 3d 28 24 db 3a b8 d9 90 3d
       -0.014326952 0.07266672 0.001671915 0.070727766
000350 46 93 63 3c 87 be 19 bd b4 92 a4 ba 1e a6 56 3d
       0.013890093 -0.037535217 -0.0012555928 0.052404515
000360 ca 5a 4c 3b 39 29 08 3e 50 37 d5 39 3b 01 93 3d
       0.0031182044 0.13296975 0.00040667737 0.07177969
000370 d7 6b ea 3c 4c 6e 0a bd 2a e7 e7 3c af 15 c3 3d
       0.028615875 -0.033796594 0.02830847 0.0952562
000380 20 24 d1 bd 65 19 52 3c 33 f5 b1 bd 76 74 1a bd
       -0.102119684 0.012823437 -0.08689346 -0.037708722
000390 7c 4e 2c 3d 52 b8 a3 3b 3d 54 b2 bd 24 21 98 bd
       0.042067036 0.004996338 -0.087074734 -0.07428196
0003a0 82 f6 9c 3d 3e 31 79 3e 5c 49 32 bc ab ab d0 bd
       0.07664205 0.2433519 -0.010881748 -0.10188993
0003b0 b4 c3 1a bd 26 5b 6c bc fa 26 e4 bc 3d 0f 00 be
       -0.037784293 -0.014426028 -0.027850617 -0.12505813
0003c0 62 ed 6e 3d e9 ed 7d 3e d6 ff 6f bc a2 5f e9 bd
       0.058331855 0.24797787 -0.014648398 -0.11395194
0003d0 84 5f 0e bd 5f d3 31 bd 82 8d 44 3b 9a 08 cd bd
       -0.03475906 -0.04341447 0.0029991572 -0.10011406
0003e0 4b 3b 09 bd b9 d0 3b 3e 45 d9 a2 bb 50 60 be bd
       -0.03350381 0.1834134 -0.004969748 -0.09295714
0003f0 69 6e d4 3b 5e 69 d4 3c 88 12 77 bc 59 f9 00 be
       0.0064828885 0.02592915 -0.015080102 -0.12595119

fcs1.bias f4 [400]
000000 e0 59 b7 3d 2f 2b f9 bd af c9 36 bd a4 14 b6 3d
       0.08952689 -0.1216644 -0.044625934 0.08890656
000010 23 b5 3c 3d 2e 8c 11 be 49 29 aa be 9c 5b 2c be
       0.046071183 -0.1421363 -0.33234623 -0.16831821
000020 42 b9 27 be fb 16 45 be fa 52 08 be 2d 10 21 be
       -0.16379264 -0.19247048 -0.13312903 -0.15728827
000030 a1 2f 6e 3d 26 e9 e3 bd 23 89 f0 bd 25 7b c7 bd
       0.05815089 -0.11128454 -0.11744907 -0.09740285
000040 c2 98 f3 bd fc 2e 78 be b1 93 6d be 5a cc 65 bc
       -0.118943706 -0.24236673 -0.23200871 -0.014025772
000050 92 3a 21 be 7b 28 52 be b7 e1 d7 be 2a dd b6 bd
       -0.15744999 -0.20523255 -0.42164394 -0.089289024
000060 f8 94 ce 3d d1 c9 5f 3c e6 06 0c 3d 4d 57 c0 bc
       0.10087007 0.013658957 0.034186266 -0.023479128
000070 d4 98 d8 bd 78 77 a8 bd 37 91 1b be 76 9f b3 3d
       -0.10576025 -0.08225912 -0.15192114 0.08770649
000080 ad 55 6c bd 86 87 b5 bc d3 f0 5a be 70 f1 10 be
       -0.057698894 -0.02215935 -0.2138093 -0.14154601
000090 0e fd 4a be f3 a7 63 bd c4 14 2b be 4e bc 69 bd
       -0.19823095 -0.05558009 -0.1670714 -0.057064347
0000a0 fb 2f 1f 3e 2c c8 89 bd 36 4a 08 3c 14 27 29 3d
       0.15545647 -0.06727633 0.0083184745 0.041297033
0000b0 60 f4 29 3d 1d 5d 71 3d a5 4b 86 bc 27 81 88 bd
       0.04149282 0.05892669 -0.016393492 -0.06665259
0000c0 92 2d 92 3d 23 c6 fc 3d 97 d1 21 be 90 d9 9d 3c
       0.07137598 0.12342479 -0.15802608 0.019268781
0000d0 41 64 b6 3d 15 c7 9d be ee 55 ce 3c 54 6f 19 3c
       0.08905841 -0.3081595 0.025187459 0.009364922
0000e0 a3 ac 92 bc d9 ed 3d bd 7d c8 f5 bc 94 12 a5 3d
       -0.017904585 -0.046369407 -0.030002827 0.08060184
0000f0 fd c6 0c be 46 fa 16 3d 96 31 81 bd 35 d7 72 3d
       -0.13747783 0.036859773 -0.06308286 0.05928727
000100 be cc 08 bd 0b 32 82 bd 58 9a ab 3d 36 b2 24 be
       -0.033398382 -0.06357201 0.08379048 -0.16083607
000110 57 df 13 bd cd 85 c4 bc c0 ce e7 3d e7 2d bb 3b
       -0.036101665 -0.023989582 0.11318731 0.005712259
000120 ed b8 80 bd 15 02 2f bd 9c c4 76 be 8b c9 a2 3d
       -0.06285272 -0.042726595 -0.24098438 0.079485975
000130 5c f5 02 be 48 93 6e bd 28 a0 34 be a1 c1 be be
       -0.1278891 -0.058245927 -0.1763922 -0.37257102
000140 7a 47 fc bc 72 1d b0 bd 41 9c e3 bd 09 7b c5 b9
       -0.030795801 -0.08599366 -0.111137874 -0.00037666436
000150 99 7c cc bd b1 1d 4e 3d fe 2c 1d be 09 80 04 be
       -0.099847026 0.050321285 -0.15349194 -0.12939467
000160 0f a8 f3 bd 08 f7 ef 3d 54 ba 94 bd 8a 52 74 3c
       -0.11897289 0.11717039 -0.07262102 0.014912257
000170 25 51 da 3d b9 29 fc bd 41 30 02 bd b6 de 64 3c
       0.10660008 -0.123126455 -0.0317843 0.013969114
000180 15 d4 af 3d 24 d1 a1 bd c5 6c 2d bd e5 91 51 bd
       0.08585373 -0.079012185 -0.04234006 -0.051164526
000190 b2 cb 32 bd 3a 09 22 3d 6e 17 dd bd 51 a9 e7 3c
       -0.04365129 0.03955958 -0.107954845 0.028278979
0001a0 22 0c 5a 3d 42 8e 0e be d3 c7 17 be 3c 55 2d bd
       0.053234227 -0.13921455 -0.1482232 -0.042317614
0001b0 88 8c 20 3c 96 14 c4 bd 3b e8 59 bd 18 bd b3 3d
       0.00979913 -0.09574239 -0.053199988 0.08776301
0001c0 40 90 c1 bd b2 aa f6 bd cb 04 61 3d 99 f8 49 bd
       -0.09451342 -0.12044276 0.05493621 -0.049309347
0001d0 85 e1 53 be 59 b0 60 be 01 27 e0 bd 68 39 e5 bd
       -0.20691498 -0.21942271 -0.109449394 -0.1119259
0001e0 c4 0a 04 be c7 a8 61 be a3 91 32 bd 66 ab 4e be
       -0.12894732 -0.2203704 -0.04359592 -0.20182571
0001f0 47 8a f1 bc 50 54 b9 bd 38 cf 7e bc d2 55 12 be
       -0.029484881 -0.090492845 -0.0155523345 -0.1429055
000200 79 71 fd bd 27 d1 03 be 1c 86 11 bc 6c df 10 be
       -0.12375159 -0.12872754 -0.008882072 -0.14147729
000210 c0 4b 82 bd 46 ad 07 be 83 fb 1b bd 00 ae c3 bd
       -0.063621044 -0.13249692 -0.038081657 -0.09554672
000220 e8 29 fd bc e3 12 eb bd 6f 27 00 be 10 ea 74 3d
       -0.030903772 -0.11478212 -0.12515043 0.059793532
000230 35 f0 d2 3b 19 e3 40 bd ae 26 b8 bc c8 7b 3a be
       0.0064373263 -0.047091577 -0.022479381 -0.18211281
000240 bd 73 fd bd 87 86 90 3c 2c 34 5a 3d d2 0a e5 bd
       -0.12375591 0.017642273 0.05327241 -0.111837044
000250 48 ed 8b 3d e6 47 67 be 0e 7a 67 bd fa ff 4e be
       0.06832367 -0.22586021 -0.056512885 -0.20214835
000260 de 83 81 bd 74 f1 22 3c 56 fa 85 3d 3c 6b 2f 3d
       -0.0632398 0.009945262 0.065418884 0.042826876
000270 ed 80 a9 bc 9d dc 8f bd 95 f6 35 3e 52 f1 69 be
       -0.02069136 -0.070245005 0.17769845 -0.22845963
000280 42 6c 16 be 72 4f bc bd 11 20 62 3c f3 0f 30 bd
       -0.14689735 -0.091948405 0.013801591 -0.04298396
000290 6f 30 e7 bd a2 37 9f bd a6 c4 d4 3c 39 9e 85 be
       -0.11288535 -0.07774283 0.025972676 -0.26097277
0002a0 1c 81 87 3d c1 cb 00 be e7 c7 45 bd 6f d5 cd bd
       0.066164225 -0.12577726 -0.048286345 -0.10050475
0002b0 ca e8 59 bd 45 81 01 3e fe 93 ed 3c 00 ea 18 bd
       -0.05320052 0.12646969 0.029001232 -0.037332535
0002c0 f4 5b cd 3c 6c e2 83 bc 9c 29 98 bd dd 9b 0f be
       0.02506826 -0.016099177 -0.07429811 -0.14024301
0002d0 b2 7f 81 be 2d 00 e5 bd 47 f4 36 be ea 65 3e 3d
       -0.25292736 -0.11181674 -0.17866622 0.04648391
0002e0 95 54 95 bd 75 66 1c 3d 39 2d 51 bd 88 b9 10 3d
       -0.07291523 0.03818365 -0.05106852 0.035333186
0002f0 39 8b a7 3d 06 24 10 bd b8 bb 49 bd 40 3b 7c bd
       0.081808515 -0.035190605 -0.04925129 -0.061579943
000300 65 74 8d bd 02 7c e4 bd 9b 72 56 be 5c 55 c7 bd
       -0.06906966 -0.11156465 -0.20942156 -0.09733078
000310 9d fa 0d be 85 aa e7 3d 78 37 db 3d 1f 77 3f be
       -0.13865133 0.11311821 0.10703939 -0.18697785
000320 c0 f9 0c be 56 b1 4f be 39 93 c4 3c 53 bb 55 3d
       -0.13767147 -0.20282492 0.023995982 0.0521806
000330 41 f4 74 bd 64 9d 24 be 07 f7 e0 bd da b8 3a 3d
       -0.05980325 -0.16075665 -0.10984617 0.045586444
000340 02 26 ea 3d ff 24 9d bd 38 b0 d9 bc 64 b6 dc bd
       0.11433031 -0.07673072 -0.026573285 -0.10776976
000350 ee a8 7a 3d 47 df da bc c7 97 5f bd 20 3d 6e 3d
       0.06119626 -0.026717795 -0.054588106 0.058163762
000360 0a b8 21 3d 00 f0 68 be be 2e 5b be 2d 9e d3 3c
       0.039482154 -0.22747803 -0.2140455 0.02583226
000370 7c ef b8 bd d1 fc 15 3d ab 52 c4 bc 71 18 12 3d
       -0.09030053 0.036618058 -0.0239652 0.03566784
000380 9a e4 aa bc a2 96 49 3d 0a 39 00 be 9e 05 d0 3c
       -0.020860959 0.04921592 -0.12521759 0.025393303
000390 c7 03 67 3d ba f0 73 3c 36 09 eb bc 6a cd 16 be
       0.056400087 0.014888937 -0.028690916 -0.14726797
0003a0 a7 a1 a0 3d 5f f4 48 bd 1b 56 bb bd 00 35 95 bd
       0.07843333 -0.049061175 -0.09147283 -0.072854996
0003b0 cb 93 9e bd f3 e5 38 be b6 6a 41 3d 5a c6 68 3d
       -0.07743033 -0.18056469 0.047220908 0.056829788
0003c0 cc 9f e8 3c 10 06 c2 bd 07 59 44 3d b7 55 5c 3d
       0.02839651 -0.094738126 0.047936466 0.05379268
0003d0 09 f1 46 bd 14 fd c2 3d d2 30 42 3d 5f b4 0c 3d
       -0.048569713 0.09520927 0.04740984 0.034351703
0003e0 98 eb 9c bc 3e 8e 80 bd 63 1e e6 3d 53 9d 9e bc
       -0.019155309 -0.062771305 0.112362646 -0.019362127
0003f0 35 e2 be bd c7 4c 55 be 15 ad 10 be 53 77 a5 bd
       -0.09320489 -0.2083007 -0.14128526 -0.080794

fc2.weight f4 [300, 400]
000000 19 f2 1a 3d 8d de d1 bc 7e 55 51 3c 67 0e dd bc
       0.03782854 -0.025618816 0.012776731 -0.026984407
000010 c6 22 3c bd 98 6b d7 3d f0 4c b1 bd 76 34 2a 3d
       -0.0459316 0.10518569 -0.08657253 0.041553937
000020 c4 ce 30 3d c1 c9 e6 bd 7a 3b 95 bc ba 1d 86 bd
       0.043165937 -0.1126895 -0.018216837 -0.06548639
000030 04 75 c9 3c c0 a1 ae bb 7e 8c 5f bd 65 8e 38 3d
       0.02459193 -0.0053293407 -0.054577343 0.045057673
000040 82 b4 82 bb 0d 78 78 bb db 6a 0b 3d b0 fe 9f bc
       -0.0039888034 -0.0037913353 0.034037452 -0.019530624
000050 21 23 3e bd 52 3e b3 bd 83 82 4b 3d 8e 60 d8 bd
       -0.04642022 -0.08752121 0.049685013 -0.10565291
000060 77 16 36 bc 4c 97 24 bd 52 b0 36 3d 45 79 37 3c
       -0.0111137545 -0.04018335 0.044601746 0.0111983465
000070 bf 05 02 3d 03 5e 99 bd 12 bc 29 bd 86 f8 3b bd
       0.03174376 -0.074886344 -0.041439123 -0.045891307
000080 3d 5e cd bd 18 6a b3 3a 43 46 f4 bc e7 09 cc bd
       -0.1002774 0.0013688235 -0.02981866 -0.09962826
000090 ee ef 47 3d a1 99 dd bc 27 de 6e bd 5e b9 d7 3d
       0.0488128 -0.027050795 -0.05831733 0.10533403
0000a0 37 29 48 bc 50 ed b4 bd c7 5f 29 bd 7b 8c 52 bd
       -0.012216858 -0.08834326 -0.041351106 -0.051403504
0000b0 b9 1d fc 3b 60 01 2c bd 1d 29 82 bb aa 17 25 bd
       0.007693973 -0.0419935 -0.0039721862 -0.04030577
0000c0 56 e0 da 3d 56 85 0e 3c 09 2d 47 bd 8b b4 7c 3d
       0.1068732 0.008698782 -0.048626933 0.061695617
0000d0 0a 2a 70 3d 19 b2 9a bd b1 c2 0a 3d ff 39 47 be
       0.05863384 -0.07553501 0.03387708 -0.19455718
0000e0 02 4c b3 bd 99 84 0b bd 26 87 a9 3d 18 ff 14 3d
       -0.08754732 -0.034062 0.08277731 0.03637609
0000f0 0a 60 24 bc d3 14 85 3c cb 00 70 3c c6 6f 9c 3c
       -0.010032663 0.016245281 0.014648627 0.019096266
000100 2a dc 4f bc 0c 8b 66 bd c7 d7 b6 3d f8 dd 8a 3b
       -0.012686769 -0.05628495 0.08927875 0.0042378865
000110 77 59 4c 3c 09 3f 97 bd 49 7c 59 bd 95 24 c9 bc
       0.012472502 -0.0738507 -0.053097043 -0.024553576
000120 ba 20 01 3d 45 c8 3a bd 28 16 da 3c 3d 34 9f bd
       0.03152535 -0.04560115 0.026621893 -0.077736355
000130 e9 bc b0 bd b0 e4 49 bd c1 cb af 3c a3 80 29 3c
       -0.08629782 -0.04929036 0.021459462 0.010345611
000140 36 8d 38 bd d0 6f 0e bd df fa 05 bd fe 8b 74 bd
       -0.045056544 -0.0347746 -0.032709952 -0.05970382
000150 a3 e8 1e bd b4 06 ec bb 1c 6c 8a 3d 93 a6 f4 3c
       -0.03879608 -0.0072029475 0.067589015 0.029864585
000160 3f b2 cd 3d 19 3a 95 3c 73 1b 48 bd 85 f2 a6 3d
       0.10043763 0.01821618 -0.048854303 0.08151726
000170 3d bc 9b bd dc 8f 57 bd e0 fe 2b bd 7c e8 3a 3d
       -0.07604263 -0.05262743 -0.041991115 0.04563187
000180 17 7b c4 3c 84 fc b1 3d 14 7a 0f 3d b4 d6 36 bd
       0.023984475 0.08690742 0.035028532 -0.04463835
000190 11 b5 7a bd a3 22 b1 3b 4f bb 1c 3c a7 32 5b bc
       -0.061207835 0.0054057403 0.009566142 -0.013378776
0001a0 04 70 82 bd c5 e4 d6 bd d0 fd 08 3d 68 d7 08 bc
       -0.063690215 -0.10492853 0.03344518 -0.008352138
0001b0 0b bb b4 3d 48 2c f5 bc 66 4e 37 3b ec ab 97 bc
       0.08824738 -0.029928342 0.0027970313 -0.018514596
0001c0 87 e3 47 3c 09 fc 2e 3d 37 7a 9a 3d 6d 12 b6 bd
       0.012200243 0.04272083 0.07542842 -0.08890233
0001d0 38 2b cf 3c 6f fc 62 bc 4a 98 45 3d dc 73 69 3d
       0.025289163 -0.01385413 0.048240937 0.056995258
0001e0 28 0a 12 bd ee c9 84 bd 4f e8 c7 3c 37 d1 a3 bd
       -0.035654217 -0.064838275 0.024402766 -0.07998889
0001f0 6e e5 51 bd a4 dc 10 bd 09 52 2f bd 5e 4b 9a 3d
       -0.05124419 -0.03536667 -0.042802844 0.075339064
000200 5b 6a 8d 3d 16 79 bd bd 64 61 8e 3d bd 0a 11 be
       0.06905051 -0.09251611 0.069521695 -0.14164253
000210 e6 e7 34 3d ff a0 ca 3d 69 97 e9 bc ec 62 8a 3c
       0.044166468 0.09893989 -0.02851458 0.016892873
000220 d4 dc 38 bd 58 97 22 bd 93 2d 91 bd 12 84 5b 3c
       -0.045132473 -0.039695114 -0.07088771 0.013398187
000230 74 98 85 bd 00 9a be bd 64 d1 d5 3b d5 27 f4 bc
       -0.06523219 -0.09306717 0.0065252054 -0.02980415
000240 78 ab 8b bd f3 8e 4e bd 5d 46 de bc cd f4 02 3d
       -0.068198144 -0.050429296 -0.027133161 0.03197174
000250 b1 5d ab 3b c9 dd e6 bb 84 f8 40 bd 93 9f 92 bd
       0.0052296747 -0.007045482 -0.047112003 -0.071593426
000260 26 6e 2f bd 1b 46 19 3d aa 97 3c 3d a0 2f 4a 3d
       -0.042829655 0.037420373 0.046043076 0.049361825
000270 5d 52 ae bd 34 49 8c bd a0 d9 70 bc 05 ed 46 bb
       -0.08511803 -0.068499 -0.014700323 -0.0030353677
000280 c0 89 e0 3c cd 20 4f 3c 4d 07 9a bc cd e3 ea bc
       0.027409434 0.012642098 -0.01880231 -0.028673077
000290 a0 0c b4 3c 4b 34 67 3d 5b bc 95 bc 6b 86 ee bd
       0.021978676 0.056446355 -0.018278291 -0.11646732
0002a0 f0 59 ab 3c 41 da 48 3d 37 93 7e 3c 31 40 20 3d
       0.020916909 0.04903627 0.015538028 0.039123718
0002b0 dd de 69 bd 62 a6 22 3a 73 1d 65 bd 9a 9e 0b 3c
       -0.057097305 0.00062046025 -0.055936288 0.0085217
0002c0 33 30 62 3d 3a bd 9b 3d f9 4c 0c bd 6c 24 2d bd
       0.055221748 0.076044515 -0.034253094 -0.042271063
0002d0 aa 97 40 be 4b 18 96 3d 6f 2b e1 bc 7e 4a 1d bd
       -0.18807855 0.07328852 -0.027486531 -0.03840112
0002e0 29 1e fb 3a 74 61 ce bd 90 17 75 3d 09 2f 2b 3d
       0.0019158769 -0.100771815 0.059836924 0.041792903
0002f0 5b 0e 0e 3d fa 69 15 bd 41 a3 32 bd e0 06 6a 3d
       0.03468166 -0.03647802 -0.043612722 0.057135463
000300 50 9d a6 bd 5b ef cc bc b4 64 09 3c 01 78 9c bc
       -0.08135474 -0.025016477 0.008385826 -0.019100191
000310 e5 b7 32 bd 7f fb 10 3c a3 41 3a bd 3c 67 a2 bb
       -0.043632407 0.008849024 -0.045472752 -0.004956154
000320 7a 77 cb 3c b0 69 83 bd a5 38 e9 bc 43 af 9c 3d
       0.024837244 -0.06416643 -0.028469393 0.07650616
000330 53 6d 98 3a e1 60 ac 3c 5c ac 09 ba 41 ed d7 3b
       0.0011629261 0.02104229 -0.0005251819 0.006589562
000340 98 ec 2c be 20 02 b2 bd 71 fa 9c bd bb b2 0f bc
       -0.16887128 -0.086918116 -0.076649554 -0.00877064
000350 12 7a 32 bd 49 cb 22 bd 77 49 59 3c 7c c0 8e bd
       -0.043573447 -0.03974465 0.013262144 -0.06970307
000360 43 64 91 3d 1f b2 91 bb 06 9f 1b bd 6b e8 00 bc
       0.070992015 -0.0044462825 -0.037993453 -0.007867913
000370 9e 71 65 bd 3f 29 5f 3d 69 a1 30 3d ac e5 5a 3d
       -0.056016557 0.054482695 0.043122683 0.05344169
000380 9b c8 62 bd 2c 74 7d bc c5 d8 e6 3d 91 e9 96 3d
       -0.055367094 -0.015469592 0.11271814 0.07368768
000390 e6 45 6f bc 86 81 64 3d 2e d7 1c bd 06 dd c1 3d
       -0.014604067 0.055787586 -0.03829115 0.09465985
0003a0 e2 0e 31 bd 59 b4 5f 3d 11 8e 8d bc 2a 4b 16 bc
       -0.043227084 0.054615352 -0.017279657 -0.009173194
0003b0 fd d6 88 bd fb 10 67 3d 74 61 9e bc 8e 65 10 bd
       -0.06681631 0.05641268 -0.019333579 -0.0352531
0003c0 5d 42 31 3c 45 2f 0e bd b9 3a 47 3d 22 7b 9f b7
       0.010819045 -0.03471305 0.048639987 -1.9011615e-05
0003d0 53 1b d5 bc 4b bd a0 3d 72 08 8e bc 06 ca 3a 3d
       -0.026014006 0.07848605 -0.017338011 0.04560282
0003e0 fe a1 14 be 47 9a 4e 3c 82 4a 30 bd 77 ed 08 3e
       -0.1451492 0.012610025 -0.043039806 0.13371836
0003f0 be 25 f5 3b ab 85 af 3c 22 e9 d1 bb fa 92 91 3d
       0.007481306 0.021426043 -0.0064059654 0.07108112

fc2.bias f4 [300]
000000 55 50 72 bd 9a ac f7 bd 69 0f 31 bd ea 11 6f bd
       -0.05915864 -0.12093468 -0.043227587 -0.058366694
000010 ad 6a 0d be b2 2c 8d bd a8 6d a3 bd c1 b9 05 be
       -0.13810225 -0.068932906 -0.079799 -0.1305914
000020 7e 0d a7 bd 89 fa 4b bd 9d b3 a3 bc 59 0d 95 bd
       -0.0815687 -0.049799476 -0.019983107 -0.072779365
000030 cb 85 5c bd 2a 00 c8 bd 01 94 98 bd 4a f2 95 bd
       -0.053838532 -0.09765656 -0.074501045 -0.073216036
000040 cf 40 70 bd 86 97 f1 bd 2e 23 f4 bd ff 0f b9 bd
       -0.058655556 -0.11796479 -0.119207725 -0.09036254
000050 fd fa 09 be d2 5c 15 bd 35 d9 bd bd 92 ad cf ba
       -0.1347465 -0.036465473 -0.092699446 -0.0015844575
000060 11 85 84 bd 9c 4d 15 be 74 12 b3 bc 35 0c f4 bd
       -0.06470693 -0.14580387 -0.021859385 -0.11916391
000070 fe 7f c5 bd a4 ab 55 bd a6 38 c8 bc ac ac ec bd
       -0.09643553 -0.052165642 -0.024441075 -0.11556372
000080 a2 5d 93 bd a1 76 3f bd 25 57 56 bc e3 50 0d be
       -0.071955934 -0.046743993 -0.0130823 -0.13800387
000090 de da 79 bc a3 36 c1 bd ce a2 12 be bf 8f 15 bd
       -0.015249936 -0.09434249 -0.14319918 -0.03651404
0000a0 62 ed d7 bc 08 eb ed bd cc e4 83 bc 03 2f 6e bd
       -0.02635831 -0.11617094 -0.01610031 -0.058150303
0000b0 ab b5 a5 bd a0 ba e9 bd 22 44 17 be d9 d9 6b bd
       -0.08091291 -0.11412549 -0.14772084 -0.057580803
0000c0 b9 07 d6 bd 3a 44 f6 bd a3 f7 af bd 49 08 00 be
       -0.10450692 -0.12024732 -0.08592155 -0.1250316
0000d0 aa 25 f6 bd 99 6c 11 be be a9 8f bd ef 6a 73 bd
       -0.120189026 -0.14201583 -0.07014798 -0.05942815
0000e0 36 2b d2 bd 45 cd 64 bc 1b 77 ab bd bc 99 d2 bd
       -0.10262148 -0.013964956 -0.08372327 -0.10283229
0000f0 73 a0 ee bd c3 3b 1f bd 07 6a 16 bd 14 f3 a1 bd
       -0.11651697 -0.038875353 -0.03672221 -0.079076916
000100 67 dc d5 bd 7c 45 08 be 4f 40 a5 bc ac 75 e3 bd
       -0.10442429 -0.13307756 -0.020172266 -0.111064285
000110 34 fc 99 bd 01 f2 04 be ee b0 df bc e4 34 c6 bd
       -0.07518807 -0.12982942 -0.027306046 -0.09678057
000120 2d ea de bd 81 5f e5 bd 75 38 03 be c8 98 f2 bd
       -0.10884509 -0.111998565 -0.12814505 -0.11845547
000130 1c d2 03 be 78 e3 dd bd f5 90 1b be a3 31 18 be
       -0.12873119 -0.10834402 -0.15192015 -0.14862685
000140 8e 31 a2 bd 5d eb 8b bd 32 02 00 bd 56 c0 f7 bd
       -0.07919608 -0.06832001 -0.031252094 -0.12097232
000150 ff 7b 5d bd 13 7b d0 bb 65 8e c0 bd 0a 50 df bd
       -0.05407333 -0.006362328 -0.094021596 -0.10903938
000160 28 11 fd bd 41 68 c1 bd ac f2 d4 bd 41 01 13 be
       -0.12356788 -0.09443713 -0.103978485 -0.14355947
000170 04 d3 1d bc d2 a6 a4 bd bd 67 9e bd 02 2a 0e be
       -0.00963283 -0.08039631 -0.0773463 -0.13883212
000180 b2 3e f6 bd 92 1e 66 bd 28 17 68 bd 98 23 cc bd
       -0.12023677 -0.056181498 -0.05666271 -0.099677265
000190 3f 35 af bd 19 b3 af bd c3 e0 9b bd 37 43 da bd
       -0.08555078 -0.08579082 -0.07611229 -0.106573515
0001a0 d5 da 63 bd 61 ab a7 bd d5 8e ae bd 78 da bd bd
       -0.055628616 -0.08186985 -0.08523337 -0.09270185
0001b0 d0 14 e9 3a 45 b2 07 bd 04 ce d2 bd b6 dd 08 be
       0.0017782692 -0.033128995 -0.102932006 -0.13365826
0001c0 b9 15 5f bc 85 8d e4 bc 4a f8 99 bd ba bd 49 bd
       -0.013616019 -0.027899513 -0.075180605 -0.049253203
0001d0 20 2d 98 bd 34 a8 e7 bd 0c ad 7e bd 63 03 86 bd
       -0.07430482 -0.11311379 -0.06217675 -0.06543615
0001e0 53 db a9 bd d0 a7 cd bd 94 32 11 be 1d 56 f5 bd
       -0.08293786 -0.10041773 -0.1417945 -0.119793154
0001f0 06 06 be bd 52 a6 63 bd 14 05 c0 bd 96 45 a7 bd
       -0.09278493 -0.055578537 -0.093759686 -0.08167569
000200 b5 cb 5c bd 23 03 8c bd e4 a0 8a bd f3 8e be bd
       -0.053905208 -0.06836536 -0.06768969 -0.09304609
000210 90 56 ab bd 3e f7 54 bd 17 dd 59 bd 7a 6c c9 bc
       -0.0836612 -0.0519936 -0.053189363 -0.024587858
000220 f2 63 18 be 46 5f ae bd 0a 86 cc bd 42 7a 94 bd
       -0.14881876 -0.08514266 -0.099865034 -0.07249881
000230 17 8e a7 bd d9 36 a6 bd 6f 7a e8 bc cd c6 49 bd
       -0.08181398 -0.0811593 -0.028378693 -0.049261857
000240 5b 1a ba bd e2 ab 00 bd 24 f8 81 bd 03 11 be bd
       -0.09087058 -0.03141392 -0.06346157 -0.092805885
000250 90 69 47 bd e2 fe 16 be b1 b2 8e bd 4c ff 97 bd
       -0.048684657 -0.14745668 -0.069676764 -0.07421741
000260 63 6e 93 bd 5d a6 83 bd aa 9b 30 bd c3 d6 3d bd
       -0.07198789 -0.06428216 -0.043117203 -0.04634739
000270 a6 39 a1 bd d2 e8 9a bd 35 3b 3c bd 16 97 a0 bd
       -0.07872324 -0.07563938 -0.0459549 -0.07841317
000280 b6 bc 3d bd 5b bf 4a bd 41 31 f0 bd fd 6a b6 bd
       -0.046322547 -0.049498897 -0.117281444 -0.08907125
000290 c6 fb 99 bd 72 6e d5 bd 0c 65 07 be 6c 72 70 bd
       -0.07518725 -0.104214564 -0.1322214 -0.05870287
0002a0 bb 8f b4 bd 8b c2 eb bd 18 71 a8 3c be e8 f6 bd
       -0.08816477 -0.115117155 0.02056174 -0.12056111
0002b0 4a 5b c5 bd db ab c2 bd 45 71 a7 bd 74 08 02 be
       -0.09636553 -0.09505435 -0.08175901 -0.12698537
0002c0 8a cc 71 bd 32 09 75 bd 23 4e c4 bd 3b db a7 bd
       -0.059032954 -0.059823222 -0.09585216 -0.08196112
0002d0 0b 36 87 bd 37 ad ad bd 84 95 b4 bd 46 19 0c bb
       -0.06602105 -0.08480304 -0.0881758 -0.0021377369
0002e0 1c 7f c6 bd e0 74 c5 bd 92 79 e5 bd 57 ec a2 bd
       -0.09692213 -0.09641433 -0.11204828 -0.079552345
0002f0 68 4e 06 be 70 f7 e7 bd d7 70 a4 bd fa 9a 07 be
       -0.13115847 -0.11326492 -0.08029335 -0.13242713
000300 0d 8a a5 bd 58 0d fd bd c6 3c 9b bd 20 a8 78 bd
       -0.08082972 -0.12356061 -0.07579951 -0.06070721
000310 c9 62 86 bd f9 27 11 be 70 20 07 be 56 a6 00 be
       -0.065618105 -0.14175405 -0.13195968 -0.12563452
000320 8b d1 08 be 13 05 14 bd ac 4c 1a bd 98 da 08 bd
       -0.13361184 -0.03613765 -0.037670776 -0.033411592
000330 c9 56 10 be fe a0 c8 bd fd c3 e3 bd dd 54 3d bd
       -0.14095606 -0.09796332 -0.11121366 -0.04622351
000340 10 b6 8b bd e5 fc c5 bd bb 33 b2 bd 92 dd de bd
       -0.06821835 -0.096673764 -0.08701273 -0.10882105
000350 66 e5 b9 3c e9 52 d0 bd 16 49 e3 bd c3 f1 a4 bd
       0.022692394 -0.10172064 -0.110979244 -0.08053925
000360 25 60 aa bd da 22 12 be 58 99 ef bd 82 8c be bd
       -0.08319119 -0.14271107 -0.1169917 -0.093041435
000370 8e ea 99 bd 5e 57 68 bd e0 6e d8 bd c8 c3 2e bd
       -0.07515441 -0.056723945 -0.10568023 -0.04266718
000380 cd b3 f6 bd 94 a8 0b be 0b a7 40 bd 20 a0 83 bd
       -0.12046013 -0.13638526 -0.047034305 -0.06427026
000390 37 78 f8 bb 1b de c7 bd 41 52 bf bc 31 e7 30 bd
       -0.00758269 -0.0975916 -0.023354651 -0.04318923
0003a0 80 32 c4 bd 95 f1 03 bd 92 50 e0 bd 2c aa 84 bd
       -0.095799446 -0.032212812 -0.109528676 -0.0647777
0003b0 57 6e e4 bd c6 47 da bd 90 31 5c bd 48 bf bc bd
       -0.11153858 -0.10658221 -0.053758204 -0.092161715
0003c0 e7 4f 85 bd 83 2a 04 be f4 17 f9 bc ec 65 83 bc
       -0.06509381 -0.12906842 -0.03040693 -0.016039811
0003d0 83 2e d8 bd 6f cf fc bd 14 91 85 bd 4e f8 d2 bd
       -0.105557464 -0.12344252 -0.06521812 -0.103012666
0003e0 fd cd 29 bd 68 c8 a9 bd d3 c8 e0 bd df 47 ca bd
       -0.04145621 -0.082901776 -0.10975804 -0.098769896
0003f0 c9 4a 02 be 6c f1 d8 bd e6 e1 8d bd 0d 85 99 bd
       -0.12723841 -0.105929226 -0.06927852 -0.074960805

fc3.weight f4 [1, 300]
000000 c3 a1 f1 3b 73 6c 4c bc 40 68 3c bc dc 86 18 3c
       0.00737402 -0.012477028 -0.0114994645 0.009309497
000010 33 35 93 bc 27 45 89 3c 5a b6 c8 3b 39 be 91 3c
       -0.017969703 0.016756607 0.0061252536 0.0177909
000020 bc 38 61 3c ac 8d 96 3c 77 7c c4 3b dd e4 b0 bc
       0.013746437 0.018378101 0.0059962827 -0.021593506
000030 bb 6d ca bc 76 a7 59 3c 22 4c d0 bc aa 77 fc bb
       -0.024710527 0.013284555 -0.025426928 -0.0077046948
000040 7e 1c 37 bc 4f 52 3a 3c 02 93 67 bc e9 12 94 bc
       -0.011176227 0.011372163 -0.0141341705 -0.018075423
000050 77 7b 10 3d 72 45 31 3b 90 d3 2c 3d 79 75 0d bc
       0.035273995 0.002704945 0.04219395 -0.008633965
000060 a7 f6 28 bc 78 77 a0 3c 31 0a 89 3b 62 8e 17 3c
       -0.010312713 0.019588217 0.004182123 0.009250255
000070 d9 86 98 bc eb 73 2e bc c6 64 d6 bc ea d5 95 3a
       -0.018618988 -0.010647754 -0.0261711 0.0011431549
000080 1b 19 e6 3b bf aa 1c 3c 40 58 b3 3c 98 03 c7 3c
       0.007022036 0.009562193 0.021892667 0.024293706
000090 88 72 0b 3c b9 82 2c bc 9c 1c ed bc 93 6b b6 3c
       0.008511193 -0.010529214 -0.028944306 0.022268092
0000a0 0f 8a e3 bb fd 92 ab 3b c9 fc 34 bc ca 16 06 3c
       -0.006943948 0.005236028 -0.011046597 0.008184144
0000b0 05 22 01 3c d3 74 da 3c d1 26 10 bc 7f 8b fb bb
       0.007881646 0.026667034 -0.008798317 -0.0076765413
0000c0 1a db ac 3a dd 0e b8 3c fe ca f3 bc a9 34 03 3c
       0.0013187856 0.022468025 -0.02975988 0.008008161
0000d0 4e 84 29 3c 80 9c 32 3c cd 7c 0b 3c b6 2f 4e 3c
       0.010346485 0.01090157 0.008513642 0.012584617
0000e0 60 58 1f bd b2 b6 54 3c 09 1a 26 bc 56 b9 a3 3c
       -0.03890264 0.012983011 -0.010138043 0.019985836
0000f0 b3 6b bc bc 09 0c 1d 3c f8 f1 2c 3c a7 80 5a 3c
       -0.023000574 0.009585389 0.010555737 0.013336337
000100 2d 87 ed 3c fb 4e 90 3c 71 f1 33 bc 25 1e 3a bc
       0.02899512 0.017615786 -0.010982857 -0.011359726
000110 3f ff 76 bc 01 96 e4 3c 93 fd 54 bc 33 20 32 3b
       -0.015075504 0.027903559 -0.01299991 0.0027179837
000120 63 f3 77 bc cb e7 c4 3c 80 1a 96 bc 4e 63 24 3d
       -0.0151337115 0.024036309 -0.018323183 0.040133767
000130 28 b4 14 3c 18 ba 65 3b 67 d1 c1 3c 7d fa 97 3c
       0.009076156 0.0035053547 0.023659421 0.01855206
000140 ae 98 64 3c 11 49 ad 3c 93 6b 9f bb 73 0d d2 3c
       0.013952417 0.021153005 -0.004865119 0.025641179
000150 40 0d 19 b9 7d 11 83 bc 7a b9 aa 3c 0a b1 3e bc
       -0.00014596153 -0.01599955 0.020840395 -0.011638889
000160 e2 10 51 3c c4 b6 d1 bb f8 ef 33 bd ab ac fb 3c
       0.012760373 -0.006399961 -0.043930024 0.030721983
000170 b6 01 bf bb b0 02 f4 bb e2 d9 7b bc aa af 85 3c
       -0.0058290614 -0.0074466094 -0.0153717715 0.016319115
000180 0e 38 0e 3d 52 04 21 3c 0c 4b 3a bc fe 75 ca 3b
       0.034721427 0.00982769 -0.011370432 0.0061786165
000190 15 f5 c6 3c 09 58 eb ba f7 cd a9 bc e5 77 8c 3c
       0.024286786 -0.0017955314 -0.020728095 0.017147014
0001a0 10 f8 e7 bc 28 87 1f bc 95 39 38 bc 87 8a a0 bc
       -0.028316528 -0.009736814 -0.011244197 -0.019597305
0001b0 20 d1 e7 3b 8d 20 15 bc ab eb f9 bb 12 4f ce 3c
       0.00707449 -0.009101999 -0.0076269708 0.025184188
0001c0 83 84 c9 3b 39 4e f4 bb 91 a2 66 3c 93 23 9e bb
       0.00614983 -0.007455614 0.014076845 -0.004826018
0001d0 f9 28 be 3b 23 7b a5 bc 12 6a c9 3b f9 da 85 bb
       0.005803224 -0.020200318 0.006146678 -0.0040849415
0001e0 97 ad bf bc 60 76 4a 3c 98 3a 43 3c 84 59 06 bc
       -0.023398204 0.012357324 0.011915825 -0.008200053
0001f0 40 7b e3 bc c6 d3 c2 bc 61 9a 01 bd 26 59 4b bc
       -0.027768731 -0.023782622 -0.031641368 -0.012411391
000200 5c 7a 6d 3c 0a 11 21 bc a2 ed b3 bb 03 18 46 bc
       0.014494505 -0.009830723 -0.0054909745 -0.012090686
000210 6b aa db 3b 26 51 30 bc 72 67 ca bb 3e 57 cd bb
       0.006703665 -0.010761535 -0.0061768824 -0.0062665036
000220 67 23 e3 bc 20 62 7d bc c1 91 8b 3c 03 78 4f bc
       -0.027726842 -0.015465289 0.017037274 -0.01266289
000230 f2 8b 9d bb c9 64 80 bc 48 2b 51 bc 4b b4 8e bc
       -0.0048079425 -0.015673058 -0.012766667 -0.017419955
000240 eb 52 58 3c 1c 42 86 3c 09 46 7d bc 80 df 17 3c
       0.013203363 0.016388945 -0.015458592 0.009269595
000250 f2 f3 77 bc e2 9a 53 bc cf 4e 54 bc 8a be 01 3c
       -0.015133845 -0.012915345 -0.012958243 0.007918963
000260 b7 8d 31 3c 1b 03 72 3c e5 af 43 bc fb 7f c6 bc
       0.01083701 0.014771248 -0.011943792 -0.024230948
000270 4a 60 e0 bc 2b 1d d5 3c f5 d9 35 3c 74 9a 38 bd
       -0.027389664 0.026014885 0.011099328 -0.045069173
000280 ea 7b 0f bc ba 2c fb 3b 4d 9c ea 3b fc 30 8f bc
       -0.008757571 0.007665244 0.007159746 -0.017479412
000290 2c 80 1b bc fd c5 da bb d4 55 8f 3c a6 09 e0 bb
       -0.009491008 -0.006676434 0.01749698 -0.0068370877
0002a0 53 98 79 bc 23 b7 90 3c 5c 8e d3 bb c0 fd 0c bb
       -0.015234071 0.017665451 -0.0064561795 -0.0021513551
0002b0 b2 be 31 bc 88 fe 1d bc 24 e5 1a 3c a6 2c 5f 3c
       -0.010848688 -0.0096432045 0.009454045 0.013621485
0002c0 09 98 a4 3c 58 b9 cc bc 24 a2 80 3d 7c a4 35 bc
       0.020092027 -0.024990723 0.06280926 -0.011086579
0002d0 72 5b 91 bc a1 92 6e bc 2c e6 d1 3b 0d a2 96 3b
       -0.0177438 -0.014561326 0.0064056125 0.0045969547
0002e0 6c 96 0e bb 32 a4 92 3c b5 69 5e 3c 43 a9 63 3c
       -0.002175714 0.01790056 0.013575007 0.013895336
0002f0 7b 30 78 bc 8a 4c 91 3c 9f d0 09 3c 52 8a 3d 3c
       -0.015148277 0.017736692 0.008411556 0.011568623
000300 e7 7d 50 bc f0 db 40 bc 48 4f 8d bc a2 2c 2c 3c
       -0.01272533 -0.011771187 -0.017249718 0.010508688
000310 ab 7d 19 bc 25 1f 37 3c d1 78 5a bc 9d 57 48 bc
       -0.0093683405 0.011176859 -0.013334469 -0.01222792
000320 4f e8 2b 3d f6 29 d8 3b be dc 2f 3c da 67 2a bc
       0.041969594 0.006596799 0.010733781 -0.010400737
000330 8f 14 05 bd 66 27 10 3c db f0 c7 bc 9f 73 0d bc
       -0.03249031 0.008798456 -0.024406841 -0.008633523
000340 fb f9 2a bc 77 a7 c7 bb 5d c5 2a 3b e4 8b 09 3c
       -0.010435577 -0.0060929614 0.002605758 0.008395169
000350 51 92 98 bb a6 27 08 3d 7b ff 20 bc d2 10 ce 3b
       -0.004656114 0.033240937 -0.009826536 0.006288626
000360 09 a3 f4 bb fe bd 2f 3d ce d9 46 3c 6d 49 17 bc
       -0.0074657244 0.0429058 0.01213689 -0.009233815
000370 0d 80 1d bc 57 8f 8e 3c fe 54 1c bc 37 fa 8e 3c
       -0.009613049 0.017402334 -0.009541748 0.017453296
000380 d3 cf 8a 37 a1 22 ae 3c 24 e8 0a 3c c9 86 c8 3b
       1.6547658e-05 0.021256747 0.008478198 0.0061195833
000390 86 d9 74 3c c6 0a 45 bc 9a c4 15 bc f7 c3 8b bc
       0.01494444 -0.012026494 -0.009141112 -0.017061217
0003a0 8b a8 5e bc 85 f9 52 bc 07 bb e7 bb 5f dd 02 bc
       -0.013589988 -0.012876873 -0.007071856 -0.007987349
0003b0 7c bd 80 bc 6e c9 2e 3c b5 aa d4 3c 39 9f 21 bc
       -0.015715353 0.010668142 0.025960306 -0.009864622
0003c0 65 ef 6c 3c 54 01 cd 3c a2 7f 36 bc 0d 4a 49 bc
       0.014461373 0.025025047 -0.0111388285 -0.0122857215
0003d0 09 16 7c bb c2 dc e0 3c 18 1b dd 3b 7a db 1a 3c
       -0.0038465282 0.027449016 0.0067476146 0.009451741
0003e0 cc 58 4a bc 60 7b 3b bc c7 7e 46 3c a0 d1 a6 bb
       -0.012350272 -0.011442989 0.012115187 -0.005090907
0003f0 fb 93 b6 3c 1f 60 61 bc a5 49 05 3d 2c 7f 26 bc
       0.02228736 -0.013755827 0.032540936 -0.010162156

bn1.weight f4 [400]
000000 fb 9f d9 3e 5e e3 0d 3f ec 17 fc 3e f3 f8 31 3f
       0.42504868 0.5542506 0.49237 0.6952049
000010 ab 9e df 3e f5 0c 0e be 4f b3 2f 3f 19 26 19 3f
       0.43675742 -0.1387213 0.6863298 0.5982376
000020 d8 fc 32 3e f8 00 5e 3f 91 87 f0 3e 62 48 84 3f
       0.17479265 0.8672023 0.4697843 1.033459
000030 fd de a5 3d 0b 7b 18 3f 51 2b 28 3f 75 ba d8 3e
       0.08099172 0.5956275 0.65691096 0.42329755
000040 02 4c 0d 3e 3c cb be 3e a5 05 2b 3f 31 a0 80 3d
       0.13798526 0.3726443 0.6680549 0.06280554
000050 52 33 22 3f 71 1c 2b 3e ef 9a 3d 3f 45 46 8d 3e
       0.6335956 0.16710068 0.74064535 0.27592674
000060 78 dd b6 3e 26 39 fd 3e 82 ed 7c 3f 93 c8 fe 3e
       0.35715842 0.49457663 0.9879991 0.497624
000070 33 b6 f1 3d 28 26 6b 3e 57 07 a1 3e 4f 01 11 3f
       0.1180233 0.22963774 0.31450912 0.5664262
000080 ef d2 36 3f a0 73 23 3f 93 e0 66 3f df 64 3a 3f
       0.7141561 0.63848305 0.90186423 0.7281017
000090 15 16 88 3e 66 ec d4 3e 96 c8 5f 3e 2d 54 d8 3e
       0.26579347 0.41586608 0.21853861 0.4225172
0000a0 03 a6 57 3f 0d ba a5 3e 3c cb e2 3d f8 e0 48 3e
       0.8423769 0.32368508 0.1107392 0.19617069
0000b0 74 ae a1 3d 4a c9 b4 3e ff 7c 4b 3e 35 2b f4 3e
       0.078946024 0.3530982 0.19871901 0.47689214
0000c0 d7 64 ad 3e 5f 25 0f 3f 28 a6 9d 3e 04 dd 27 3f
       0.33865997 0.559164 0.3079083 0.6557162
0000d0 de 0f d3 3e 8a bc 27 3f e2 f2 2e 3d d7 74 16 3e
       0.41223043 0.6552206 0.0427121 0.14693008
0000e0 2d a3 e1 3e 35 81 14 3f e0 af 2d 3f 2a e7 43 3f
       0.44069806 0.58009654 0.6784649 0.76524603
0000f0 5d dc 03 3f 64 fa a1 3e 02 0b 52 3e 19 71 24 3d
       0.5150812 0.31636345 0.20512012 0.04014692
000100 79 ed 13 3e f9 62 c5 3e fe f2 d5 3e 2c ad 2c 3f
       0.14446057 0.38552073 0.4178695 0.6745174
000110 9a 60 82 3e bf 59 e4 3e 55 38 ea 3c 9e e2 d3 3e
       0.25464326 0.4459972 0.028591314 0.41383833
000120 51 38 01 3f 5b bb d9 3e e7 e2 1a 3f bd a2 74 3e
       0.50476557 0.42525753 0.60502476 0.23890205
000130 85 b6 c4 3e 51 89 24 3f 3b b3 0c 3f d1 cc 1f 3f
       0.384205 0.6427203 0.54960984 0.624219
000140 e6 42 b0 3d 82 65 b0 3e 6a 1a d0 3e 4c 4f dc 3e
       0.0860651 0.34452444 0.40645152 0.4302925
000150 a9 17 02 3f 8c 72 0b 3e b3 94 27 3f 9c 89 c6 3e
       0.5081735 0.13617915 0.6546127 0.38776863
000160 6c c8 f2 3d 01 f6 21 3f 94 b4 08 3f ad 74 66 3f
       0.11854634 0.63266 0.5340054 0.90021783
000170 da 0d 2f 3e c4 f9 ca 3e 06 32 bc 3e 08 43 9b 3e
       0.17095128 0.3964368 0.36756915 0.30324578
000180 6f 53 47 3f 7f 63 a8 3c 3f 6d 9a 3e 7c a9 01 3f
       0.77861685 0.020555256 0.30161473 0.5064924
000190 6a ef f9 3e 4e 8b 1a 3f 72 5b c2 3e a1 a3 b9 3e
       0.4881547 0.6036881 0.37960392 0.3625765
0001a0 70 ea 22 3f 3c 0f ff 3d 72 e0 14 3f 34 a1 1b 3f
       0.63638973 0.124540776 0.58154976 0.6079285
0001b0 a5 a6 89 3e be 9d a1 3e f5 5c a4 3d 14 9f 12 3f
       0.26884952 0.3156566 0.08025543 0.57273984
0001c0 a3 b7 8f 3e 70 3c c7 3e 3e da 04 3f 56 41 87 3d
       0.2806979 0.38913298 0.5189551 0.06604259
0001d0 55 92 18 3f 16 4f a4 3e 56 06 7b 3d 9d 2f 21 3f
       0.59598285 0.32091588 0.06128534 0.6296328
0001e0 83 4a f6 3e b2 35 37 3e 80 2b a9 3e 00 67 1a 3f
       0.48103723 0.17891577 0.33041 0.60313416
0001f0 8e 87 2f bd cd 36 91 3e 53 f3 46 38 3d db c1 3e
       -0.042853884 0.28362122 4.7433492e-05 0.37862578
000200 87 5d dc 3e 3e 77 7b 3d ad ac 26 3c 5d 4d 97 3e
       0.43040106 0.061393015 0.010173005 0.2955121
000210 f8 c7 fc 3d 15 42 89 3f 79 24 29 3f 9f 27 0b 3f
       0.123428285 1.0723292 0.6607128 0.5435733
000220 0c c1 e7 3e aa 57 06 3e 1a 3b e1 3e d6 fc a5 3e
       0.4526447 0.13119379 0.43990403 0.3241946
000230 51 7a d6 3e f7 77 ed 3e 7f 8d cb 3d 11 a0 2a 3f
       0.41890195 0.46380588 0.099390976 0.6665049
000240 1f a7 b7 3e 29 c0 81 3e 4c 96 60 3e 09 eb 63 3e
       0.3586969 0.2534192 0.21932334 0.22257628
000250 90 ae b1 3e c6 4c 26 3f b9 97 01 3e a2 52 a9 3e
       0.34703493 0.64960897 0.12655534 0.33070856
000260 4f 30 89 3e 2d 3b d7 3e 6e b7 b7 3e c4 84 21 3f
       0.2679467 0.42037335 0.35882133 0.6309321
000270 77 7a 05 3e cc 28 23 3e 1a 81 44 3f 69 35 88 3d
       0.13034998 0.15933532 0.76759493 0.06650812
000280 51 9c 03 3f ce d8 5f 3f 90 36 28 3f bc 84 6d 3e
       0.51410395 0.8744019 0.65708256 0.23195165
000290 e9 88 b3 3e 27 95 dc 3e c6 06 21 3f af 5a 6d 3e
       0.35065392 0.43082544 0.6290096 0.23179124
0002a0 a8 6d d2 3e 5a a6 18 3f 42 56 97 3e 4e fa 22 3e
       0.41099286 0.5962883 0.29557997 0.15915796
0002b0 1b 5e 9c 3e e7 87 bc 3d 76 1c 03 3f a3 6d be 3e
       0.30540547 0.09205609 0.512153 0.3719302
0002c0 87 6f e6 3e a0 b0 7f 3e f5 7c ff 3e 83 ba c2 3d
       0.45006964 0.24969721 0.49900022 0.095082305
0002d0 1d f5 a0 3e b2 73 11 3f 7a 19 13 3f 5d 14 91 3e
       0.31437007 0.5681716 0.5746075 0.28335848
0002e0 32 49 99 3e 5b 6e 16 3f e9 4b 54 3f b4 f3 1f 3e
       0.29938656 0.5876214 0.8292833 0.15620309
0002f0 10 f6 35 3f 34 51 0a 3e 36 9d 98 3e 84 de 60 3e
       0.71078587 0.13507539 0.29807442 0.21959883
000300 7b 6a b7 3e 3b 90 11 3f 0e 5f 83 3e 1b 22 80 3e
       0.35823426 0.56860703 0.25658458 0.2502602
000310 8a 64 0b 3f 92 43 4b 3e 4d cd d8 3e 79 53 23 3f
       0.54450285 0.19849995 0.42344132 0.63799244
000320 f7 86 07 3f 14 5b d5 3e 22 db 18 3d 36 28 8d 3e
       0.52940315 0.4167105 0.037318356 0.2756974
000330 90 dc ea 3e 10 f0 08 3f b4 52 92 3e d6 25 36 3e
       0.458714 0.53491306 0.28578722 0.17787871
000340 80 0f 04 3f 3e 7f ee 3e 04 f2 d1 3e ab 4e b6 3e
       0.5158615 0.46581453 0.41004956 0.35606894
000350 f6 7f 8d 3e 0a 58 26 3f dc c6 20 3f 5a d1 a4 3e
       0.2763669 0.64978087 0.62803435 0.32190973
000360 24 43 c1 3e 88 a2 80 3e 67 8e 3d 3f 00 92 1b 3e
       0.37746537 0.25124002 0.74045414 0.15192413
000370 9c d1 ca 3e cc bb ba 3e 82 68 c0 bc 76 c2 cf 3d
       0.39613044 0.36471403 -0.023487333 0.10144512
000380 5b f9 a3 3e ca 50 3a 3b d8 53 59 3e 3e f1 26 3f
       0.3202618 0.0028429502 0.2122339 0.65211856
000390 85 a4 bd 3e c8 d5 e0 3e c7 f4 a3 3e 6b a3 76 3e
       0.3703958 0.43913102 0.32022688 0.24085777
0003a0 e5 83 24 3e ab 32 85 3e 0c 91 e0 3e 43 d2 31 3f
       0.16065939 0.2601522 0.43860662 0.6946146
0003b0 64 de 13 3f bf c5 95 3e 7b 90 d7 3e 93 30 d0 3e
       0.57761216 0.2925243 0.42102417 0.4066206
0003c0 70 5a 6b 3e af 32 cd 3e 73 c5 5d 3e ea 66 15 3d
       0.22983718 0.4007773 0.21657352 0.0364751
0003d0 46 60 30 3f a8 06 ee 3e 44 ea 8c 3c f9 f5 a5 3e
       0.688969 0.46489453 0.01720155 0.32414225
0003e0 1b 64 28 3e 86 dc d1 3e 26 cc 2b 3f 3a 8b f7 3e
       0.16444437 0.4098856 0.6710838 0.4834841
0003f0 af 54 00 3f 0d 34 32 3e ac 8a bc 3e 6e ad 9b 3e
       0.50129217 0.17402668 0.36824548 0.30405754

bn1.bias f4 [400]
000000 d4 4d 1e 3d 51 52 30 3e ef 5f 92 bd 3a 6c 6a 3e
       0.03864844 0.17218901 -0.07147204 0.22892848
000010 b8 30 bc 3d 09 db f5 bd 3f cc 3e 3e af 61 f3 3c
       0.0918898 -0.12004668 0.18632601 0.029709665
000020 dc 28 43 3d 64 80 aa 3e 0b 7a f5 3d e6 60 ab 3d
       0.04764639 0.3330108 0.119861685 0.08368091
000030 e3 f7 88 3d aa 50 99 3d 70 5d 58 3e 44 9c 0b 3e
       0.06687906 0.074860886 0.21129394 0.1363383
000040 7a a2 c4 3d 0e 8a 6f 3e 50 86 a7 3d c0 29 98 3c
       0.096013024 0.23392507 0.08179915 0.018574595
000050 31 6a 75 3e a1 89 75 3d 37 57 68 3e 0b 71 00 3d
       0.2396629 0.059945706 0.2268952 0.031357806
000060 c3 70 18 bd 8c e4 91 3d 22 7a f2 3c 39 63 56 3e
       -0.037216913 0.0712367 0.029599253 0.20936288
000070 17 bd f1 3c d0 99 f7 3c 4b bf 97 3e 09 13 b0 3d
       0.02950911 0.03022471 0.29638132 0.08597381
000080 9d c6 65 3e d4 51 86 3e 9c df 8e 3d 9c 26 8d 3d
       0.22439046 0.26234305 0.06976244 0.0689213
000090 08 26 89 3d e7 b2 29 3e 5d 20 87 3d aa 8f c2 3d
       0.06696707 0.16572152 0.0659797 0.09500058
0000a0 72 b4 d6 3d 71 3c 94 3d 47 c8 2c 3e e9 15 07 3d
       0.10483636 0.07238091 0.16873275 0.03297988
0000b0 b3 32 de 3d 1d 9c 25 3e 01 a4 6a 3d 91 89 ea 3d
       0.10849514 0.16172834 0.057285313 0.1145202
0000c0 11 1f 2b bd e2 4e 18 3e 44 84 b6 3d 33 9b bb bc
       -0.041777674 0.14873841 0.089119464 -0.022901153
0000d0 e9 e8 17 3e 2f 7b 23 3e 8d 7d a1 bd 24 90 03 3d
       0.14834942 0.1596496 -0.07885275 0.032119885
0000e0 22 12 75 3e 77 11 2e 3c 11 2e 36 3c 70 3c 54 3e
       0.23932698 0.010624281 0.0111193815 0.2072618
0000f0 f3 c7 02 3e d5 58 d8 bc 8d dc 3a 3d a3 31 79 3d
       0.12771587 -0.026409546 0.04562049 0.060838353
000100 23 c1 89 3e 51 c0 05 3e 5e 02 b0 bb 08 56 84 3e
       0.26905164 0.13061644 -0.005371376 0.25846887
000110 f0 0f 5d 3d 98 26 3e bc 54 fc 5d 3e 8a 36 58 3e
       0.053970277 -0.011605881 0.21678287 0.21114555
000120 64 a8 4a bd 93 93 94 3d 75 97 bb 3d 43 53 e6 3c
       -0.049476996 0.0725471 0.091597475 0.028115874
000130 cc bb 20 3e da df 80 3e ed e3 6c 3e f9 0d a0 bd
       0.15696639 0.25170785 0.23133822 -0.07815165
000140 de ab b0 3c 36 6d c3 3c f5 23 bf 3d c2 be 55 3d
       0.021566328 0.023855787 0.0933303 0.052183874
000150 98 81 39 3e 4e 42 c8 3d f1 64 c3 3c 50 d7 f9 bc
       0.18115842 0.097782716 0.023851844 -0.030498177
000160 fd 25 98 3c a8 bb a5 bd 52 a6 27 3e 64 b8 1d 3e
       0.018572802 -0.08092433 0.1637204 0.1540237
000170 7a c6 d7 3d 94 cf 8a 3d c4 b3 0c 3e bf 34 c7 3d
       0.10535903 0.06777874 0.1374045 0.097268574
000180 1c f5 8a 3e cd f9 46 be c2 93 0e bd 03 42 dd 3b
       0.2714013 -0.19431229 -0.03480888 0.006752254
000190 89 72 24 3e b2 e3 83 3e 43 a5 3a 3e 11 e9 be 3d
       0.16059317 0.25759655 0.18227105 0.09321798
0001a0 82 60 04 3e a4 d7 c5 3c 97 7c ba 3d e4 c6 1b 3e
       0.1292744 0.024150677 0.09105795 0.1521259
0001b0 a2 9e 48 3d 3a de be 3d b7 03 23 3e 53 b6 a8 3d
       0.04897941 0.0931973 0.15919386 0.082379006
0001c0 c7 a9 d1 3c 33 a8 77 3d 6f 87 2b 3e 6d 3f 94 3e
       0.025593651 0.06046314 0.16750883 0.2895464
0001d0 b2 a3 19 3e 25 e1 e5 3d d0 a4 78 bb 8e 59 81 bd
       0.15003851 0.112245835 -0.0037940033 -0.06315909
0001e0 b9 05 dc 3c b2 74 5e 3d 4d 46 29 3d e5 a7 c1 3b
       0.026858198 0.054310508 0.04132681 0.005909907
0001f0 c8 d2 68 3e 49 12 1f 3d 94 36 f6 bc 60 37 ff 3d
       0.22736657 0.038835797 -0.030055322 0.12461734
000200 2f f5 3f 3e ee b7 8b 3e f7 fa 0b be c4 f2 d4 3d
       0.18745874 0.27288765 -0.13669954 0.10397866
000210 2a ec 8f 3d ae 70 c7 3d f2 9f ac 3d 27 31 81 3d
       0.070274666 0.09738289 0.08428945 0.06308203
000220 7c 06 83 3d 27 fa d7 3d eb dd 4b 3d 84 3f 2f 3e
       0.06397721 0.1054576 0.049772184 0.17114073
000230 22 fa c4 3c bd c4 34 3e 35 11 1e bd 15 59 49 3e
       0.024045054 0.17653175 -0.03859063 0.19662888
000240 24 18 29 3e 73 5e 89 3d 15 c9 31 3d dd a0 07 3e
       0.16513115 0.06707468 0.043404657 0.13244958
000250 8d bc 09 3e 25 78 af 3d 5b da dc 3c 80 ca b2 3d
       0.13450833 0.085678376 0.026959589 0.0873003
000260 0a 79 d7 3d 25 92 ae 3d c5 b9 b1 3d 54 29 2b bc
       0.10521133 0.085239686 0.08678011 -0.010446865
000270 05 3b e5 3d 12 7a 9c 3e 44 c3 09 3e 60 df 2b 3e
       0.11192898 0.30561882 0.13453394 0.1678443
000280 35 ad f5 3d b6 1b 54 3e 2a 40 52 3e 37 99 85 3d
       0.11995927 0.20713696 0.20532289 0.06523364
000290 a3 00 68 3e 72 a9 d3 3d d5 92 64 3e e2 dd 27 3e
       0.22656493 0.103350535 0.22321637 0.16393235
0002a0 68 43 0a 3c 35 85 64 3e 0f ae b5 3b 04 7d ac 3d
       0.008438922 0.2231644 0.005544431 0.08422282
0002b0 ff 2b 12 3d fb 50 28 3e 24 52 82 3d bf 24 d3 3d
       0.03568649 0.16437142 0.06363323 0.10309743
0002c0 2c 6d c8 3d 37 52 be 3d 59 d3 6e 3d 79 58 61 bd
       0.09786448 0.09293025 0.058307026 -0.055016015
0002d0 71 1a 0a 3d e6 18 36 3e 3c 1d b0 3d 57 48 f7 bc
       0.033716623 0.17782936 0.08599326 -0.030185862
0002e0 17 88 9f 3d a8 7c 07 3e 84 16 27 3d cb 59 a7 3d
       0.07789629 0.13231146 0.040792957 0.081714235
0002f0 9d 0e b2 3d e8 8c ac bb d7 fe 04 3e d9 db 7a 3d
       0.086941935 -0.005265821 0.12987839 0.06124482
000300 49 1a cc 3c 92 2b 2b 3d 49 ce 5e 3d 60 79 8b 3d
       0.024914877 0.0417896 0.054395948 0.0681026
000310 69 0b 0b 3e 66 d0 b7 3b 32 ae 8e bc 36 23 e9 3d
       0.13578571 0.00560956 -0.017417047 0.11383669
000320 23 a0 43 3e 46 f7 93 3e e4 ce 85 3e dd e4 07 3d
       0.19104056 0.28899592 0.26134408 0.033177245
000330 90 d5 19 3e 04 88 1e 3e ba 0e 14 3d e2 13 92 bb
       0.15022874 0.15481573 0.036146857 -0.0044579366
000340 eb c5 15 3d 3e e4 07 3e 45 7b bb 3d d0 9e c7 3d
       0.036565702 0.13270661 0.09154371 0.09747088
000350 e9 67 81 3c 44 a8 52 3e f3 0b 8e 3d 02 7d 6d 3d
       0.015796619 0.20572 0.06935873 0.057980545
000360 c6 68 31 3d 80 a6 df 3d 4f 19 12 3d ba 2e 48 3c
       0.04331281 0.10920429 0.035668667 0.012218172
000370 ce 49 86 3d dc 66 49 bc ce 91 15 be be dc 43 be
       0.06557046 -0.01229259 -0.14606401 -0.19127175
000380 50 91 86 3d 75 cb 56 ba 5b 1e 77 3d c9 4b 31 3e
       0.06570685 -0.00081937696 0.060331684 0.17314066
000390 df a4 d2 3d 23 38 ef 3c dc c5 79 3c 35 22 f1 3d
       0.10285353 0.029201573 0.015244927 0.117741026
0003a0 8b 3c 0a 3d f6 ae f4 3b 02 40 a7 3c ce d5 8e 3e
       0.033749145 0.007467146 0.020416263 0.27897495
0003b0 57 7e 4f 3e 50 78 4a 3d 85 d5 a8 3d c2 44 1c 3e
       0.20263039 0.049431145 0.082438506 0.15260604
0003c0 63 f3 07 3e 41 95 75 3d 67 6b 16 3e ea e0 ad 3d
       0.13276438 0.059956793 0.14689408 0.084901646
0003d0 f0 15 0c 3e 21 2e 36 3e cf 0e 5b bd 17 0d 98 bc
       0.13680243 0.17791034 -0.05348092 -0.01856093
0003e0 51 ea 3e 3d 37 71 2f 3e ea fe c4 3d bb 48 ac bb
       0.04661018 0.17133032 0.096189335 -0.0052576936
0003f0 7a c0 32 3e 73 76 8f 3e 8c e5 c0 3d 11 f1 a1 3d
       0.17456236 0.28020057 0.094187826 0.07907308
