checkpoint_critic_target1.pth (torch_old, 574967 bytes, 9 tensors)

fcs1.weight f4 [400, 52]
000000 52 f4 e3 3b d1 91 e9 3d 49 9c ae bc d8 f9 35 3c
       0.0069566155 0.114047654 -0.021314757 0.011106931
000010 7d 8c b0 3b 9b 44 7c bd ac 0c d7 3c aa d2 66 bd
       0.0053878413 -0.061588865 0.02625116 -0.05635325
000020 26 30 5b 3d 2c 6d 7f 3e 9b 31 01 bb 34 e4 97 3d
       0.053512715 0.2494399 -0.0019713405 0.07416573
000030 9d d0 fd ba 1c d3 9c 3c 75 66 48 bb 84 86 19 bc
       -0.001936454 0.019143634 -0.0030578647 -0.00937045
000040 87 2c 89 3c ac 50 38 3e 74 5f 4f bc f2 03 10 be
       0.016744865 0.17999524 -0.012657035 -0.14064005
000050 f0 f5 25 bd 41 61 02 3e ee 75 6f 3c 21 fc de bd
       -0.040517747 0.12732412 0.014615519 -0.108879335
000060 2e 85 fa bb dc 3b 19 be 95 44 45 3b 03 69 19 3e
       -0.007645271 -0.14964241 0.0030100693 0.14981465
000070 18 a2 34 3d c4 bb 5e bd 01 07 5b bb ed 34 10 3e
       0.044099897 -0.054378286 -0.0033420923 0.1408269
000080 10 25 e0 3c 35 87 40 bd bb 60 cc 3a c4 26 05 3e
       0.027361423 -0.047003943 0.0015592793 0.13003069
000090 ac 7e 81 3d e3 32 fa 3b 51 03 f4 3c f3 43 98 3d
       0.06322989 0.0076354607 0.029786738 0.07434835
0000a0 7f 41 62 bb 45 49 c2 bd ff a7 32 3d a9 2e ba 3c
       -0.0034523902 -0.09486631 0.043617245 0.022727327
0000b0 e9 0c 3a 3d 73 11 14 3e c3 7f cb 3c 08 10 98 3d
       0.04542247 0.14459781 0.024841195 0.07424933
0000c0 07 90 f5 be 50 70 0a 3e 71 69 e5 3d b4 1d 5d be
       -0.47961447 0.13519406 0.11201752 -0.21593362
0000d0 29 f7 f8 3d 43 d6 11 be 55 40 23 3d b0 0c 75 3d
       0.12156517 -0.1424189 0.039856274 0.059826553
0000e0 0e 15 00 bd c8 bb af bd d9 de 34 bd c6 93 f2 3c
       -0.03127008 -0.08580738 -0.044157837 0.02961148
0000f0 38 a5 e5 3d dd 75 27 be 49 89 38 3d d5 3b 18 3d
       0.112131536 -0.16353555 0.0450528 0.037166435
000100 53 27 77 bd fb 17 84 bc a9 ed e4 bc 51 35 1d bd
       -0.060340237 -0.016124716 -0.027945356 -0.038380925
000110 50 29 91 3c 82 21 34 be fb 80 52 3c 61 b4 a2 3d
       0.017719895 -0.17590907 0.012848134 0.07944561
000120 cf ea a2 bd f8 3e 64 3c d4 5b 60 bc 2b ca fc 3b
       -0.079549424 0.013931029 -0.0136937685 0.00771453
000130 c2 41 89 bd 0e e1 b7 3c 29 73 42 bd 4a 2a fa 3a
       -0.067019954 0.022446182 -0.047473107 0.001908609
000140 a1 cb d7 3d fa 07 85 bd 8d 5d f8 bc 26 77 07 bd
       0.10536886 -0.06495662 -0.030318046 -0.033072613
000150 9f 4a ab bd 8d 75 9f bd 81 c3 8c 3c 79 82 00 be
       -0.08363842 -0.07786093 0.017183067 -0.12549771
000160 15 ad f1 3d c9 3d c2 bc 7c aa e0 bc c5 dc 9d bd
       0.11800591 -0.023711102 -0.027425043 -0.07708124
000170 02 4f fa bd b8 79 a5 bd 04 8a a5 bc d7 24 20 be
       -0.12222101 -0.08079857 -0.020207413 -0.15639053
000180 35 4d 90 3d d1 95 82 3d 7c 3b 31 bb 01 a2 2a be
       0.07045976 0.063762315 -0.0027043512 -0.16663362
000190 9a a9 59 bd 1d 30 ed 3b d2 6f af 3c ee f3 38 bd
       -0.05314026 0.0072384016 0.021415625 -0.045154504
0001a0 d5 95 8c bd 20 e7 49 be db ad 5c bd 0f bf 67 bd
       -0.06864516 -0.19717073 -0.05387674 -0.056578692
0001b0 bd 67 9d 3c 30 48 10 3d 9e 42 a8 bc 48 bb c7 bd
       0.019214505 0.035225093 -0.020539578 -0.09752518
0001c0 cf 2e 9c 3b 88 4f 0b be 5d 49 0f 3d 59 b4 1b bc
       0.004766322 -0.13604558 0.034982074 -0.009503447
0001d0 dd 79 21 bd e4 35 22 bd 6b c4 b6 bc 39 30 aa bc
       -0.03942286 -0.039602175 -0.022310456 -0.020774947
0001e0 bd f5 3c bd 37 48 54 be fe 6d 72 3c 39 6e 57 bc
       -0.04613279 -0.20730673 0.014796732 -0.013148838
0001f0 e7 54 68 3d 01 0b cb bd 38 71 4e 3d c9 92 a4 bd
       0.056721594 -0.09914208 0.050400943 -0.080358095
000200 4d a1 01 bd 40 bf 99 3d 2c 4a 1d bd 73 ad 02 bd
       -0.03164797 0.07507181 -0.038400814 -0.031903695
000210 ff d6 8c 3d bd e9 47 3d 93 e6 f7 bc e0 ec 6a bd
       0.06876945 0.048806895 -0.030261314 -0.057354808
000220 62 c9 1f bd 30 55 a7 3d 16 09 96 3d 09 9c b1 3d
       -0.039010413 0.08170545 0.07325952 0.086723395
000230 ad 57 d1 bc 38 36 81 bd 1b 81 86 3d 54 42 44 3d
       -0.025554502 -0.063091695 0.06567594 0.047914818
000240 84 0a f2 bc c7 89 06 bc 7d fe 03 bd c4 6d 0b be
       -0.02954603 -0.00821156 -0.03222512 -0.13616091
000250 07 36 47 bc 93 f0 f4 bd 3c 0e 0f 3c 41 3c 26 be
       -0.012158877 -0.119599484 0.008731421 -0.16233923
000260 14 51 b0 bd 8d d6 9d be 8b 1d 71 3e da b1 d0 bd
       -0.086092144 -0.30827752 0.23546426 -0.101901725
000270 38 5e 6e 3c 7d 9d dc bb 0d 99 8a bc 6b 66 83 3d
       0.014548831 -0.0067326413 -0.016918683 0.06416019
000280 3e 24 7f bd 53 58 20 bd d8 9d 50 3c c3 4b 22 3d
       -0.062290423 -0.039146733 0.012732945 0.039623033
000290 36 ca de bc 71 a7 ec 3c 95 35 83 bd 08 e0 8b 3d
       -0.027196031 0.028888436 -0.06406704 0.0682984
0002a0 eb 21 31 3d 2a ab 35 bd 65 d7 51 bc b3 01 94 3d
       0.043245237 -0.044352688 -0.012807702 0.072268866
0002b0 b6 e3 03 bd 94 b7 91 3d e7 32 f3 3c 8e 2c ad 3d
       -0.032199584 0.07115093 0.029687358 0.08455764
0002c0 f0 40 37 bc d5 35 79 3d b4 e3 b2 bc 29 26 a1 3d
       -0.011184916 0.060842354 -0.021837093 0.078686066
0002d0 98 ba ff 3d 53 c7 02 bd c8 41 9f 3c 14 04 d1 bd
       0.12486762 -0.03192837 0.019440547 -0.10205856
0002e0 bb 29 82 bc 96 80 e8 bd 13 86 34 bd a2 79 3f bd
       -0.01588904 -0.11352651 -0.044073176 -0.046746857
0002f0 40 9d d0 3d 09 d9 87 bd 84 c3 60 bd 7f 76 10 be
       0.10186243 -0.06633193 -0.05487396 -0.14107703
000300 a5 f5 1d 3c ff c6 3a bd 71 93 04 bc d4 26 04 be
       0.009641086 -0.045599934 -0.008091793 -0.12905437
000310 cf 31 8e 3d 65 06 14 be 5b bd a0 3c b1 40 f3 3b
       0.06943094 -0.14455564 0.019621542 0.0074234833
000320 fe 12 ab 3c 9c 6d c5 3d 5b 04 1b bc 1f 62 a9 bd
       0.02088308 0.09640047 -0.009461488 -0.08270668
000330 78 f7 1f bf 55 4f 1e be 23 29 9d bc 06 b8 bf bd
       -0.6248698 -0.1545995 -0.019184655 -0.093612716
000340 9f 34 23 3e 08 10 9c 3d 75 86 1e 3d 31 2e 89 bc
       0.15938042 0.07620245 0.038702447 -0.016745659
000350 87 7c 10 bd 6c 46 da bd b7 88 12 3d f6 a3 0f bd
       -0.03527501 -0.10657963 0.035774913 -0.035068475
000360 28 88 01 3e 14 cb af 3d 2f 33 08 bc 5e 7a 32 3d
       0.12649596 0.08583656 -0.008312984 0.04357373
000370 05 9a 5c 3c d3 9c 95 bd 56 78 a0 3c 68 51 89 3d
       0.0134644555 -0.073053025 0.01958863 0.0670498
000380 01 de f4 3c d0 22 d8 3a 32 5a 8c bb 4d c2 a2 bd
       0.029891016 0.0016489867 -0.004283213 -0.07947216
000390 13 61 14 3b 51 ab 93 bd dc 49 92 bb ef a8 ed bd
       0.0022640869 -0.072104104 -0.004464371 -0.11604487
0003a0 1b 33 28 3d ca a8 de 3b af 6f 55 bc ea af ad 3d
       0.041064363 0.0067950236 -0.013027116 0.084808186
0003b0 ad 77 3a 3c 43 f2 aa bd 9c ba f5 bc 93 7a 7c 3d
       0.011381072 -0.08346989 -0.029996209 0.061640333
0003c0 a1 f6 27 3c fb eb 0f 3d e2 49 69 bd cf 1a ac bc
       0.010251672 0.035137158 -0.056955226 -0.021008877
0003d0 1a a0 a0 bc 4b 4f a9 bd 7c 01 21 bd ad f6 ea bb
       -0.019607592 -0.08267077 -0.039308056 -0.0071705193
0003e0 3c 11 87 bd cd cd 24 3b ef 2f 9f bb b2 8c 2d be
       -0.06595084 0.002514708 -0.004858009 -0.16948202
0003f0 4f 95 3d 3d 92 98 51 bd c8 3c 75 bc d9 55 4f be
       0.04628497 -0.051170893 -0.014968105 -0.20247592

fcs1.bias f4 [400]
000000 4f d6 e3 3c 64 71 51 bd ca cc 27 be 62 9d bb 3d
       0.027812151 -0.05113353 -0.16386715 0.09160878
000010 92 30 39 3d b4 89 95 bd b9 08 cc be 95 ec 12 be
       0.045212336 -0.073016554 -0.39850405 -0.14348061
000020 f1 dd 20 be f3 73 09 be f5 b8 ea bd 31 50 44 be
       -0.15709664 -0.13423137 -0.11461059 -0.19171216
000030 18 91 ff 3b 44 e3 dd bd d3 22 a4 bd ff 35 59 bd
       0.007799279 -0.10834363 -0.08014455 -0.05303001
000040 34 0b 0d be 56 7d 2c be 8d 01 f6 bd 9b 56 94 bd
       -0.13773805 -0.16844687 -0.120120145 -0.07243081
000050 52 e0 40 be 88 d0 33 be 8a 16 76 be 78 35 c8 bd
       -0.18835571 -0.17560017 -0.24032035 -0.09775823
000060 ef f1 03 be 2b 4e f3 3b 09 f5 30 3d d3 35 cc bc
       -0.12885259 0.00742509 0.043202434 -0.02492801
000070 30 2f dd bd 35 a5 7a bc 60 bc f5 bd 26 86 fc 3c
       -0.10800016 -0.0152981775 -0.1199882 0.030825686
000080 6c cc 8d bd d0 c4 e7 3d 16 bf 33 be a7 8f f2 bd
       -0.06923756 0.11316836 -0.17553362 -0.11843806
000090 e5 47 63 be f0 82 86 bc 77 14 f2 bd 4e 6e c2 bd
       -0.22195394 -0.016419858 -0.118203096 -0.09493695
0000a0 fc 54 30 3e f4 33 91 be 3f 32 3d bc 4b 30 33 3d
       0.17219919 -0.2835995 -0.011547624 0.043747228
0000b0 1f d6 dd bc ef 23 ba 3d 59 01 fa 3d 3f 81 7f bd
       -0.02707964 0.09088885 0.12207288 -0.062379118
0000c0 2d 81 f2 3c 95 86 dc 3d 3b 05 15 be 17 aa 12 bd
       0.029602611 0.10767857 -0.14552777 -0.03580674
0000d0 be f8 4f 3d 32 9c 7a be f6 b9 23 bd cc ab ce 3d
       0.05077433 -0.24473646 -0.039972268 0.100913614
0000e0 b1 fe d7 bd 26 fb dc bc 10 20 0c be 53 d5 44 3e
       -0.105466254 -0.026975226 -0.13684106 0.19222002
0000f0 80 cc 2b be 42 eb a2 3c cc b9 32 be 8e 87 b8 3d
       -0.1677723 0.01988757 -0.17453688 0.0901023
000100 f1 a5 16 be 50 52 df bd d8 35 ef bc e7 12 69 bd
       -0.14711739 -0.10904372 -0.02920048 -0.056902792
000110 88 cb a5 bc 5a a2 3b 3d 51 db 06 3e 15 59 9b 3c
       -0.020238653 0.045809127 0.131696 0.018963376
000120 79 ce d6 bd 30 f3 c9 3c 80 4c 24 be b7 4f 92 3d
       -0.104886 0.024652094 -0.16044807 0.07144111
000130 ff 63 b5 bd 85 35 25 bd 33 95 0c be 8a 59 70 bd
       -0.08856963 -0.040334243 -0.1372879 -0.05867914
000140 db d0 db bc e6 14 81 bd 76 fe 48 be 02 a3 d7 bc
       -0.026832988 -0.06302814 -0.19628319 -0.026322845
000150 6b 3c 0f bd d1 17 d3 3d f8 6b 1b be b8 18 5e be
       -0.03496973 0.10307277 -0.15177906 -0.21689117
000160 ef 4e 20 be 5c 0b 6d 3d c3 9b 16 bd 1f df 1d bd
       -0.15655111 0.05787216 -0.03676964 -0.038542863
000170 a6 8f 01 3e 57 7a f5 bd fc 49 08 bd ed be 81 3c
       0.12652454 -0.11986225 -0.033273682 0.01583811
000180 8c 62 5c 3e 6b 17 72 bd ff 36 41 bd 53 54 82 bd
       0.21521968 -0.059104364 -0.04717159 -0.0636374
000190 11 6b d9 3b 4e 10 9d 3c ca e2 b5 3d 3c 60 57 ba
       0.0066350778 0.019172814 0.08881147 -0.0008215939
0001a0 ee 70 97 3c 61 9d c8 bd 69 d6 27 be c5 99 40 bd
       0.018486466 -0.09795643 -0.16390385 -0.047021646
0001b0 b9 18 08 bc 53 ab 1e be ff 36 ab bd 0a 40 f9 3d
       -0.008306676 -0.15495043 -0.08360099 0.121704176
0001c0 f0 23 fd 3b 63 47 ae bd 32 87 c3 bb f0 c4 07 3d
       0.0077252313 -0.0850971 -0.0059670443 0.0331468
0001d0 1d 93 8b be 53 af 05 be 47 5f 2f be 01 05 52 3d
       -0.27260676 -0.13055162 -0.17126189 0.051274303
0001e0 8f bd 09 be 8f 08 4b be e0 18 29 3d 10 a3 1a be
       -0.13451217 -0.19827484 0.04128349 -0.15101266
0001f0 61 b9 bd bd 32 65 e0 bd 71 fc 39 bd cb 28 0d be
       -0.09263874 -0.109568015 -0.045406763 -0.13785093
000200 86 93 4d be 80 35 3b be cc 5e f5 bb e5 dd d4 bd
       -0.20075807 -0.18282127 -0.0074881073 -0.103938855
000210 e4 f6 a0 bd 56 f2 bd bd fc bc e1 bc fa 61 54 be
       -0.07859591 -0.092747375 -0.027555935 -0.207405
000220 e1 99 53 bd 45 4f 01 be 6a 94 3e be 3b 17 30 bd
       -0.051660422 -0.12627895 -0.18611303 -0.042990904
000230 03 eb 05 be 88 46 b8 3c e2 f7 21 be 89 37 50 be
       -0.13077931 0.02249457 -0.15817216 -0.20333685
000240 7c ae b1 bd 03 b2 d4 3c bc ec e2 3d d7 7e a8 bd
       -0.086758584 0.025963789 0.1108031 -0.08227318
000250 72 98 7e bc 46 b0 9f bd 7d 3d 9f bd df 38 22 be
       -0.0155392755 -0.07797293 -0.077754 -0.15842007
000260 f0 fb 39 bc 1f c4 9b bc 39 6c 5a b9 81 5e 6e bc
       -0.0113515705 -0.019014416 -0.00020830416 -0.014548899
000270 91 23 f1 3c 00 db 64 bd 15 12 58 3e 7c 6e 33 be
       0.029435905 -0.055872917 0.21100648 -0.17522615
000280 4d 75 64 be 87 1d 03 be 60 cd 89 bd fe 23 7c bd
       -0.22310372 -0.12804233 -0.06728625 -0.061557762
000290 2c b3 32 be 52 2b f1 bd 6c 09 24 bd 3b 29 3f be
       -0.17451161 -0.11775841 -0.040048048 -0.18668072
0002a0 87 6e 8e bd 44 b7 0c be 66 0c 05 bd 29 00 7f bd
       -0.06954675 -0.13741785 -0.032482527 -0.062256012
0002b0 3d 4a 02 3d b8 83 ad 3d 11 ce 2e 3d 2d b2 e1 bc
       0.03180908 0.08472389 0.04267699 -0.027550781
0002c0 eb 9d 9d 3d ce 56 de bc 96 a7 54 bd ea 5e 00 be
       0.07696136 -0.027141001 -0.051917635 -0.12536207
0002d0 77 80 5f be 55 33 cd bd 3b 83 af bd 7e b6 b4 ba
       -0.21826349 -0.100195564 -0.08569952 -0.0013787297
0002e0 89 c1 13 be 7b 6c d2 3b a0 44 e3 bd 70 30 24 be
       -0.14429297 0.0064216233 -0.110970736 -0.16034102
0002f0 34 b6 10 3e 87 93 0c bc 78 7f 51 bc e1 d4 b6 bd
       0.14132005 -0.008580095 -0.012786739 -0.08927322
000300 d9 7e 88 bd 7e 15 12 be bd 14 84 be 31 26 f0 bd
       -0.06664819 -0.14266011 -0.25797072 -0.117260344
000310 44 f9 f0 bd 22 15 cb bd a5 38 0f 3e 60 07 02 be
       -0.11766294 -0.0991614 0.13986452 -0.12698126
000320 37 c5 73 bd 2d 53 53 be 81 a2 ee 3c 3b 69 dd 3d
       -0.05951425 -0.20637198 0.029130222 0.10811087
000330 c5 d8 e0 bd ba 99 31 be dd 18 71 bd 42 da b7 3d
       -0.109788455 -0.17343798 -0.058861602 0.08977176
000340 20 c2 6a 3d 45 49 dd bd 83 cc fa bb 63 3c 36 be
       0.05731404 -0.10804991 -0.007653774 -0.17796473
000350 ab 82 ae 3d 1f 57 29 bd d2 82 be bd 15 f1 bc 3c
       0.08521017 -0.04134285 -0.09302296 0.023064176
000360 c2 e2 b3 bc e7 a8 87 be 00 9e b0 be 64 e6 8b 3d
       -0.021958712 -0.2649605 -0.34495544 0.06831053
000370 40 56 c0 bd 4f 18 c6 3d 69 d8 01 be 99 e5 59 3c
       -0.09391451 0.09672605 -0.1268021 0.013299369
000380 e0 ff 42 3d ec be ad 3d 44 e8 2e bd ab e7 77 bb
       0.047607303 0.08483681 -0.042701975 -0.0037827294
000390 f9 07 b7 bc 3b 0f 3a 3c 38 31 b3 3b 22 df c4 bd
       -0.022342669 0.01135617 0.005468514 -0.09612872
0003a0 bd e1 9b 3d 66 c7 d2 3b 60 f9 cd bd 44 33 2d be
       0.076114155 0.0064324616 -0.1005733 -0.16914088
0003b0 93 75 65 be 3b dc de bd a5 ba 3a 3d d0 92 b0 3d
       -0.22408132 -0.108818494 0.045588154 0.08621752
0003c0 96 a0 d8 3b 05 f2 28 be 76 0b 39 3c cd f5 62 3d
       0.00661094 -0.16498573 0.011294236 0.055410195
0003d0 9b f9 34 bd 64 f6 f1 3d 7c c7 46 3d ab 2e e7 bd
       -0.044183355 0.118145734 0.048530087 -0.11288198
0003e0 23 58 1c bd 16 fb 40 be 46 20 ae bd fa b2 00 be
       -0.03816999 -0.18845782 -0.085022494 -0.12568274
0003f0 e0 29 89 be ae b9 12 be f7 cd 16 be fd 9e 9f bd
       -0.2678976 -0.14328644 -0.14727007 -0.077939965

fc2.weight f4 [300, 400]
000000 82 7a 80 3d 72 ed 0e bd 1a af 33 bc 9b 33 f2 3d
       0.062733665 -0.034894414 -0.01096704 0.11826249
000010 66 c9 80 bc e9 46 d2 3d a4 65 5a bd 86 8b e6 3d
       -0.015721034 0.10267431 -0.05331959 0.11257081
000020 f5 5b 1c 3d 55 66 36 bd 7a 20 3d bd 38 75 ed 3c
       0.038173635 -0.044531185 -0.04617355 0.028986558
000030 e6 81 f4 bb bf f5 15 3d 6d 9e c9 bc 72 36 18 bd
       -0.007461774 0.036611315 -0.024611676 -0.037161298
000040 64 12 8f bd bd f1 90 bc ad 95 a4 3d b8 80 c2 bd
       -0.069859296 -0.017693395 0.08036361 -0.094972074
000050 b1 f0 04 be 2c 33 69 bd a7 17 aa 3c 31 66 3f bd
       -0.12982441 -0.056933567 0.020763231 -0.046728317
000060 88 a1 f8 bb 9d 43 7d 3c 77 80 95 bd 91 72 05 bd
       -0.0075876154 0.015458015 -0.07299893 -0.032579962
000070 93 cd 88 3c 7b b9 7d bb 57 aa 83 bd 61 ac 3e bc
       0.016699588 -0.0038715291 -0.06428974 -0.011637778
000080 c7 c3 83 bd 3f c8 92 bd 0a 46 bf 3a d1 09 05 3d
       -0.06433826 -0.071671 0.0014593017 0.032480065
000090 46 5f 8d 3b 37 12 5e bd ad 2d b0 3d 18 bd 82 3c
       0.004314336 -0.05421659 0.08602462 0.015959308
0000a0 d9 c9 a5 3c 0e 55 65 bd 67 bd 8e bd c0 e3 1d be
       0.02023785 -0.055989318 -0.069697194 -0.15418911
0000b0 75 93 c5 bd 18 e1 15 bd 68 3a 3b 3d fb 37 00 3d
       -0.09647266 -0.03659162 0.045709997 0.031303387
0000c0 9e 3e b4 3d 54 e0 4a 3c 71 22 88 bc f0 8b f3 3c
       0.08801006 0.012382586 -0.016617985 0.029729813
0000d0 02 83 c9 3c d1 ae ba bc 5f e6 8a 3d 43 7b b7 ba
       0.024598602 -0.022788437 0.06782221 -0.0013998527
0000e0 11 7b cc bd fc a1 0f 3d 97 00 3c 3d b4 ee 88 bd
       -0.099844106 0.03506659 0.045899 -0.06686154
0000f0 75 f5 67 bd f9 a0 69 bc c4 de bf 3d 64 87 3f bc
       -0.05663057 -0.01425957 0.09368661 -0.0116899945
000100 9c 41 7d bd 3b 52 24 3c a6 bd f0 3c 23 b4 50 bd
       -0.061830148 0.010029371 0.029387306 -0.05095304
000110 f2 9a af bc 38 24 ef bc 97 b8 ee bd de b5 b7 bd
       -0.021436188 -0.029192075 -0.116563015 -0.08970235
000120 73 c2 79 3d 7a 79 59 bd 68 d7 04 3d 8b 5e ee bc
       0.060976457 -0.053094365 0.03243199 -0.029097816
000130 8b 49 9e bd bd 16 0b 3d f6 a4 fd b9 11 2a c7 bc
       -0.07728871 0.03395723 -0.00048378826 -0.024312051
000140 0a be 0b 3c 51 39 ad bd 99 7e 17 be ba e3 e1 3c
       0.008529196 -0.08458198 -0.14794387 0.027574409
000150 be 20 27 bd 96 49 10 bd 5b e9 91 3d 86 bb a2 3c
       -0.04080271 -0.035226427 0.07124587 0.019864809
000160 a4 5f a8 bc ac 8f 3f 3d 92 8a 9e bc f3 53 4e bd
       -0.020553418 0.046767876 -0.019353185 -0.05037303
000170 77 68 17 be 26 f6 f9 3c ef 3a a6 bd ab 42 7e bc
       -0.14785944 0.03051288 -0.081167094 -0.015518825
000180 e0 3e bd 3d ed 08 1c 3e 40 f6 1e bd 50 dc 06 bd
       0.09240508 0.1523778 -0.03880906 -0.03292495
000190 7c c0 be bd 63 4a 38 3d af 15 5b b8 05 fd a3 bd
       -0.09314057 0.044992816 -5.2233863e-05 -0.08007244
0001a0 1e a8 a2 3d 6d 0b 37 bd b6 87 b0 bc 84 bb 56 bb
       0.07942222 -0.04468863 -0.021549087 -0.0032765577
0001b0 48 de 4b 3c ca e8 00 be 9e e1 be bd 86 f3 99 3c
       0.012443133 -0.12588802 -0.09320377 0.018792879
0001c0 0c 60 ca bc 36 08 3b 3d 24 e7 f4 bc 24 47 03 be
       -0.024704002 0.045662127 -0.029895373 -0.12820107
0001d0 91 f1 51 bd cd f0 a5 b9 c9 ec 94 3d c5 dd 83 3d
       -0.051255766 -0.00031650663 0.07271726 0.064387836
0001e0 0f ce 31 bc 39 84 03 bd cd 9b 90 3d b5 57 0e bd
       -0.010852351 -0.03210852 0.07060967 -0.034751613
0001f0 ba c4 b4 bd ad 5a 88 bc c4 f4 05 3c a2 cf 66 bd
       -0.08826585 -0.0166448 0.008176032 -0.056350358
000200 f7 dd 5d 3c 0e ca 08 be e3 2b 08 3e f3 fa 4b be
       0.01354169 -0.13358328 0.13297991 -0.19919948
000210 6a 7e 88 bc d3 b7 d2 bb 19 0f 5c bd fd 21 2c 3d
       -0.016661841 -0.006430605 -0.053725336 0.0420246
000220 c5 d3 58 bd 73 d5 c6 bd 87 c8 55 bd c0 bf a4 bd
       -0.052936334 -0.09708681 -0.05219319 -0.08044386
000230 ad 09 56 3c 43 a4 ad bd ce 67 1c 3c b6 c5 15 3c
       0.01306383 -0.08478596 0.009546233 0.009141376
000240 ad 2c 3f bd 34 56 c0 bd 74 74 0a bd 01 14 d5 bd
       -0.046673466 -0.09391442 -0.033802465 -0.10404206
000250 6f 95 63 3d 29 38 9c 3c 46 1b 61 bd 7e cc 99 bd
       0.055562433 0.019069748 -0.05495765 -0.07509707
000260 b7 2b 67 bd e6 d6 64 bc 28 90 58 3b 6a 60 be 3c
       -0.056438174 -0.013967251 0.0033044908 0.023239333
000270 03 6f d0 bd 46 c5 54 bd e9 22 e1 3a 37 4d 97 bd
       -0.10177424 -0.051945947 0.0017176542 -0.073877744
000280 d8 d9 4c 3d 64 b6 04 be d6 81 cb 3d 32 2f 8e 3d
       0.05001244 -0.12960202 0.099368736 0.069425955
000290 85 93 c1 ba 79 76 2c 3d c8 7d 6c bc 27 91 b6 bd
       -0.0014768696 0.04210517 -0.014434285 -0.08914404
0002a0 ed 92 8a bc da 9d 29 3d 42 bf 4a ba 87 20 00 3d
       -0.016915763 0.041410305 -0.0007734188 0.03128102
0002b0 1e e4 0b bd fb 90 b6 bd 0e 82 d2 bd 34 50 a5 bd
       -0.034153096 -0.089143716 -0.10278712 -0.08071938
0002c0 43 0e 47 3c 3b 8c 5b 3b ad c3 58 bd 00 93 8d 3c
       0.012149396 0.0033500332 -0.052920986 0.01728201
0002d0 e3 50 d8 bc f3 d6 fd bc aa 43 8b bd ed d4 11 3d
       -0.026405757 -0.030986285 -0.06800015 0.035603452
0002e0 73 c0 10 bd 21 91 2c 3c cf 9e 14 3d f2 c2 f2 bc
       -0.035339784 0.010532648 0.036284264 -0.029633973
0002f0 ee ec 0d 3c 59 95 a8 3c 9b 87 86 3d 8d a3 12 3d
       0.0086624455 0.020579027 0.065688334 0.035800505
000300 82 d8 19 3d 4f 70 16 3c fa 43 e6 bb d0 5f 7f bd
       0.037559994 0.00918205 -0.0070271464 -0.062347233
000310 70 f7 20 bd f0 c2 c3 bd 54 35 f0 bc 53 58 86 bd
       -0.039298475 -0.09558666 -0.029322304 -0.06559815
000320 24 8e 9a bb f4 cf 66 be 1b a8 df bd d7 ff 3c 3d
       -0.0047166515 -0.22540265 -0.109207354 0.046142425
000330 59 31 c7 bd 22 71 aa 3d c4 60 9e 3c 25 68 69 3d
       -0.09726209 0.083223596 0.01933325 0.056984086
000340 a6 68 16 bd fc da bd bb bb c9 a1 bd cd 6a 9b 3d
       -0.036720894 -0.0057939272 -0.07899805 0.0758873
000350 55 1d 50 bc 1e c0 86 bc 92 d1 59 3d bd b4 3b bc
       -0.012702306 -0.01644903 0.053178377 -0.011456666
000360 30 f1 db 3c ca 37 7e bc ed 7d 72 3c 03 8b 0a 3c
       0.026848406 -0.015516231 0.014800531 0.008455995
000370 b7 a7 e7 bc cc b6 48 3d f9 c8 7b 3d 31 ee 0b 3e
       -0.028278215 0.049002454 0.06147096 0.13665082
000380 80 71 cf bc e7 2d e6 3c cb c7 68 bd ea ca 64 3c
       -0.025322676 0.02809806 -0.056831162 0.013964394
000390 90 80 c9 bc 90 77 8b 3d a6 49 ee 3b ca 84 91 bd
       -0.024597436 0.06809914 0.007271963 -0.07105406
0003a0 5b c0 28 3c fa 27 58 bc 59 a0 2f bd 72 f3 b4 bc
       0.010299767 -0.013193125 -0.04287753 -0.02208874
0003b0 13 23 d8 3c 59 28 eb bb 62 49 83 3b 00 c3 4f bd
       0.026383912 -0.0071764407 0.0040065506 -0.050723076
0003c0 28 1e 5b bd 6c 48 9f bd 35 fa 3d bb 2f 34 23 bd
       -0.053495556 -0.07777485 -0.0028988246 -0.039844688
0003d0 10 cd 89 bd c6 be 1d 3d 9e d3 89 3d b4 e1 9c 3d
       -0.06728566 0.038512014 0.06729816 0.07660237
0003e0 65 b3 a2 3d ef 7d 20 3c e3 51 ab bd ab ba 7e bd
       0.07944373 0.00979565 -0.08365228 -0.06218974
0003f0 0f 5a af bd da df 61 bd fc 71 a9 bd 12 f7 ee 3c
       -0.08562099 -0.055145122 -0.08273694 0.029170547

fc2.bias f4 [300]
000000 70 67 f1 bd cf bb d9 bd d3 01 39 bd 76 7c 63 bd
       -0.11787307 -0.10631525 -0.045167755 -0.055538617
000010 63 18 b2 bd 2a fb 96 bc ae d7 91 bc 5e 1a 0f be
       -0.08696058 -0.018430311 -0.01780304 -0.13974902
000020 92 95 4c bd b3 17 78 bd 98 88 bc bc 4b 87 e4 bd
       -0.04994733 -0.060569476 -0.023014352 -0.111586176
000030 85 4a 61 bd 67 cf 4b bd 8e 03 c0 bd cb e7 db bd
       -0.055002708 -0.04975834 -0.09375678 -0.107375704
000040 c3 01 1e bd d7 e3 f9 bd 2b a9 b5 bd 73 bd b4 bd
       -0.0385759 -0.1220166 -0.08870157 -0.08825197
000050 92 0e ac bd 29 f2 72 bd 84 5d fe bd 59 50 cf bd
       -0.084012166 -0.059312973 -0.124201804 -0.10122747
000060 4a 43 7c bd 63 83 20 be db 5a a6 bd 60 4d 1d be
       -0.06158761 -0.1567512 -0.08122798 -0.15361547
000070 cf 27 34 bd 0b 6f 91 bd 69 8c a1 bc 0c 0b e1 bd
       -0.043983277 -0.07101258 -0.019720273 -0.10988435
000080 79 f9 25 bc dc 4f 45 bd 2a 2d 00 bd b1 92 01 be
       -0.01013028 -0.048171863 -0.03129307 -0.12653615
000090 24 6a d6 3a 93 ba 09 be 84 e8 ea bd c4 8b 05 bd
       0.0016358537 -0.13450079 -0.1147013 -0.032603994
0000a0 85 8a 34 bd bb 0e 2d be 08 d1 ed bd b0 9d 92 bd
       -0.044077415 -0.1690015 -0.11612135 -0.07158983
0000b0 78 5e ba bd 04 82 ea bd 6e cb dd bd 57 66 33 bd
       -0.0910005 -0.1145058 -0.10829817 -0.04379877
0000c0 3f 0a 80 bd b2 b3 a2 bd e8 86 28 bd 7e 12 ed bd
       -0.06251954 -0.079444304 -0.04114428 -0.11575793
0000d0 cc 33 ee bd 94 e2 15 be 0e d8 0e be cf c0 ce bd
       -0.11630973 -0.14637214 -0.13949606 -0.10095369
0000e0 6a 63 b3 bd 17 9e c7 bd 0d 78 a2 bd 25 1a 01 be
       -0.08759196 -0.0974695 -0.07933054 -0.1260763
0000f0 c3 4e e5 bd da 71 cd bc c9 85 eb bd 63 53 30 bd
       -0.11196663 -0.025078703 -0.11500127 -0.043048274
000100 17 19 f8 bd 97 d8 0c be e0 cf dc bd b1 0a e1 bd
       -0.121141605 -0.13754497 -0.107818365 -0.10988367
000110 7b 9e 01 bd f8 09 e3 bd a9 3a 1e bd 35 8c 92 bd
       -0.03164528 -0.11085886 -0.03863016 -0.071556486
000120 67 f7 f3 bd 85 12 ac bd 9a 5b c7 bd 77 60 f7 bc
       -0.119124226 -0.0840197 -0.097342685 -0.030197365
000130 ac 4d 62 bd 60 74 13 bd c8 d3 bb bd ff 3d bb bd
       -0.055249855 -0.035999656 -0.091712534 -0.09142684
000140 f5 30 ee bd b0 ae 88 bd 7b c6 0d bd b7 37 ab bd
       -0.116304316 -0.06673944 -0.034613114 -0.08360236
000150 0b a5 57 bd bf 84 e9 bc 9a 45 b2 bd a3 19 19 be
       -0.05264763 -0.028505681 -0.08704682 -0.14951186
000160 13 00 19 be 54 df be bd d6 0e c3 bd 73 75 f1 bd
       -0.14941435 -0.0931994 -0.09524314 -0.1178998
000170 72 fb a7 bc 08 51 99 bd 86 92 8c bd f1 94 16 be
       -0.02050564 -0.074861586 -0.06863885 -0.14705254
000180 fa 92 7b bd b8 cc 9a bc 1b a9 ac bd 2b 26 fe bd
       -0.061419465 -0.018896446 -0.08430692 -0.12409624
000190 7e 74 f9 bd 85 bc 28 bc 2f 31 0b be 16 cb 97 bd
       -0.12180422 -0.010298853 -0.13592981 -0.074117824
0001a0 5c 39 58 bd 00 e7 b2 bd 73 8a 91 bd de 0e a5 bd
       -0.052789077 -0.08735466 -0.07106485 -0.08059476
0001b0 7a 28 53 bd 50 8f 07 bd 3e c8 8b bd 9e 45 da bd
       -0.051552273 -0.033095658 -0.068253025 -0.1065781
0001c0 4a aa 8f bd 56 10 a6 bc 00 1d 9e bd ea 0f dc bd
       -0.07014902 -0.020271461 -0.07720375 -0.10745223
0001d0 6d 13 fa bd 38 c7 af bd bf 9c 32 bd 99 79 c4 bd
       -0.122107364 -0.0858292 -0.043606516 -0.095935054
0001e0 df c8 86 bd 1e 0f 7c bd 39 fb 65 bd d0 2c 11 be
       -0.06581282 -0.061537854 -0.056147788 -0.14177251
0001f0 86 bf 6b bd 91 81 f0 bd 8f c7 e5 bd 5f bd 9a bd
       -0.057555698 -0.11743463 -0.112197034 -0.07555651
000200 08 7f 58 bd 4a 97 a8 bd 9b c9 c4 bd 1d 79 c8 bc
       -0.05285552 -0.08231981 -0.09608766 -0.024471814
000210 b0 28 d8 bd 7e f3 7a 3c 39 fa 00 be 69 0b 64 bc
       -0.105546355 0.015316842 -0.12595452 -0.013918736
000220 a5 02 9d bd e7 f4 b8 bd ba 4e 90 bd c0 84 7a bd
       -0.0766652 -0.090310864 -0.07046266 -0.061161757
000230 01 6e da bd 27 96 54 bd 75 c2 fc bd 10 fd 52 bd
       -0.10665513 -0.05190101 -0.12341777 -0.05151087
000240 cc c8 c1 bd 4c 2d 84 bd df 17 5e bd 89 b5 06 be
       -0.09462127 -0.06453952 -0.054221984 -0.13155188
000250 3b c5 cb bc 4e af 81 bd 6f a5 64 bd 0d bd b3 bd
       -0.02487432 -0.06332265 -0.055821832 -0.08776293
000260 c8 c9 fe bd 56 e0 e0 bd 33 76 8c bd fe b3 b9 bd
       -0.124408305 -0.10980289 -0.06858482 -0.09067534
000270 47 a5 09 bd 89 9f b1 bd 75 b1 b6 bd 09 aa 58 bd
       -0.033604886 -0.08673007 -0.08920566 -0.052896533
000280 5b 55 3f bd ce 18 02 be f4 2d 01 be 75 9e 96 bd
       -0.04671226 -0.12704775 -0.12615186 -0.07354442
000290 47 ed 7b bd da c1 16 be 13 3b 35 be 83 25 f6 bd
       -0.061505582 -0.14722386 -0.17698316 -0.120188735
0002a0 26 2b cc bd 1a e4 07 be 86 67 36 bc e1 5a cd bd
       -0.099691674 -0.13270608 -0.01113308 -0.100270994
0002b0 0e f2 98 bd 6e fe ee bd 99 00 bd bd 3d 25 0a be
       -0.07468043 -0.11669622 -0.092286296 -0.13490768
0002c0 a7 af b1 bc 07 7c 40 bd f4 a6 d7 bd 53 06 bc bd
       -0.021690203 -0.04699328 -0.10529891 -0.09180894
0002d0 02 3e bb bd 3c ea 78 bd b7 60 c5 bd 2c 49 9f bd
       -0.091426864 -0.06077026 -0.096375875 -0.07777628
0002e0 2a 16 99 bd 4e 13 4f bd 0a f7 70 bd b8 36 6f bd
       -0.074749306 -0.05055552 -0.058829345 -0.058401793
0002f0 e7 a4 b9 bd 2f 11 ca bd cc 82 04 be 14 e9 e4 bd
       -0.09064656 -0.09866559 -0.1294052 -0.111772686
000300 95 bc a5 bd 38 8b 32 be 68 ad 73 bd 0b db 72 bd
       -0.0809261 -0.1743592 -0.059491545 -0.059290927
000310 a9 3e 02 be 50 bb c8 bd b5 58 bc bd fd 39 76 bd
       -0.12719215 -0.09801352 -0.09196607 -0.060113896
000320 e4 61 dd bd 3a 8a 4a bd 0e 7d 8b bd f4 3b 74 bd
       -0.10809687 -0.04944823 -0.06810962 -0.05962749
000330 5a cc c0 bd 03 26 a8 bd 10 10 e0 bd eb 5e c1 bd
       -0.09413977 -0.08210375 -0.10940564 -0.09441932
000340 7d df b0 bd 00 8c d0 bd 35 18 a6 bc 8e 26 12 be
       -0.08636377 -0.10182953 -0.020275215 -0.1427252
000350 b3 19 8c bd ed f5 c1 bd 57 e5 94 bd a4 24 df bd
       -0.06840839 -0.09470735 -0.072703056 -0.108956605
000360 a2 f9 ac bd 47 e3 b5 bd e7 b8 94 bd 24 dd 8f bd
       -0.08446051 -0.0888124 -0.0726183 -0.07024601
000370 e1 8e b4 bd c2 af 05 bd c1 49 52 bd 7b c9 76 bd
       -0.088163145 -0.03263832 -0.05133987 -0.06025074
000380 43 3b ea bd 45 5c e5 bd 04 66 d9 bc 21 4e 91 bd
       -0.114370845 -0.1119924 -0.026537903 -0.0709498
000390 7d 3a 8f bd 34 fc d8 bd 42 9f 85 bd f0 45 3c bd
       -0.06993578 -0.10594979 -0.06524517 -0.045965135
0003a0 56 8d 40 be 00 47 28 bd 2c c1 d9 bd 9c 5d 3f bd
       -0.18803915 -0.041083336 -0.10632548 -0.046720132
0003b0 38 f9 a5 bd c1 24 6c bd 3e 3c 2b bd ce f9 83 bd
       -0.08104175 -0.05765224 -0.0418055 -0.06444131
0003c0 a2 05 50 bd 32 7a 01 be b0 84 71 bd 73 0d a2 3a
       -0.050786622 -0.1264427 -0.05896443 0.0012363627
0003d0 4e 9c c1 bd b8 61 bf bd 6e 98 86 bd 12 8e e5 bc
       -0.09453641 -0.0934481 -0.065720424 -0.028021846
0003e0 bf d0 84 bd bb 20 a3 bd a8 1c f7 bc 7c b2 55 bd
       -0.06485128 -0.07965227 -0.030165032 -0.05217217
0003f0 17 90 82 bd 93 11 c0 bd c2 8f 95 bd 19 da 7f bd
       -0.06375139 -0.09378352 -0.0730281 -0.062463854

fc3.weight f4 [1, 300]
000000 bb 6c 75 bc d6 c8 bd 3c bd c4 0c bc 31 19 0d 3c
       -0.014979537 0.023167055 -0.008591828 0.008611963
000010 18 e2 67 3b 07 7f cb 3b 4f d6 2d bc f8 84 94 3c
       0.0035382565 0.006210211 -0.010610177 0.01812981
000020 e6 33 dc 3b 40 f0 12 3c 50 26 35 3c 60 96 a2 3c
       0.006720054 0.008968413 0.011056498 0.019847095
000030 81 e0 8f bc 20 24 1b bc 6f ac 2b bc 53 e4 73 bc
       -0.017563106 -0.009469062 -0.010478123 -0.01488598
000040 23 bf 21 bc 9e 23 3e 3c aa 60 55 3c e3 19 19 3c
       -0.009872231 0.0116051715 0.013023535 0.009344551
000050 92 7e 0b bc 0e 8f 99 3b da 1d 4c 3c f6 61 25 3d
       -0.008514063 0.004686243 0.012458289 0.040376626
000060 ac 12 db bb fc 58 8a 3c ce 6c 47 3c 94 58 a4 bc
       -0.0066855755 0.016888134 0.012171937 -0.020061769
000070 f4 72 f9 3b d9 e4 7d 3c 36 2f 4a bc 65 d0 80 bc
       0.0076125804 0.015496456 -0.0123403575 -0.01572437
000080 00 fe f9 3b 29 5f 52 bc db 1f 90 bc ae 47 eb bc
       0.007629156 -0.012840071 -0.017593315 -0.028720703
000090 a8 86 20 3c 14 f2 42 3d 36 c2 89 3c 06 3c 5c 3c
       0.00979773 0.047594145 0.01681624 0.013442045
0000a0 83 80 cf bb 8d 70 11 3c 81 58 ee 3c e3 99 83 3b
       -0.0063324585 0.008876932 0.029094936 0.0040161475
0000b0 a4 c8 0a 3c d7 f0 c6 3c 42 d5 a2 bc aa 33 1c bc
       0.008470688 0.024284763 -0.01987708 -0.009533802
0000c0 bf 83 51 bc 58 dc c7 bc 9d 63 ff bb 39 3d 87 bc
       -0.012787758 -0.02439706 -0.0077938573 -0.016508685
0000d0 c4 c5 9f 3c a6 96 e6 3c 69 e0 da 3c 5e 07 f1 3c
       0.019503482 0.028148007 0.026718335 0.029422458
0000e0 35 43 c1 3b cd d0 4a 3c c3 fb b0 3c aa b1 87 bc
       0.0058979043 0.012378884 0.021604424 -0.016564209
0000f0 44 d5 44 bc 80 f1 be 3b 4c c0 b3 3a 31 9c 49 3c
       -0.012013737 0.005827129 0.0013713925 0.012305305
000100 21 a9 ae 3c 19 c4 1b 3c 14 07 40 3c 40 35 7d bc
       0.021320881 0.009507203 0.011720438 -0.01545459
000110 f1 62 d9 bb 72 de 88 3c e9 90 26 bd ca 78 3f bc
       -0.006634109 0.016707633 -0.04066554 -0.011686513
000120 08 bb f3 bb 39 78 28 3c 00 34 7d bc 67 6a 55 bc
       -0.0074380673 0.01028257 -0.015454292 -0.013025857
000130 63 c7 9d 3c 2e 37 f4 bb 3f 4d e3 bb bd d1 42 3c
       0.019260114 -0.007452867 -0.0069366987 0.011890826
000140 76 d9 51 3c c6 28 90 3b 12 8a bc 3b 58 65 eb 3b
       0.012808194 0.004399392 0.005753764 0.007183712
000150 96 15 4f 3c 1a 02 01 bd ac cc dc 3b 0e e5 96 bc
       0.012639424 -0.031496145 0.006738266 -0.018419769
000160 5e be d6 3c 6f 23 04 bd 4a 17 c0 3c 0a 6a cd 3b
       0.026213821 -0.032260355 0.023448605 0.0062687444
000170 0b 01 1f bc e5 95 8f bc 89 36 2e bc e1 f5 55 bd
       -0.0097048385 -0.01752753 -0.010633119 -0.05223644
000180 0f fb d9 3c d7 af 2b 3c 36 cf 62 bb f6 c6 00 bc
       0.026608972 0.010478935 -0.003460837 -0.007859936
000190 51 10 77 3c 6c e6 07 bc 2f d5 0c 3d 89 8f 56 bc
       0.015079574 -0.008294683 0.034382995 -0.013095745
0001a0 79 80 ad bc 66 77 15 bc 57 aa d1 3b 86 52 26 3c
       -0.021179425 -0.009122705 0.00639848 0.010151511
0001b0 2e 9b 9b bc 3a 29 99 bc 43 29 34 bc 5e 3f 0d 3c
       -0.018994894 -0.018696416 -0.010996166 0.008621065
0001c0 8e 8d 76 3c 52 f0 08 3c 15 01 60 bc 66 95 a9 bc
       0.015048398 0.008358078 -0.013672133 -0.020701122
0001d0 1e 81 8d bc 5f 90 c8 3b 16 4a a6 bb 02 c7 c3 bc
       -0.017273482 0.006120726 -0.0050747497 -0.023898605
0001e0 8b 73 9f bc 31 e0 52 bc 50 34 e0 3b f2 51 bf 3c
       -0.019464275 -0.012870834 0.0068421736 0.023354504
0001f0 a2 ad ba 3c 57 e2 64 bc b5 22 3d bc 9a 88 8c bc
       0.022787873 -0.013969979 -0.011543919 -0.01715498
000200 23 e2 1b 3c 77 a8 73 bc 29 23 00 3b 29 88 3d bc
       0.009514364 -0.014871708 0.0019552207 -0.011568108
000210 0c ef 10 3c 7b 8e ae bb ad a5 89 bc 66 f4 1f bc
       0.008846056 -0.0053270436 -0.016802633 -0.009762859
000220 3a cd 88 bc 2d a5 58 bc 29 13 11 3c c7 7f c0 bc
       -0.016699422 -0.013222975 0.008854666 -0.023498429
000230 19 b9 81 bc cc a4 97 bc 30 b2 8a bc 8b 33 43 3c
       -0.015835332 -0.018511198 -0.01693067 0.011914144
000240 93 88 ae bc 44 ef 60 bc 24 05 3e bc e4 af 51 bc
       -0.021305358 -0.01372892 -0.011597905 -0.012798283
000250 cc f9 15 bc 8a ce fd bb 2f 32 29 bc d5 58 46 3c
       -0.0091537945 -0.0077455686 -0.010326906 0.01210614
000260 5d 38 5a bc 7f 05 51 3c 3b d3 6b 3c c7 71 e3 bc
       -0.013319102 0.012757658 0.014393623 -0.027764214
000270 d4 f2 85 bc 0d 67 ab bc 16 5e ef bc 6d 11 06 bc
       -0.016351141 -0.020923162 -0.029219668 -0.008182866
000280 5c fc 8c bc 11 4c 4b 3d 92 6a aa bc 19 a0 18 3c
       -0.017210178 0.04963309 -0.02080277 0.009315514
000290 35 71 16 bc bb 03 6b bc 10 99 cd 3c 5f 03 e5 bc
       -0.009182264 -0.014344151 0.0250974 -0.027955709
0002a0 52 0c be bc 5a 80 13 3c 17 9b a4 bb b9 c1 00 3d
       -0.023199234 0.009002769 -0.005023371 0.03143475
0002b0 bf bc 1f bc 61 46 83 ba 4c 55 71 3c 96 d8 02 bd
       -0.00974959 -0.0010015481 0.014729809 -0.031944834
0002c0 9d f3 f6 3b 1c b7 20 bb 09 77 8d 3d 74 97 c6 3b
       0.007536365 -0.0024523204 0.0690747 0.006060535
0002d0 8c 23 06 bc 71 2e 87 3c 02 cf 3b 3c ad 50 38 bc
       -0.008187186 0.016501637 0.011462929 -0.011249703
0002e0 86 11 33 3c f8 f2 9f bc 35 01 c8 bb 42 f8 ee bb
       0.010929471 -0.019525036 -0.0061036595 -0.007292778
0002f0 98 da c0 bb 7e eb bf 3a cb 8f 41 bc ff 1d 29 3c
       -0.0058854334 0.0014642326 -0.011814068 0.010322093
000300 f3 c9 76 bc 34 cf fc 3c 84 39 09 3c 77 eb 6b 3c
       -0.015062797 0.03086052 0.008375529 0.014399401
000310 d7 e3 09 bd c1 d9 72 bc bd dc c5 3b 79 ba 54 3c
       -0.03366455 -0.014822424 0.006038277 0.012983912
000320 39 cf aa 3c d9 75 0b 3c d9 12 64 3c a1 bf 20 bc
       0.020850765 0.008511984 0.013920509 -0.009811313
000330 4c 8b f7 3b 12 d7 b3 3c da 75 8b bc c7 b1 9a 3c
       0.0075544473 0.02195314 -0.01702397 0.018883599
000340 a5 37 db bb 45 0a f8 3c 02 4d bb 3b 45 df a9 3c
       -0.006689983 0.030278334 0.005715967 0.020736346
000350 16 03 06 3b 18 a0 aa bc c5 4b 26 3c b6 ba 2b 3d
       0.0020448617 -0.020828292 0.010149901 0.04192611
000360 d2 be 7f bc 65 c2 fd 3b bf 93 ed 3b 52 78 17 3c
       -0.01560946 0.007744121 0.0072502787 0.009244995
000370 7e 7d 1f 3c 72 95 18 3c 49 81 d4 bb 83 b8 53 bc
       0.0097345095 0.009312974 -0.0064851386 -0.012922409
000380 2c 2c c4 bc b0 a1 df bc 25 b9 0e 3c c2 3a e0 bc
       -0.023946844 -0.027298778 0.008711134 -0.027371768
000390 70 40 39 bb 3d 99 4f bc 3f 14 3f bc 3d 7f 8f 3c
       -0.0028267168 -0.012670812 -0.011662542 0.017516727
0003a0 3e 89 22 3d c2 97 0e 3c f2 2e b6 bc 8d d6 f3 bb
       0.039681666 0.008703174 -0.022239182 -0.007441348
0003b0 f8 48 04 bc e1 0b e9 3b 31 c6 f5 bc 47 e7 61 bb
       -0.008074038 0.007112012 -0.030001732 -0.0034470127
0003c0 14 e6 2a 3c c7 ba 01 3d d1 f3 25 bd c6 24 02 bc
       0.010430831 0.031672265 -0.040515725 -0.007943338
0003d0 31 23 d2 bc 41 05 f4 3b ac d5 00 bc f7 61 ee bb
       -0.025651546 0.0074469154 -0.007863443 -0.007274862
0003e0 77 cc eb bb ff e3 ad 3c 8a 3d 24 3c 5a a3 63 bc
       -0.007196005 0.021226881 0.010024438 -0.0138939265
0003f0 a2 c7 e8 bb 0a 11 97 bc e7 22 3e bc da 1b 48 3c
       -0.007103876 -0.018440742 -0.011605001 0.012213672

bn1.weight f4 [400]
000000 92 4a 16 3f 02 86 ec 3e 61 f4 a5 3e 46 ab 1e 3f
       0.58707535 0.4619599 0.3241301 0.6198009
000010 05 55 05 3f 76 1e 36 3d 35 35 27 3f 89 37 1b 3f
       0.52082855 0.044462644 0.6531556 0.60631615
000020 9f 8f 09 3e 44 19 fb 3e 49 68 cb 3e d9 51 73 3f
       0.13433693 0.49042714 0.39728 0.95046765
000030 a0 56 a7 3d f2 37 08 3f a0 5b 0a 3f e4 a6 0d 3f
       0.08170819 0.53210366 0.5404606 0.5533278
000040 51 60 1f 3e 85 bd 8a 3e fd 3d 29 3f 03 41 d8 3d
       0.15564086 0.27097717 0.6611021 0.10559275
000050 b7 1e 28 3f 72 15 0d 3e 73 62 b6 3e 8e 48 5e 3e
       0.6567187 0.13777712 0.35621986 0.21707365
000060 a6 75 d5 3e 6d 1f db 3e c5 0c 5d 3f fa 65 10 3f
       0.4169132 0.42797413 0.8634761 0.56405604
000070 62 ca 8f 3e e9 e1 4c 3e c7 32 bc 3e a1 ae 11 3f
       0.28084093 0.20008053 0.3675749 0.5690709
000080 42 e1 3b 3f 45 db 0b 3f 88 99 0f 3f 07 64 34 3f
       0.7339059 0.54631454 0.56093645 0.7046513
000090 15 c1 b5 3e 47 dc 99 3e d4 f1 38 3e 18 68 8e 3e
       0.35498872 0.3005087 0.18061 0.27813792
0000a0 d9 64 29 3f 53 ae b7 3e 73 7a 00 3e 37 c4 bf 3e
       0.66169506 0.35875186 0.1254671 0.37454388
0000b0 9e 00 24 3e bf 74 a9 3e 94 28 09 3e 37 8a e5 3e
       0.1601586 0.33096883 0.13394386 0.44832012
0000c0 f7 2f 9e 3e 80 e0 d1 3e 09 82 27 3e fe 49 11 3f
       0.3089597 0.40991592 0.16358198 0.5675353
0000d0 d9 35 eb 3e fb c3 23 3f c1 d6 b6 3d 60 36 33 3e
       0.4593952 0.6397092 0.0892768 0.17501211
0000e0 69 50 0f 3f 7b 46 ff 3e 8f 6d 0b 3f cf f2 2c 3f
       0.5598207 0.4985846 0.5446405 0.67557997
0000f0 5a ca 16 3f e3 c3 18 3f b4 7a 9a 3d 39 27 9f ba
       0.58902514 0.596739 0.07542935 -0.0012142427
000100 21 17 f1 3d 1a 85 e0 3e e1 56 a6 3e 6d 8f cd 3e
       0.117719896 0.43851548 0.32488158 0.40148488
000110 5f 6f 05 3e be 3f c6 3e 81 e7 0b bc 7b 19 ae 3e
       0.13030766 0.38720506 -0.008539082 0.34003815
000120 90 4f 3c 3f 5d a1 db 3e 3b 24 08 3f 02 5b 1f 3e
       0.735589 0.42896548 0.53180283 0.1556206
000130 da 33 51 3e e9 8f 0b 3f 53 70 09 3f b4 43 f6 3e
       0.20429936 0.54516464 0.5368702 0.48098528
000140 6f c7 1c 3e 63 b9 b1 3e 96 41 90 3e 7c e6 53 3e
       0.15310453 0.3471175 0.28175038 0.20693392
000150 65 e5 ed 3e c7 61 fa 3d cb e8 24 3f be 3e f8 3e
       0.46464077 0.12225681 0.64417714 0.48485368
000160 8d d5 b4 3e d7 b8 0e 3f ff 69 17 3f b0 97 1a 3f
       0.35319176 0.55750793 0.5914611 0.60387707
000170 8c 91 35 3e 0f d9 0c 3f 52 44 cf 3e 5f 40 e2 3e
       0.17731303 0.55018705 0.40481812 0.44189736
000180 78 4a 68 3f 27 71 ff bc 8f 63 71 3e f4 bf ff 3e
       0.9073863 -0.031181885 0.23573135 0.49951136
000190 4f fd 00 3f 6e 6d 27 3f 53 5c b5 3e 4c 2d 10 3f
       0.5038652 0.6540135 0.35422 0.5631912
0001a0 83 6f e4 3e 37 bd 46 3e a4 e8 18 3f 77 05 fc 3e
       0.44616327 0.19408117 0.5972998 0.4922292
0001b0 20 90 cb 3e b1 cb a4 3e e0 ec 3e 3e a5 ca de 3e
       0.39758396 0.32186654 0.18645048 0.4351398
0001c0 be 49 ca 3e 2e 88 d6 3e e6 18 12 3f a2 c8 4d 3d
       0.39509386 0.41900772 0.5706924 0.050240166
0001d0 14 f8 24 3f 94 f6 75 3e 7a d1 1f 3e 7b 19 05 3f
       0.6444104 0.24019843 0.15607253 0.51992005
0001e0 72 8c 80 3e e8 7d 38 3e 59 d4 bf 3e 33 88 24 3f
       0.2510715 0.1801678 0.37466696 0.64270324
0001f0 ad 2f 88 3d a2 41 4e 3e e9 1b c3 3c 2e 07 10 3f
       0.066497184 0.20142224 0.02381702 0.56260955
000200 ea fd 02 3f b9 29 bd 3d a9 ff 01 3d 9c 2d c0 3e
       0.5116869 0.092364736 0.031737957 0.37534797
000210 af c4 ed 3d 03 20 8f 3f 4b f5 07 3f 9d 92 2b 3f
       0.1160978 1.1181644 0.5310866 0.6702059
000220 07 8e 06 3f 24 56 63 3d cb d5 01 3f a0 61 2b 3e
       0.52560467 0.055502072 0.5071685 0.1673646
000230 c5 29 db 3e 93 ad d1 3e c0 20 b8 3d 52 9e f3 3e
       0.42805305 0.4095274 0.089906216 0.47581726
000240 f2 e4 a0 3e 41 d7 8b 3d 7a 42 57 3e b5 37 9d 3e
       0.3142467 0.06828166 0.21021453 0.30706564
000250 9a bb 10 3f a2 20 4a 3f 33 88 c1 3d 5c 42 40 3f
       0.5653626 0.78956044 0.09449806 0.75101256
000260 9f 02 a0 3e 8a ab 97 3e 27 12 d3 3e 6c c6 19 3f
       0.31252 0.2962306 0.41224787 0.6006839
000270 76 9b 9a 3d bf 30 57 3e 74 5b 36 3f cd 85 c8 3d
       0.07549183 0.21014689 0.71233296 0.097911455
000280 ca 34 5a 3f 2f 3a 2f 3f e8 f5 2f 3f 2c 2f 90 3e
       0.852368 0.68448156 0.687346 0.2816099
000290 20 7a 9f 3e f3 82 4d 3e a6 82 51 3f 46 93 cb 3d
       0.3114786 0.20069484 0.8183998 0.099401996
0002a0 0a 15 f5 3e e0 07 03 3f 00 27 40 3f b8 46 93 3e
       0.47867614 0.5118389 0.7505951 0.28764892
0002b0 c8 9d 9f 3e 19 55 04 3e 16 66 de 3e 55 39 c1 3e
       0.31175065 0.12923087 0.4343726 0.37739053
0002c0 01 3b 26 3f 0c cd 90 3e 38 81 01 3f 8c 1e 23 3e
       0.6493378 0.28281438 0.505878 0.15929621
0002d0 51 18 a4 3d 75 1b 08 3f e8 5b a6 3e 10 ae 5c 3e
       0.080124505 0.53166896 0.32491994 0.21550775
0002e0 4c de 9e 3e 79 88 03 3f ad 9d 21 3f 98 ab 42 3e
       0.31028974 0.51380116 0.6313122 0.1901077
0002f0 1f c1 2f 3f 13 87 5b 3e 54 d0 8f 3e a7 53 64 3e
       0.68654054 0.21438245 0.2808863 0.22297536
000300 d2 a8 c2 3e 6b 70 b3 3e d5 c4 aa 3e 66 6e 4f 3e
       0.38019425 0.35046706 0.33353296 0.20256957
000310 1b b5 c5 3e c9 26 f5 3e d0 76 ac 3e da 00 0e 3f
       0.38614735 0.47881153 0.33684397 0.5547005
000320 48 c6 ff 3e 3d b2 e3 3e 8f 0e 17 3d c8 69 d1 3e
       0.49955964 0.44471923 0.03687912 0.40901017
000330 9c 68 08 3f e4 21 ec 3e e1 d8 8c 3e ad 63 c5 3d
       0.5328462 0.46119606 0.27509215 0.09638152
000340 49 11 dd 3e 27 66 0b 3f 6a e0 ed 3e 94 78 8d 3e
       0.4317725 0.5445275 0.46460277 0.27631056
000350 cd 7e 4f 3e 01 b2 15 3f 52 65 0f 3f 52 72 b0 3e
       0.20263214 0.5847474 0.5601398 0.3446222
000360 35 e3 36 3e d2 b8 ce 3e a6 07 17 3f 17 90 b8 3d
       0.1786011 0.40375382 0.58996046 0.09011858
000370 81 af a3 3e 75 84 a5 3e bc 88 d0 3d 75 b7 23 3d
       0.31969836 0.3232762 0.1018233 0.03996988
000380 71 a4 98 3e 0c 5f 23 3b 74 28 85 3e 86 a8 3e 3f
       0.2981296 0.0024928479 0.26007426 0.74475896
000390 f2 b7 18 3e 72 9a be 3e 53 6b a4 3e 6a 90 24 3e
       0.1491392 0.37227207 0.32113132 0.16070715
0003a0 b2 de f4 3d ae 63 90 3e fd e5 08 3f 5f 14 47 3f
       0.11956538 0.2820105 0.53475934 0.7776546
0003b0 74 4a 3a 3f ef 74 46 3e a8 90 d5 3e b4 3e 93 3e
       0.72769856 0.19380544 0.41711926 0.28758776
0003c0 82 c8 61 3e 8f 6a 1c 3f 08 59 c3 3d 24 c1 36 3d
       0.22049144 0.61100096 0.09538466 0.044617787
0003d0 4d 1a 13 3f 6f 5e e2 3e c2 60 bb 3c 6d ee 9d 3e
       0.57462007 0.44212672 0.022873286 0.30845967
0003e0 ae a0 c7 3d 06 9d 06 3f 0b fd 8c 3f 97 af 0b 3e
       0.09747444 0.5258335 1.1014723 0.13641201
0003f0 a7 e3 3c 3f 6b c1 54 3e b5 ee 14 3f 5c 95 df 3e
       0.7378487 0.20776908 0.5817674 0.4366864

bn1.bias f4 [400]
000000 74 d3 e3 3c 6c 7b 74 3d ce c0 c8 ba 17 6a e1 3d
       0.02781079 0.059688017 -0.0015316249 0.11006563
000010 55 42 2c 3e 9d c4 25 be 81 dc c7 3d ea 56 34 3e
       0.16822179 -0.16188283 0.09758855 0.1761128
000020 05 90 2b bd 1f 28 2a 3e 6e 8b 4a 3d fd a6 00 3d
       -0.041885395 0.16616867 0.049449377 0.031409252
000030 68 0f a0 3d 42 de 28 3d 89 3e 17 3e e9 ed 89 3d
       0.078154385 0.041227587 0.14769949 0.06734831
000040 e3 14 25 3e 16 b5 41 3e 87 e2 38 3d a3 19 39 3e
       0.16121249 0.18916735 0.04513791 0.18076186
000050 de 13 42 3e e6 5a 5a bc 84 44 11 3e 5f bd 82 bc
       0.18952891 -0.013327336 0.14186293 -0.01595944
000060 76 0e 5c bd fd dc 15 3d 04 68 54 3d d4 77 35 3e
       -0.05372473 0.036587704 0.05185701 0.17721492
000070 9c f2 c8 3d 0f 1c 18 3d de 5d 1b 3e 92 c1 4d 3d
       0.09811899 0.037136134 0.15172526 0.05023343
000080 f2 4e b1 3d b9 31 0b 3e f4 5c 4b 3e c8 9a 14 3e
       0.08657636 0.13593186 0.19859678 0.1451217
000090 4a e1 14 3e ef 15 11 3e b6 ec ce 3c 6e 4f 2a 3e
       0.14539066 0.14168523 0.025259357 0.16631863
0000a0 0e 12 07 3e bb de ec 3d e8 79 45 3e 99 13 14 3e
       0.13190481 0.1156592 0.19284785 0.14460601
0000b0 23 87 4b 3e 81 97 e3 3d 6e b5 2b 3d d5 75 53 3d
       0.1987577 0.111128815 0.04192107 0.051626045
0000c0 fe 27 30 bc f4 ef 86 3d ec f0 9d 3d fd db 10 be
       -0.010751722 0.06588736 0.07711968 -0.14146419
0000d0 52 e6 a9 3d c4 80 17 3e 38 cc 82 bd b3 c4 67 3c
       0.08295883 0.14795214 -0.06386608 0.014146018
0000e0 36 fd 42 3e a8 fd 5b 3d 39 7c 37 3b 42 f6 50 3e
       0.19041905 0.053708702 0.0027997626 0.2040644
0000f0 53 ac 09 3e da af 53 bd 23 b2 07 be 30 fb ea 3a
       0.13444643 -0.051681377 -0.13251548 0.0017927643
000100 41 6a 84 3e 28 d8 a1 3b a2 36 a6 3d 34 8f 20 3e
       0.25862315 0.004939098 0.08115889 0.15679628
000110 c5 fc 36 3d 19 d5 02 3e 56 51 94 3e 0d 1f 09 3e
       0.044674654 0.12776603 0.28968304 0.13390751
000120 fc b0 cc 3d 65 7a f4 3d aa 72 d7 3d f0 38 1f bd
       0.099946946 0.119374074 0.10519917 -0.03887266
000130 d0 53 ce 3d fa 5b 4d 3e 52 7a 15 3e e6 49 5b 3d
       0.1007458 0.20054618 0.14597443 0.053537272
000140 e5 de 13 3d 33 3a 76 3d 79 5d 18 3e e4 4c da bc
       0.03610124 0.060114097 0.14879407 -0.026647992
000150 57 0b 19 3e 33 b7 8b 3c 06 0f e7 3d 86 7e 6b 3c
       0.14945732 0.01705513 0.11282162 0.014373427
000160 77 33 f1 3d 52 0d e6 3c cd 09 54 3e 7f d3 12 3e
       0.11777394 0.028082523 0.20706864 0.14338492
000170 e3 a7 46 3d 5d 49 d3 3c 12 74 1e 3e 61 79 9c 3d
       0.048499953 0.025791818 0.15473965 0.07640339
000180 11 cc 8b 3e 71 83 a5 be a1 79 dd 3b 0e 8d be 3d
       0.27304128 -0.32326844 0.006758884 0.09304248
000190 3e 0b 20 3e 76 f1 3f 3e d8 68 1a 3e 85 52 5a 3e
       0.15629289 0.18744454 0.15079057 0.21320541
0001a0 32 fe ce 3d da 10 47 3d c8 54 af 3d 1d 35 fb 3d
       0.10107078 0.048600055 0.085610926 0.1226599
0001b0 d8 30 6f bd ef 4f e3 3d b2 7f 23 3e c1 d2 b9 3d
       -0.05839619 0.110992305 0.1596668 0.09073401
0001c0 45 9e 55 3d a4 54 0e 3e 0b b9 8a 3e c9 21 2d 3e
       0.05215289 0.13899475 0.27094302 0.1690742
0001d0 12 97 c2 3d d6 40 8d 3d b5 c5 33 3c 21 ae f8 3b
       0.095014706 0.06897132 0.01097243 0.007589117
0001e0 5b c2 93 3c 09 4d 62 3d fd 07 9c 3d 3f 83 2f 3d
       0.018037012 0.055249248 0.07618711 0.042849775
0001f0 19 7f 6b 3e 36 95 d5 3b 5e 9e cd bd 09 37 c3 3d
       0.22997703 0.0065180315 -0.10039972 0.095319815
000200 6a bd 0a 3e e6 84 86 3e 7a 34 30 be 56 ac 2e 3e
       0.13548818 0.26273268 -0.17207518 0.17057928
000210 c8 a6 a7 3d c9 b0 84 3d 53 eb a4 39 4d 03 ef 3d
       0.08186108 0.064790316 0.00031455848 0.116705514
000220 d9 6d 61 3d 9d 00 d1 3d d0 fb 8b bc 44 3b 3e 3e
       0.0550364 0.10205195 -0.017087847 0.18577296
000230 4f c1 a2 3d c0 49 d5 3d fe 58 24 3d a2 2a b9 3d
       0.07947027 0.10414457 0.040123932 0.09041335
000240 fc f9 ac 3d 2a fa 1d 3d 25 1b d7 3c d4 30 13 3e
       0.08446118 0.038568653 0.02625806 0.14374095
000250 c7 de f0 3d 7d 64 a8 3c a5 03 72 3d e5 da 28 3d
       0.117612414 0.020555729 0.059085507 0.04122438
000260 8b ee ac 3d aa c3 84 3d 19 ea fc 3d 23 25 5c 3a
       0.08443936 0.064826325 0.12349338 0.0008397868
000270 09 05 ac 3d d5 8e eb 3d 24 51 8b 3d af 5d e6 3d
       0.08399398 0.115018524 0.06802586 0.112483375
000280 bc 63 b8 3d d6 1d 4d 3e 7b 94 17 3e c0 9d f3 3d
       0.09003398 0.20030913 0.14802735 0.11895323
000290 4f 11 48 3e 83 66 bc 3d 71 ab 80 3e 31 40 22 3e
       0.19537853 0.0919924 0.251308 0.158448
0002a0 00 44 c3 bd ad 2f 42 3e 37 d5 bd 3d 59 0b 20 3e
       -0.09534454 0.189635 0.09269183 0.15629329
0002b0 05 5b c6 3d bd b8 31 3e 72 d7 e8 3d bd 07 af 3d
       0.09685329 0.17355628 0.11369218 0.08546398
0002c0 7b a9 87 3d 8d b1 c2 3d f1 90 2d 3e 3b 82 2d bd
       0.06624123 0.095065214 0.16949822 -0.042360526
0002d0 52 12 59 3d 33 2c fb 3d 9b d7 c1 3d 14 7b 67 3d
       0.052995987 0.1226429 0.094649516 0.05651386
0002e0 2a 8b ae 3d ba 8b 26 3e 00 3b 34 3e 4a ed b7 3c
       0.08522637 0.16264239 0.17600632 0.022452015
0002f0 dd f5 2a 3e be f4 16 3d 27 63 ca 3d ce 5d 97 3d
       0.16695352 0.036854498 0.09882193 0.07390939
000300 f3 be 8d 3c 03 ad 34 bd 03 e7 8f 3b 73 0b 54 3d
       0.017302966 -0.04411031 0.0043915524 0.05176873
000310 56 a3 c6 3d 76 c9 e0 3d 4b 35 e2 ba f8 a1 10 3e
       0.096991226 0.109759256 -0.0017258314 0.14124286
000320 2e 34 81 3d 92 0e 7a 3e 31 1e 85 3e 5a 1b 73 3d
       0.063087806 0.2441962 0.25999597 0.059352256
000330 43 d3 3e 3e 7a 07 f0 3d af a9 b3 3d 5e 32 1b be
       0.18635277 0.11720176 0.08772599 -0.15155932
000340 4e f8 06 3e 57 35 98 3d 82 b0 be 3c 6a bb 57 3d
       0.13180658 0.07432049 0.023277525 0.052668966
000350 1a f2 af bc da 10 2f 3e 96 83 0a 3e c6 c2 99 3d
       -0.021477748 0.17096272 0.13526759 0.07507853
000360 40 7a 24 3d f1 b8 47 3e 27 24 63 3d 17 0b 29 bd
       0.04015565 0.19504143 0.0554544 -0.04127034
000370 f5 14 fd 3c ca 20 0b 3d f9 57 95 bd 12 c3 bb bc
       0.030893782 0.033966817 -0.0729217 -0.022920165
000380 5b 3f 91 bc fa 83 3d bb 34 3b 99 3d e7 a3 63 3e
       -0.017730406 -0.0028917775 0.07481995 0.22230493
000390 a7 0d 2d 3d fe ab b7 bc cf 3f ff 3c 1f 41 17 3e
       0.042249348 -0.02242088 0.031158356 0.14770935
0003a0 71 10 73 bc ac 90 89 bb 95 2f 30 3e 7a 78 6a 3e
       -0.014835463 -0.0041981544 0.17205651 0.2289752
0003b0 74 6c bf 3d 54 7d 1b 3d c9 25 b1 3d 0c 7a ac 3d
       0.09346858 0.03796132 0.08649785 0.08421716
0003c0 da 14 d1 3d 89 5d 0b 3e 76 d8 00 3c a2 40 de 3d
       0.10209055 0.136099 0.007864108 0.108521715
0003d0 02 1d 67 3d 03 dd 26 3e 43 95 30 be 5a 87 7c bb
       0.05642415 0.16295247 -0.17244439 -0.0038532824
0003e0 85 3c 0a bc 07 81 14 3e 95 6b 04 3d f3 6a b8 3c
       -0.008437281 0.14502345 0.03232916 0.022511935
0003f0 af d3 f9 3d c6 69 a2 3d c4 5d b3 3d 2b 45 3c 3e
       0.121985786 0.07930331 0.08758119 0.1838576
