checkpoint_actor_local0.pth (torch_old, 47280 bytes, 6 tensors)

fc1.weight f4 [128, 24]
000000 17 aa 0c bc bd 10 5b 3c 89 56 05 bd 45 36 3d bb
       -0.008585474 0.01337069 -0.03255323 -0.0028871458
000010 f7 4a ab 3d 58 e4 91 bd 51 3c f5 bc da 77 7f bc
       0.08363908 -0.07123631 -0.029935988 -0.01559254
000020 51 60 2f 3c 87 84 a0 bd 95 07 09 3e f6 7d b8 3d
       0.010704116 -0.078377776 0.13381799 0.090084
000030 09 5c 78 3e 77 39 07 3c a9 a5 c1 3d dc d5 3d 3d
       0.24253859 0.008253447 0.09455425 0.04634653
000040 54 9b f5 3d 7c bc 86 3d 4c c1 9f bc 71 63 4c 3e
       0.11992517 0.06578919 -0.01950135 0.19959809
000050 72 04 8a 3e d9 2d a5 bd c0 72 01 3d b6 1c 9d 3e
       0.26956517 -0.08065385 0.031603575 0.30685967
000060 70 78 b9 bc 9d cf 0a 3e ac c1 6b 3d fc 6d 84 3d
       -0.022640437 0.1355576 0.057557747 0.0646629
000070 e8 89 88 bd db 3e 80 bd fe 93 76 bc af dd 17 3e
       -0.066669285 -0.06261989 -0.0150499325 0.1483066
000080 7e 8c f6 bb 65 34 77 3e bd cc 89 3d 5a aa 28 3e
       -0.007524072 0.2414108 0.06728504 0.16471234
000090 f4 b6 9e b9 78 55 ef bd ea d1 a7 bc 96 d8 1f 3e
       -0.0003027242 -0.11686224 -0.020485837 0.15609965
0000a0 f6 6b b9 bd 65 11 9c 3e 74 c1 f3 3c 96 cf a8 bc
       -0.09053795 0.3048202 0.029755332 -0.020606797
0000b0 b6 1f 91 3c c7 45 c2 bc 7e ae 09 3c 0c 26 eb bd
       0.017715316 -0.023714913 0.008403419 -0.11481866
0000c0 1b d2 15 3e 7c 6c f0 be d4 4e bd 3d a9 09 a8 be
       0.1463093 -0.46957767 0.09243551 -0.3281987
0000d0 c0 9a 19 be fe d8 28 be 9e 63 c8 3d bf 80 8d be
       -0.15000439 -0.16489026 0.097846255 -0.27637288
0000e0 2c 77 62 3d 0d f1 ea be 20 b6 5d bd b9 a5 93 bd
       0.055289432 -0.45887032 -0.054128766 -0.072093435
0000f0 69 4d d3 3d 2a 64 a4 bd a8 90 f4 bc 4d b7 b2 bd
       0.10317499 -0.08026917 -0.029854134 -0.08726368
000100 ca 29 13 3e 7b c2 97 be db a0 d6 bc 64 90 10 be
       0.1437141 -0.29640564 -0.026199749 -0.1411758
000110 9e ab 38 3e e5 63 dc bd 89 e3 39 3d be 94 08 be
       0.18034217 -0.10761241 0.04538301 -0.1333799
000120 70 2a bc 3d 53 4c d2 bc fb 03 0c be 94 4b bf bc
       0.09187782 -0.02567116 -0.13673393 -0.023351468
000130 35 a8 e4 3d 95 dd 34 bc d8 fc 95 3c fd 71 18 bc
       0.111648954 -0.011039157 0.018309042 -0.009304521
000140 8a cd 34 bd 50 a1 70 be 30 33 c3 3c 92 22 4f 3d
       -0.04414133 -0.23499036 0.023828119 0.05057008
000150 bc 3b 2f be 6b b9 df bc 76 82 24 3d 00 58 7a bd
       -0.1711263 -0.027310094 0.04016348 -0.06111908
000160 c2 f5 cd bd d9 da 78 be ec b3 3c 3d d4 f5 fe 3d
       -0.1005664 -0.24302234 0.046070024 0.12449232
000170 da d6 bf be 06 2b 17 be 71 f8 93 3d ce 72 c4 3d
       -0.37468606 -0.14762506 0.07225121 0.0959221
000180 14 ac 8c ba bf 34 94 be 3e a9 6e 3c 5a 51 00 bc
       -0.0010732436 -0.28946492 0.014566718 -0.007831896
000190 25 72 2f bb ce 24 0c bf 2d b4 30 bd a4 70 c0 3d
       -0.0026770916 -0.5474366 -0.04314058 0.093964845
0001a0 4d c6 6b bd a8 b1 bb be fa 10 4f bd 8b c3 ec bb
       -0.05756216 -0.36658978 -0.0505533 -0.007225459
0001b0 83 be 80 3d 49 1a 37 bf f2 46 b2 3d f9 e9 11 bd
       0.06286337 -0.7152448 0.08704938 -0.035623524
0001c0 50 7f 19 bc 38 97 69 be 92 ec ab 3d 3f 1b eb 3d
       -0.009368733 -0.22811592 0.083947316 0.11479806
0001d0 2f 55 08 3e ca fd 24 bf 9b 4c b2 bc e3 9c 0b 3e
       0.13313745 -0.6444975 -0.021765044 0.13634066
0001e0 65 f5 b2 bd 7a 9e c0 bd 99 7c 1e bd 65 d1 4c 3d
       -0.087382115 -0.09405227 -0.038693044 0.05000438
0001f0 03 2f 16 be e2 20 1f 3e 72 89 ad 3d 9f 5f cc bb
       -0.14666371 0.15539888 0.08473481 -0.006236985
000200 f5 5b bc bd a1 47 2c be a5 41 c5 bd f9 ba a1 3d
       -0.09197227 -0.168242 -0.09631661 0.0789699
000210 71 9f bc bd 78 39 18 3e 4f 82 5e bc 43 86 37 3c
       -0.092100985 0.14865673 -0.013580873 0.011201444
000220 94 7f b9 bc 45 de 04 be f6 6f 2f 3d 4a 1f 33 3d
       -0.022643842 -0.12975414 0.042831384 0.04373101
000230 b4 87 26 ba 07 b0 80 3d 37 9e e3 3c 1b 84 82 3d
       -0.0006352619 0.062835746 0.027785404 0.06372853
000240 d8 51 f2 3b ed 0d 46 3e a7 5b 33 3b 3c db eb 3d
       0.0073950104 0.1934125 0.0027367861 0.11516425
000250 29 3d 71 3c 77 e0 a0 3d cf 41 42 bd c9 47 2c bd
       0.014724054 0.07855313 -0.04742604 -0.042060647
000260 57 67 03 3d 88 9b 94 3d 82 b1 f1 3d 3f 78 65 bd
       0.032080974 0.07256228 0.11801435 -0.05602288
000270 40 39 92 bb f2 3b 04 3e f0 af b0 3d 4e 93 8b 3d
       -0.004462391 0.12913492 0.086273074 0.068152055
000280 8e ab 0e 3b 67 c7 b2 bc 51 ef 99 bd bb 8f 19 3e
       0.0021769735 -0.021823598 -0.07516349 0.14996235
000290 f4 8d 2e bd 48 2b c4 bd 48 e8 ba 3c df 16 69 3d
       -0.042615846 -0.09578568 0.022815838 0.056906577
0002a0 a7 54 31 3b 85 5d b1 3e 3c 6e 46 bd 1a 1b 8d be
       0.0027058513 0.34641662 -0.04844497 -0.2755974
0002b0 16 c1 21 3e 1c 32 fb bd 8d 5a fb bd da 42 a6 be
       0.15796313 -0.12265417 -0.122731306 -0.3247288
0002c0 d3 dd 4b 3c fc 0e 75 3e 56 26 33 3d ee e5 99 bd
       0.012443024 0.23931497 0.043737732 -0.07514559
0002d0 2d 1f df 3c a5 14 33 be 92 84 73 3d 2b 22 4d be
       0.027236545 -0.17488344 0.0594526 -0.20032565
0002e0 18 39 2e bd 57 66 44 3e cd 96 99 bc c7 41 b0 bd
       -0.042534918 0.19179665 -0.018748665 -0.08606296
0002f0 e0 00 c8 bd 65 b8 67 be ac d0 2c be dd 4c a0 bd
       -0.09765792 -0.22628935 -0.16876477 -0.078271605
000300 5e 3d cb bd cd be 65 bd ac 04 d4 3d 31 2a 7d bd
       -0.09923814 -0.056090165 0.103524536 -0.061807815
000310 f7 64 91 bd 65 87 a3 be 6e ad 80 bd 65 d9 0e bc
       -0.07099336 -0.31939235 -0.06283079 -0.008718823
000320 8e 79 d7 bd 6e 4d cd 3d 1c a4 82 3d 11 10 d2 3c
       -0.105212316 0.10024534 0.06378958 0.025642427
000330 46 6a 89 3d 9c 0e 9f be 91 0f 16 bd c3 36 6e 3d
       0.06709723 -0.31065834 -0.03663594 0.058157694
000340 a3 bb 00 3d 30 30 3e 3c 30 cc ba 3d d5 10 c3 bd
       0.031428944 0.0116081685 0.09120977 -0.09524695
000350 40 23 3a bd d6 26 05 be 42 10 95 3d ef 33 42 be
       -0.045443773 -0.13003096 0.072784916 -0.18965124
000360 36 37 96 3a f0 3a c5 3c 01 65 94 3b 7f 84 1a 3d
       0.0011460546 0.024075955 0.004528642 0.037724014
000370 93 25 05 bd 0f c5 4a 3d 15 c9 4e 3d b1 5e d5 bd
       -0.032506537 0.049504336 0.050484736 -0.104184516
000380 28 74 ef bd 0f e1 64 bc f8 40 21 bd d7 e7 b8 bd
       -0.11692077 -0.013969674 -0.0393686 -0.09028595
000390 53 24 d9 bc 29 92 57 3e c6 d1 03 bd bb 8b 35 be
       -0.026506579 0.2105185 -0.032182477 -0.17729084
0003a0 8b 93 39 be d3 4c 78 3d c4 3d 06 be 5c a9 d6 bd
       -0.1812269 0.06062014 -0.13109499 -0.104815215
0003b0 17 64 e9 bb c9 81 b9 3e f7 8f 98 3c 87 41 33 bd
       -0.0071225273 0.3623183 0.018623335 -0.043763664
0003c0 84 e8 cc bd 53 ab da be 5e 5f f2 bc 72 ff a6 3d
       -0.10005286 -0.42708835 -0.02958649 0.08154191
0003d0 1d 88 17 3d 73 54 de 3d 65 a3 c2 bd cc 2f d1 3d
       0.036995042 0.10855951 -0.09503821 0.10214195
0003e0 01 73 5b 3c 67 16 19 be a4 ad cd bd 96 c2 ac 3d
       0.013394118 -0.14949952 -0.10042885 0.08435552
0003f0 06 08 a7 3d 80 cb 39 be 1c b2 da bd 69 93 0c bc
       0.08155827 -0.18144035 -0.10678503 -0.008580067

fc1.bias f4 [128]
000000 08 18 7a be b9 d5 a9 3d bc 2b aa 3b 48 b0 67 be
       -0.2442323 0.082927175 0.005193202 -0.2262584
000010 8b d0 62 bd 0f b1 8f 3d a6 06 18 be 5f 7b 46 be
       -0.055374663 0.07016193 -0.14846286 -0.19383
000020 be 2c cb 3d 9d dc af 3d 84 7d 63 ba 83 36 45 be
       0.09920643 0.085870005 -0.0008678066 -0.19259076
000030 24 4a 2d be 02 cb 34 3e 94 be 3b bd 68 ad ab 3e
       -0.16922814 0.17655566 -0.045836046 0.33530736
000040 01 6c 1c bd 45 31 43 bc b7 21 5f bc 43 96 e3 3c
       -0.038188938 -0.011913602 -0.013618878 0.027781611
000050 3d a2 a9 bd 1d 0e e1 3d b9 c7 04 3e 9a bb 4e bd
       -0.082828976 0.1098902 0.12966813 -0.05047188
000060 23 4f d4 bd d4 8c e9 3d 68 91 a6 bd 57 80 17 3d
       -0.10366657 0.11403814 -0.08133203 0.03698763
000070 e6 26 2c be a2 67 2a 3e 2b 72 65 be 98 7c 28 bc
       -0.16811714 0.16641095 -0.22406833 -0.010283612
000080 cc 96 a0 bd a8 4d ea 3d 0f cc 03 bd b5 99 4c 3e
       -0.07841262 0.11440593 -0.032177027 0.1998051
000090 d1 c0 76 bd 94 c6 b8 bd eb 25 2b bd 96 3e 28 3e
       -0.060242478 -0.09022251 -0.04178421 0.16430125
0000a0 cc 84 7a 3c 7c ec 81 3e 1b 7d 74 be e0 d8 b4 bd
       0.01529045 0.25375736 -0.23875849 -0.08830428
0000b0 ef ed 91 be 32 d7 8a 3e f6 ef 7b 3d b8 44 12 be
       -0.2850184 0.27117306 0.06150814 -0.14284027
0000c0 5e ab be bd 55 73 5a be 63 91 83 3d 5c 8d 24 be
       -0.093100294 -0.21333058 0.06424215 -0.1606955
0000d0 9e f2 7b bc 6d 19 96 3c 13 1f e4 3c 56 3f 43 bd
       -0.015377669 0.01832267 0.027846849 -0.047667824
0000e0 c1 f6 95 3d ce 39 01 3e 62 65 db bc ea 66 8a 3e
       0.07322455 0.12619707 -0.026781742 0.27031642
0000f0 6b 3a 80 3d 3d ba 89 bd 20 4e dd 3b d0 5c b9 3d
       0.06261142 -0.06724975 0.006753698 0.09050906
000100 23 3a a3 3d f0 30 6d bd 3d 2e a0 3d ca ed bf bb
       0.07970073 -0.057908 0.07821319 -0.005857204
000110 38 e1 99 bd 60 35 3c be 33 34 70 bd 90 75 57 bd
       -0.0751366 -0.18379736 -0.05864353 -0.05260235
000120 06 f1 0a 3e 84 f9 0c be 31 b7 1a 3e 2b 9a 80 be
       0.13568506 -0.13767058 0.15108944 -0.2511762
000130 8b c0 ec bd 1b 96 c4 bd 71 c5 8d bd 3e 6f c8 bc
       -0.11560162 -0.09598943 -0.069224246 -0.024467107
000140 48 53 d0 be 03 da b0 3e 84 f6 71 be 0b 10 51 3e
       -0.4068854 0.3454133 -0.23629194 0.20416276
000150 cd 2c bd 3d 4e e9 5e 3e 14 2c a9 3e 2b be 38 3d
       0.09237061 0.21768686 0.3304144 0.045103233
000160 25 09 6c 3d 9d b8 64 3e 72 b4 72 be 8b e1 4f 3e
       0.05762591 0.2233605 -0.23701647 0.20300882
000170 ff 24 00 bd c7 50 ba 3e 73 1d 86 3c df b1 d4 bd
       -0.031285282 0.36389753 0.016371464 -0.10385489
000180 74 4b 0c 3e 47 b3 5b be 0b 3d be 3d 41 e0 52 3e
       0.13700658 -0.21455108 0.09288987 0.20593359
000190 5b fb a0 3e 52 c1 a5 be 79 b3 0e 3e bc b4 2d be
       0.3144177 -0.32374054 0.13935651 -0.16963476
0001a0 70 73 1a 3e a6 0d 17 be a7 e2 f7 bd f1 0c 27 be
       0.15083098 -0.147513 -0.121037774 -0.1631353
0001b0 94 f7 e8 bd 63 58 e0 be e4 a8 4c 3c 0e bb cd bd
       -0.11375347 -0.43817434 0.012491439 -0.100454435
0001c0 1b 76 98 3e f5 9e c8 3d 43 ee 2b 3d 92 2d 9a bd
       0.29777607 0.09795944 0.04197527 -0.07528223
0001d0 e2 c8 14 bd 1c de b8 bd c7 8e b2 be c6 86 81 bd
       -0.03632439 -0.09026739 -0.34874555 -0.06324534
0001e0 0f 65 a9 be eb f5 26 3e 7e 70 24 3d 73 64 8a 3d
       -0.33084914 0.16304748 0.040146343 0.067574404
0001f0 5e 64 b0 3d d2 6d a9 bd d5 10 bf 3c 8c 19 12 bd
       0.086128935 -0.082729 0.023323456 -0.035668895

fc2.weight f4 [64, 128]
000000 c9 89 44 3d 77 25 3b 3c 5f d8 02 be d1 cf b6 3d
       0.047982965 0.0114225065 -0.12777852 0.089263566
000010 6e f5 b0 be 5b bd 50 bd e6 cb 7f bd 75 63 93 3c
       -0.34562248 -0.050961833 -0.062450312 0.01799176
000020 2e d4 38 3e 70 35 0e 3d a3 34 d8 bc eb 58 6e be
       0.1804969 0.03471893 -0.026392287 -0.23276107
000030 96 60 c5 3c c5 52 35 3d a9 7c 5d 3d 3a fa e5 bd
       0.024093907 0.04426839 0.054073963 -0.112293676
000040 7e df 17 3d bf b9 07 3e 0f 6f 98 bd 99 36 ea 3d
       0.037078373 0.1325445 -0.07443058 0.11436195
000050 74 1a 29 bd 53 61 a5 bd e6 cb 1b 3d cf 96 b1 bd
       -0.041284993 -0.08075204 0.03803625 -0.086713426
000060 80 0d e7 bc c4 36 2b 3e f8 03 a0 3d 3b 2d 60 bd
       -0.02820468 0.1672011 0.07813257 -0.054730635
000070 82 a2 34 be a0 33 d6 bb f7 62 de bd 77 1e 25 3d
       -0.17640117 -0.006536916 -0.1085872 0.040312257
000080 3b da bd 3d 1a cf 68 3d 9b 36 1c 3c 4e d0 35 bd
       0.0927014 0.056838132 0.009534503 -0.044388108
000090 53 38 5f 3c 80 4a 14 3e c5 d2 60 3e 83 09 e3 3d
       0.013624269 0.14481544 0.21955402 0.110857986
0000a0 29 87 f0 3d dc e6 e2 3d d3 e3 c2 ba 77 c5 d2 3d
       0.1174453 0.11079189 -0.0014868922 0.1029157
0000b0 06 a1 0b 3e 6d 3d 7e 3c 46 c6 9e bd 2d cb 02 3c
       0.13635644 0.015517575 -0.077526614 0.007983011
0000c0 4c 87 f7 bb dc 25 6a be 55 c4 84 be 1f f3 45 3d
       -0.0075539704 -0.22866005 -0.2593104 0.04832756
0000d0 00 66 ef 3d e1 db 7a 3e 64 4f 14 bd a7 fb 00 be
       0.11689377 0.2449794 -0.036208525 -0.12595998
0000e0 1d 23 ad bd 42 02 bb 3a 0d f5 d6 bd c8 17 e6 3e
       -0.08453963 0.0014267641 -0.104959585 0.4494002
0000f0 c7 2d 2c be c5 77 13 3e 74 ba ed bc 1a 98 c1 bd
       -0.16814338 0.14401157 -0.029019572 -0.09452839
000100 6e 55 22 be 98 d6 ce 3d 9c ca 79 bb e7 2a 76 be
       -0.15852901 0.10099524 -0.003811515 -0.24039803
000110 10 5d 45 3b 59 3f 03 bd 8b 0f 9d 3c 20 d9 13 bd
       0.0030115284 -0.032042835 0.01917245 -0.03609574
000120 af 19 de 3c cf 1f 0a bd ab 28 c6 bd 88 05 91 be
       0.027111856 -0.03372174 -0.096757255 -0.28324533
000130 b7 d0 e1 bd c4 00 e0 3d 92 cc 13 be 8d c7 17 be
       -0.11026137 0.10937646 -0.14433506 -0.14822216
000140 73 4a 98 bd db 8d ce 3c 88 6d bb bd 33 bf b0 3d
       -0.07436075 0.025214126 -0.09151751 0.08630218
000150 f6 d1 25 bc eb 6f a2 bd 89 1f c3 3b 5d d9 cc bc
       -0.010120859 -0.07931503 0.005954687 -0.02500599
000160 f6 70 1f 3d e3 8d c4 b8 de 0b 5d be 95 67 a9 3d
       0.038926087 -9.372437e-05 -0.21586558 0.0827171
000170 19 1e 32 ba fd f0 04 3e f0 9f 19 3e 89 85 c7 3d
       -0.0006794646 0.12982555 0.15002418 0.09742267
000180 8f d8 c0 bc 3a dd 04 be 2a 39 b4 bc b4 cc 07 3e
       -0.023540763 -0.12975016 -0.021999914 0.13261682
000190 07 74 cc 3d 21 eb 64 be d4 04 7e bb ad c2 08 be
       0.09983068 -0.2235532 -0.0038760202 -0.13355513
0001a0 da 4c 70 3d a3 ce 4f bd 62 6a 3d 3d 99 4f a4 bd
       0.05866704 -0.050734174 0.046244033 -0.080229945
0001b0 83 a9 22 bc b5 fb 43 be 6a 62 13 3e ac 20 00 bd
       -0.00992811 -0.19138987 0.1439301 -0.03128116
0001c0 70 67 47 3c c0 5e 9f 3c 40 08 8a bd 3a 6b e4 bd
       0.0121706575 0.01945436 -0.06739855 -0.11153264
0001d0 61 1c 95 3d 6f 44 1a be a9 aa 82 be 6d 43 0c be
       0.072808035 -0.15065168 -0.25520828 -0.13697596
0001e0 89 d9 3d be f6 0a fb 3d 46 b6 10 be 8f 9d 0b bd
       -0.18540014 0.1225795 -0.14132032 -0.034085806
0001f0 30 eb 24 be f0 d9 4d 3e 03 96 e5 bc 1d e4 0b 3e
       -0.16105342 0.20102668 -0.028025633 0.13661237
000200 34 73 65 3d 97 94 e1 bc ce 78 86 bd 78 0a 1c bc
       0.05601807 -0.027536673 -0.065660104 -0.00952398
000210 1d b1 a8 3e 64 d9 86 bd ad f1 45 3d ef 5d 2b 3e
       0.32947627 -0.06584433 0.048326183 0.16735052
000220 15 0b 39 be 3c 5f e5 3d c4 59 a1 3b 3c 7f 64 3e
       -0.18070634 0.11199805 0.004924031 0.22314161
000230 1a 6d 4b 3e 9f 5d e8 bd 81 a6 d0 3d 60 e2 80 bd
       0.19865838 -0.11345982 0.10188008 -0.062931776
000240 2f 50 2b 3e 7b f4 a8 bc 7b 2b 84 3c 87 c4 d5 bd
       0.16729806 -0.02062439 0.016134014 -0.10437875
000250 bc 3f 0c 3d d8 6e 91 3d aa 27 d4 bd 05 93 f4 3d
       0.03424047 0.0710122 -0.10359128 0.11942104
000260 c8 10 46 bd 50 90 55 be df 63 ab bc 46 8f 2a 3e
       -0.048355848 -0.20855832 -0.020921646 0.16656217
000270 e2 fd 89 3d ed 62 bc 3c 12 52 38 3e 73 c3 32 bd
       0.067378774 0.02299639 0.18000057 -0.043643426
000280 e9 07 e6 3d a9 43 5c 3e 18 3b ba 3c d7 86 9c bd
       0.112319775 0.21510185 0.022733256 -0.07642906
000290 2b be 77 bd a8 2b 51 be da 1f a2 be 32 25 82 be
       -0.060484093 -0.2042681 -0.31664926 -0.25419003
0002a0 bb c9 87 bd 78 50 01 be 62 8a 82 bb e1 27 17 be
       -0.06630274 -0.12628353 -0.0039837817 -0.14761306
0002b0 c5 26 f4 bd 3c 62 03 be 5b e8 9d bd d8 55 9c 3d
       -0.11921457 -0.12830442 -0.07710334 0.07633561
0002c0 53 d4 ad 3c 82 f0 47 3c 4a b1 3f 3e bd 3b be 3d
       0.021219408 0.012203338 0.18719974 0.09288738
0002d0 35 49 ae 3d ad e2 09 3d d3 25 f9 bd 2d 9e 93 3d
       0.08510057 0.03366344 -0.121654175 0.07207904
0002e0 75 f6 3e 3d 23 f6 6d bd 82 f1 1d 3e 09 8d ae be
       0.04662176 -0.058096062 0.15424159 -0.34091976
0002f0 69 81 51 3e ba 32 0f be dc ca 05 be 6f 25 79 3d
       0.20459522 -0.13984194 -0.13065666 0.060826715
000300 0a 7e 14 3c e9 4c a6 3d 20 bd bc 3d ef 7e bb 3e
       0.009063253 0.08120138 0.0921576 0.3662028
000310 a5 2d 3b 3c 92 cf 44 bd 78 fa 61 3e f6 6d 67 bd
       0.011424457 -0.048049517 0.22068202 -0.05650135
000320 54 65 ea 3c 81 89 72 3e ee 9b f5 bc b4 a1 1f 3e
       0.02861277 0.23685266 -0.02998158 0.15589029
000330 4f 92 19 3e 59 42 99 3d 2c 47 ff 3d 96 0a c2 3d
       0.14997219 0.07483358 0.12464747 0.09474675
000340 a0 23 4f 3e b7 67 b8 bc 53 d5 67 3e a6 29 09 3e
       0.20228434 -0.022510393 0.2263997 0.13394794
000350 e0 d1 4c bd ab 2d 33 be dd 5b b8 3d 82 a6 0b bd
       -0.05000484 -0.1749789 0.090018965 -0.03409434
000360 37 b7 4e bc e4 8d 77 3c c4 1b 41 3e 88 c3 a6 be
       -0.012616924 0.015109513 0.18858248 -0.32571054
000370 23 13 c6 3c b8 38 5d 3c 5e 5c af 3d 83 dd c5 3d
       0.024179047 0.013502292 0.085625395 0.09661391
000380 5b f6 d6 bd 38 a4 19 3d c4 22 a4 3c 88 3e 92 3d
       -0.10496207 0.037510127 0.020036109 0.07140833
000390 25 94 bf bd f9 ea 4c 3e e5 7a ba 3d 68 a6 50 3e
       -0.09354428 0.2001151 0.091054715 0.20375979
0003a0 04 d5 9e bb ad 32 ad 3d 64 b4 20 3d b8 d4 bb 3d
       -0.004847171 0.08456931 0.039234534 0.09171432
0003b0 de 8c 06 3d 14 9b 4a 3b 64 61 ad 3d 60 0a ad 3c
       0.032849185 0.0030915188 0.084658414 0.021123111
0003c0 61 d7 ce 3c d6 82 04 3e e3 fe aa 3c da c9 bd bc
       0.025249185 0.12940535 0.020873493 -0.02316754
0003d0 ed ff 09 3e 60 19 07 3d fe 0a ce 3c c2 39 d1 3c
       0.13476534 0.032983184 0.025151726 0.025540236
0003e0 58 8b a1 3d 97 ab 43 be 6c 05 45 be 4c 3b dc bc
       0.07887906 -0.19108425 -0.1924035 -0.026883744
0003f0 fe 5e a1 3e 1d 71 d1 bc 7e 45 be 3d 41 50 e7 3d
       0.31517786 -0.025566632 0.09290598 0.11294604

fc2.bias f4 [64]
000000 82 90 b4 3d d8 8a 05 bd d6 11 48 3e 6c ad 90 3c
       0.08816625 -0.032603115 0.19538054 0.017660819
000010 a2 8b fc 3d 04 fe 04 bd ad 9b 26 3e e8 c3 1a bd
       0.1233132 -0.03246881 0.16270323 -0.037784487
000020 7b 28 87 bc c5 1b 85 3c 24 86 83 3d 34 f1 36 be
       -0.016498795 0.016248593 0.0642207 -0.17865449
000030 d1 ee ed 3d df 5a bd bd 72 55 a7 bd 6f aa 59 3d
       0.11617816 -0.09245848 -0.08170594 0.053141054
000040 e8 e9 fd 3d 71 ae d5 bd f6 84 38 be 87 50 21 3e
       0.1239813 -0.10433663 -0.1801947 0.15753375
000050 4d b4 9a 3d df 8e 2d bd 04 cb 27 3e c9 15 0d 3e
       0.07553921 -0.04237258 0.16386038 0.13777842
000060 f8 ea b8 bd 91 62 9c 3d 26 53 15 be 84 2f 2d 3d
       -0.09029192 0.076359876 -0.145825 0.042281643
000070 6e 10 f0 3c 5a 46 af 3d 3d 68 c8 3d 24 a9 4e 3e
       0.02930471 0.0855834 0.09785507 0.2018171
000080 41 51 10 3e 9c a7 1f be 36 d9 26 be c5 ef aa 3d
       0.14093496 -0.15591282 -0.16293797 0.08346514
000090 14 56 77 3c 04 17 c9 bd 38 09 d2 3d 34 cc 63 3d
       0.015096206 -0.09818843 0.102556646 0.055614665
0000a0 f4 dd 46 3e 52 a9 74 bb 5c 7d 40 3e c9 8e 0f 3e
       0.19420606 -0.0037332368 0.18797821 0.14019312
0000b0 4f 30 75 bc d4 09 f1 3c 4b a9 b3 3c da 21 4e 3c
       -0.014965131 0.029423632 0.021931311 0.012581313
0000c0 f8 2c f3 3d 57 ba 13 3e 03 2b 7d bc 48 b8 dc 3d
       0.118738115 0.14426552 -0.015452149 0.10777336
0000d0 67 34 39 3d c1 bb a7 bd fa 27 d1 bd 92 67 14 be
       0.04521599 -0.08190108 -0.10212703 -0.14492634
0000e0 4e dc 2d 3e ac 96 75 bd 10 cd 9c bd b0 81 4c 3d
       0.16978571 -0.059958145 -0.076563 0.049928367
0000f0 bb e3 4b bd 9b 97 1e 3d e4 a0 e5 3d 2c 28 c2 3d
       -0.049777728 0.0387188 0.11212328 0.094803184

fc3.weight f4 [2, 64]
000000 fc ef dd 3d 1c 64 94 bd f3 f5 3f 3d 1e 0d 7f 3c
       0.10836789 -0.07245657 0.046865415 0.015567092
000010 79 41 a7 3e 16 2e bc bc 76 85 86 3d 98 4b 50 be
       0.3266714 -0.022971194 0.065684244 -0.20341337
000020 4f 4e 24 be 72 a7 56 3d 94 6e 63 3e 53 1e 3e be
       -0.16045497 0.052405782 0.22210151 -0.18566255
000030 dd 75 92 3e 75 43 a7 bd 2f ed e3 bd ab 82 b3 3e
       0.28605548 -0.08167163 -0.111292236 0.3506063
000040 ef 70 21 3e da 94 8b bd dc 21 9b be e6 55 ad 3e
       0.15765737 -0.068155006 -0.3029927 0.33854598
000050 64 e2 b0 3d 74 c5 d8 be 40 a0 70 bd 13 cc 9a 3d
       0.086369306 -0.42338145 -0.058746576 0.07558455
000060 78 79 95 3e 94 66 e3 bc 8d 8c 14 bd 34 ea 0c 3e
       0.29194236 -0.027758874 -0.036266852 0.13761216
000070 81 b4 ef 3e b4 08 c1 3d 6a 9c d3 3e fe 11 f8 3b
       0.468174 0.09425488 0.41330272 0.007570504
000080 d7 80 a5 3e a1 40 15 bc 05 38 28 3e 9f 56 74 3e
       0.3232486 -0.009109647 0.1642762 0.23861168
000090 76 54 91 3e 21 03 e4 bc 20 24 7f 3e 67 86 94 3e
       0.2838475 -0.027833523 0.24916124 0.2900879
0000a0 a1 37 be bd c1 4f 19 3e 81 93 b1 3e de a8 d9 3d
       -0.09287954 0.1497183 0.3468285 0.10627912
0000b0 96 94 bd bd 2a a0 5b bd 80 04 ad bd aa 8c 75 3e
       -0.09256856 -0.05361954 -0.08448124 0.2397944
0000c0 b1 d4 cf 3e 33 2d ec 3d 6b 61 61 3e 90 72 57 bd
       0.40591958 0.115320586 0.22009818 -0.05259949
0000d0 8d 55 3d be 1b ee 9b be 19 02 c6 bc 8f 89 69 3d
       -0.18489666 -0.30455098 -0.024170922 0.05701595
0000e0 b8 e1 2a 3e b9 ea 1a bd ac 7e 9f be 14 a5 2c 3e
       0.16687667 -0.037821505 -0.3115133 0.16859847
0000f0 7d 09 c1 3b ed 41 29 3c bb 11 c0 3d f5 f3 73 3d
       0.0058910237 0.010330659 0.09378382 0.059558827
000100 6e 3d 12 bd 5d a6 92 3d 61 fb d0 bc 80 20 d7 be
       -0.035703115 0.071606375 -0.025510492 -0.42016983
000110 1f c3 dd bd d5 87 60 3c 9a e1 82 3c 1a 20 0f bb
       -0.10828232 0.01370426 0.015976716 -0.0021839202
000120 8f d9 cc 3e af 53 4a 3e 6d 28 8e bd ea 57 1e 3c
       0.40009734 0.19758485 -0.06941304 0.009664515
000130 46 ac 95 be aa 44 62 3d 91 05 63 3d 2f 3a 09 bf
       -0.29232997 0.055241264 0.05542523 -0.53604406
000140 00 99 0f be f2 64 b8 3d c7 53 9c 3c da d2 7f 3e
       -0.14023209 0.09003629 0.019082917 0.24982777
000150 68 b1 96 39 e5 e4 32 3a e1 ee c9 be 74 4b c8 be
       0.00028742407 0.0006824269 -0.39440063 -0.39120066
000160 46 52 b5 3e 71 a9 79 be 24 af b6 3d 39 de ee be
       0.35414332 -0.24381043 0.08920124 -0.46653917
000170 c4 d7 ac 3d 67 76 0d be 9c 4a 96 3e e1 aa f9 be
       0.084395915 -0.13814698 0.29353797 -0.48763183
000180 aa c7 bb 3c 6e b0 02 3e f1 88 86 3e c2 3f 51 be
       0.022922356 0.12762615 0.26276353 -0.20434478
000190 5e dd 28 ba cd 60 29 3e 49 25 89 3c b8 d4 a3 be
       -0.00064416777 0.16540833 0.016741412 -0.3199823
0001a0 bb 4c c7 be 29 f0 00 3f 04 b2 01 be 6a b6 0d be
       -0.38925728 0.50366455 -0.12665564 -0.13839117
0001b0 38 b1 97 3d 5a dd 98 3d ce 4f 48 3d 09 45 43 3e
       0.07406849 0.074640945 0.048904233 0.19069304
0001c0 4c 5a 86 be 42 f7 ea bd cf c4 aa be 56 2e 02 bf
       -0.26240766 -0.11472942 -0.33353278 -0.50851953
0001d0 7d 41 1d 3c 37 73 bf 3d af b2 24 3d 49 87 c4 3e
       0.009598133 0.09348147 0.04020947 0.38384464
0001e0 55 75 38 be 22 46 75 3e b0 12 a0 be 33 c3 b7 3c
       -0.18013509 0.23952535 -0.31264257 0.022431945
0001f0 92 f0 ea 3d 81 17 9c be 74 bd 2b 3e 5d 33 e1 be
       0.114716664 -0.30486682 0.1677149 -0.439845

fc3.bias f4 [2]
000000 2d 22 27 bd 37 67 82 bd
       -0.040804077 -0.06367343
