checkpoint_actor_target0.pth (torch_old, 47280 bytes, 6 tensors)

fc1.weight f4 [128, 24]
000000 76 f4 cb bb e4 40 82 3c 40 71 11 bd e4 1e 80 bb
       -0.0062242104 0.015900083 -0.035508394 -0.0039099324
000010 e2 28 ab 3d e8 c7 83 bd c9 b8 06 bd 34 1d 88 bc
       0.08357407 -0.064346135 -0.03289107 -0.016615488
000020 fd 79 20 3c 24 c3 9d bd 56 76 07 3e 61 2a b4 3d
       0.009794709 -0.07703236 0.13228735 0.08797146
000030 13 c2 77 3e 80 04 67 3c 36 83 be 3d 0f 2e 35 3d
       0.24195127 0.014100194 0.0930237 0.044233378
000040 15 c9 f3 3d b1 4f 8b 3d 3a ac ad bc d0 c0 4c 3e
       0.11903588 0.06802309 -0.021200288 0.19995427
000050 3e 02 89 3e 93 b4 a6 bd ea fb f4 3c 8e 4b 9d 3e
       0.26759523 -0.081399105 0.029905278 0.30721706
000060 28 7e 9f bc ad 60 04 3e 6c 21 74 3d 79 bc 84 3d
       -0.019469336 0.12927504 0.059602186 0.06481261
000070 66 09 79 bd de 63 85 bd bc 18 55 bc 3b 05 18 3e
       -0.06079998 -0.06513189 -0.013006385 0.14845745
000080 02 28 96 bb ae fe 6f 3e 13 df 8c 3d 05 f9 28 3e
       -0.004582406 0.23436996 0.068784855 0.16501243
000090 bf 0a c5 3b 8f 86 ee bd 19 8b 9b bc 3f 27 20 3e
       0.006013244 -0.11646759 -0.018987225 0.15639971
0000a0 b6 8a b6 bd 4e c2 98 3e 04 f1 eb 3c 67 f2 81 bc
       -0.08913176 0.29835743 0.028801449 -0.015862657
0000b0 02 74 d4 3c 07 74 9f bc e0 18 f4 3b 58 6f e1 bd
       0.025934223 -0.019464506 0.0074492544 -0.11007565
0000c0 72 45 0f 3e 25 99 ee be cf 48 c0 3d 41 76 a8 be
       0.13991335 -0.46601215 0.09388887 -0.3290272
0000d0 4f fd 17 be 8d 8e 26 be b8 5d cb 3d 42 ed 8d be
       -0.14842723 -0.16265316 0.09929985 -0.27720076
0000e0 05 87 4f 3d 62 4d e9 be 5d 07 56 bd 40 cc 90 bd
       0.050665874 -0.4556685 -0.052253116 -0.070702076
0000f0 85 6d ce 3d 50 3c a3 bd 92 32 e5 bc ef dd af bd
       0.10079483 -0.07970488 -0.027978215 -0.08587252
000100 cd 0b 0e 3e ea 24 97 be 5c 57 be bc 79 29 12 be
       0.13871689 -0.2952035 -0.023235016 -0.14273633
000110 97 b1 35 3e 70 2e de bd 5a 09 46 3d cb 2d 0a be
       0.17743526 -0.10848701 0.048348762 -0.13494031
000120 5c 05 ba 3d b8 8b d3 bc 1f fd 0d be e0 b1 a0 bc
       0.090830535 -0.025823459 -0.1386609 -0.019616067
000130 72 87 df 3d e6 f2 4c bc 24 38 86 3c 98 7b b6 bb
       0.10914506 -0.012509083 0.016384192 -0.0055689327
000140 ac aa 3a bd 2b fc 71 be 68 7c df 3c fd 13 5e 3d
       -0.04557292 -0.2363135 0.027281001 0.05421828
000150 01 ee 2e be 35 14 d6 bc 48 a7 32 3d 14 68 6b bd
       -0.17082979 -0.026132682 0.043616563 -0.057472304
000160 e6 0c cf bd 05 78 79 be 95 0f 42 3d 61 4d f7 3d
       -0.10109882 -0.2436219 0.04737814 0.12075306
000170 63 f4 bd be 4c 5c 16 be 68 a6 96 3d 2b ca bc 3d
       -0.37100515 -0.14683646 0.07355958 0.09218248
000180 55 40 d9 ba 0f 31 93 be 8c b7 39 3c 43 cd 36 bc
       -0.0016574959 -0.28748366 0.011335265 -0.011157337
000190 50 2e 86 b9 f4 4e 0c bf 59 f1 3d bd d5 a1 b9 3d
       -0.00025592977 -0.5480797 -0.046372745 0.0906407
0001a0 e5 9b 70 bd fd 8b ba be 65 db 58 bd 7b 77 d2 bb
       -0.058742423 -0.36434928 -0.052943606 -0.0064229346
0001b0 ed 3b 84 3d d5 1b 37 bf b4 62 ad 3d e0 a0 0e bd
       0.064567424 -0.71526843 0.08466092 -0.03482139
0001c0 a4 f1 2d bc 21 10 6a be fd be ac 3d 58 9d d9 3d
       -0.010616694 -0.22857715 0.084348656 0.10625714
0001d0 76 19 0a 3e a7 b1 25 bf db 05 af bc ff dd 02 3e
       0.13486275 -0.647242 -0.021365097 0.12779997
0001e0 ce 23 b1 bd 44 de c2 bd 0f 82 1b bd 73 a5 58 3d
       -0.08649407 -0.0951505 -0.03796583 0.05289216
0001f0 6c ba 16 be d2 b3 1d 3e 87 07 af 3d c7 8a 5b bb
       -0.14719552 0.15400627 0.085463576 -0.0033499466
000200 a2 c0 bb bd 35 73 2c be d2 5d ca bd b9 1f ae 3d
       -0.09167601 -0.16840823 -0.09881176 0.08502144
000210 6d f1 c1 bd 89 8f 19 3e 7d af 83 bc 46 54 8d 3c
       -0.094698764 0.1499616 -0.01607489 0.017252099
000220 bb 73 c0 bc 96 ae 05 be 76 32 25 3d d1 39 3e 3d
       -0.023492685 -0.1305488 0.040331326 0.046441857
000230 00 c4 b2 bb 2e 14 8c 3d b5 22 cf 3c 7b 11 88 3d
       -0.005455494 0.068397865 0.025285104 0.06643959
000240 bc 68 06 3c 51 52 4a 3e 55 f7 ae 3b 14 98 ed 3d
       0.008203682 0.19757964 0.005339543 0.11601272
000250 35 37 39 3c bd 48 a9 3d 4a 99 37 bd 0e d0 28 bd
       0.011304666 0.08265827 -0.044823922 -0.04121404
000260 8f 3f 04 3d c0 5a 9e 3d 97 0b f3 3d d7 2f 5f bd
       0.032287177 0.07732153 0.11867445 -0.054488983
000270 64 2c 11 bc 1d 7f 09 3e ca 09 b2 3d 61 b8 8e 3d
       -0.008860681 0.13427396 0.08693273 0.06968761
000280 c4 eb c1 3a df 95 89 bc 5d 65 99 bd c4 a6 1a 3e
       0.0014794995 -0.016795097 -0.07490037 0.15102679
000290 74 20 43 bd db b2 b7 bd cc 12 bd 3c 86 71 6d 3d
       -0.04763837 -0.08969661 0.023080252 0.057969593
0002a0 dd 39 0e bb 25 91 b0 3e 37 65 49 bd 7f 6d 8f be
       -0.002170197 0.34485736 -0.04916879 -0.28013226
0002b0 e3 a6 1b 3e a4 5c f0 bd 85 d6 fc bd 6c 95 a8 be
       0.15200381 -0.1173642 -0.12345604 -0.329265
0002c0 65 66 dd 3b fb e8 6f 3e 95 df 29 3d b5 c6 a6 bd
       0.006756591 0.23428719 0.04147299 -0.08143369
0002d0 26 fb bb 3c e7 a0 2b be 18 3e 6a 3d 00 93 53 be
       0.022946905 -0.16760598 0.057188123 -0.20661545
0002e0 21 71 45 bd 6f bb 3d 3e 20 dd ab bc 47 ca b0 bd
       -0.04820359 0.18528531 -0.020979464 -0.08632331
0002f0 2d 89 cd bd 62 47 61 be f7 19 2f be 4b d5 a0 bd
       -0.1003593 -0.21999887 -0.17099749 -0.078531824
000300 3a 5f c7 bd a6 2d 7e bd 3a 62 d6 3d 49 77 87 bd
       -0.0973496 -0.062055252 0.10467954 -0.06614549
000310 72 e1 88 bd 79 c8 a4 be f8 a1 7c bd b0 e8 55 bc
       -0.06683625 -0.32184198 -0.061677903 -0.013055965
000320 b9 46 d3 bd d0 08 bf 3d dd 25 81 3d 6e 64 df 3c
       -0.10316224 0.09327853 0.0630605 0.027269568
000330 ab 8b 92 3d a7 c5 9f be a5 0d 19 bd 6a e1 74 3d
       0.07155546 -0.31205484 -0.037366528 0.059785284
000340 6b be 0c 3d 81 4b c9 3b b2 5f bc 3d b7 75 bc bd
       0.034361284 0.006143034 0.0919794 -0.0920214
000350 15 1d 2d bd 6b a0 05 be aa a3 96 3d a8 e6 3e be
       -0.042264063 -0.13049476 0.07355435 -0.18642676
000360 31 97 be 39 97 53 c7 3c 06 87 0b 3b 8e 68 2c 3d
       0.0003635227 0.02433185 0.0021290197 0.0420919
000370 63 2c fe bc 3c 79 44 3d 82 f5 44 3d 96 6d cc bd
       -0.031027025 0.04796718 0.048085697 -0.09981839
000380 17 1b f2 bd 68 f5 4d bc 85 b1 22 bd e6 86 ae bd
       -0.11821573 -0.012570716 -0.039720077 -0.085218236
000390 d7 f9 d6 bc 89 4d 57 3e 31 42 05 bd 93 5b 30 be
       -0.02624218 0.21025671 -0.03253383 -0.17222433
0003a0 cd 1f 3a be aa 76 85 3d 5f 06 08 be d8 23 d0 bd
       -0.18176194 0.06516774 -0.1328368 -0.10163087
0003b0 a6 4c f8 bb b8 e5 b8 3e 1d 4f 8a 3c 93 35 26 bd
       -0.0075774966 0.36112761 0.016883427 -0.040578436
0003c0 78 92 cf bd 51 b7 d7 be 44 97 f2 bc f6 91 a5 3d
       -0.101353586 -0.42132047 -0.029613145 0.080844805
0003d0 26 65 0a 3d df 16 e5 3d d3 b1 c2 bd 69 c2 cf 3d
       0.03378787 0.11186003 -0.095065735 0.10144503
0003e0 37 ad 46 3c ee 11 13 be da e0 d2 bd 77 96 aa 3d
       0.012126259 -0.14362308 -0.10296793 0.0832948
0003f0 53 f3 a2 3d 27 0d 37 be 62 e5 df bd 76 f9 1d bc
       0.07956567 -0.17876111 -0.10932423 -0.009641996

fc1.bias f4 [128]
000000 b2 82 7b be 1f b7 aa 3d 1e 1e 13 3c 96 18 66 be
       -0.24561575 0.08335709 0.0089793485 -0.22470316
000010 28 e7 5c bd a6 e1 90 3d 69 a5 14 be 1b 30 42 be
       -0.053931385 0.07074289 -0.14516224 -0.18963663
000020 95 39 c8 3d 0d 58 ae 3d 82 51 01 39 29 b7 44 be
       0.09776608 0.08512888 0.00012332763 -0.19210495
000030 7b 1c 32 be f6 02 34 3e 54 34 35 bd 98 f8 ab 3e
       -0.17393677 0.17579255 -0.044239357 0.335881
000040 c2 5d 21 bd 1d 1b 2b bc de d0 4d bc cc a0 f0 3c
       -0.039396055 -0.010443476 -0.012562005 0.029373549
000050 62 07 a9 bd 0b 90 e3 3d 2c a7 03 3e a8 05 4e bd
       -0.08253361 0.111114584 0.1285674 -0.050298363
000060 b9 dc d3 bd bf c0 e3 3d 8c f3 a7 bd 90 eb 04 3d
       -0.10344834 0.11120748 -0.0820075 0.032451212
000070 2b 96 2d be ef b8 27 3e 59 cb 69 be 5d 5d 23 bc
       -0.16951816 0.1637914 -0.22831477 -0.00997099
000080 b2 81 94 bd 4e 51 e0 3d ce 97 00 bd 56 25 4d 3e
       -0.072513 0.10953008 -0.031394772 0.20033774
000090 4f b1 76 bd 96 b6 b9 bd 9d 16 35 bd f3 bf 2a 3e
       -0.06022769 -0.09068029 -0.04421102 0.16674785
0000a0 3e 0b 87 3c ef 84 82 3e 96 0a 77 be 58 ac b0 bd
       0.016484853 0.25492045 -0.24125132 -0.08626622
0000b0 31 ed 90 be ee 11 88 3e 16 0d 67 3d 08 21 14 be
       -0.28305963 0.2657618 0.056408964 -0.14465725
0000c0 f2 20 b6 bd f7 26 54 be 1b 0a 68 3d c7 f9 1e be
       -0.088930026 -0.20717989 0.056650262 -0.1552497
0000d0 65 b5 91 bc 10 74 a2 3c 3f 66 e5 3c 63 7c 48 bd
       -0.017786691 0.019830734 0.028002856 -0.04894675
0000e0 65 f8 98 3d 37 1f 00 3e 57 3d df bc 2a 7c 8b 3e
       0.074692525 0.12511908 -0.027250929 0.27243167
0000f0 2b 40 75 3d af 3f 86 bd 52 ca 0a 3c 6b 37 bd 3d
       0.05987565 -0.065551154 0.0084710885 0.09239086
000100 82 6e a0 3d e5 49 61 bd 19 72 9b 3d 82 4a f5 bb
       0.07833578 -0.055002112 0.07590122 -0.0074856887
000110 f2 61 99 bd 34 0f 3d be be b4 7c bd 3b 4d 5f bd
       -0.07489385 -0.18462831 -0.061695807 -0.054517012
000120 e9 61 0d 3e 45 6d 0c be 7e 37 14 3e b6 30 7b be
       0.13806881 -0.13713558 0.14474294 -0.245303
000130 49 9b ec bd ad b6 c1 bd ad 64 86 bd 50 6b dd bc
       -0.11553056 -0.09458671 -0.06562171 -0.02702871
000140 96 5d d0 be ea 1d b1 3e 88 33 73 be 07 22 51 3e
       -0.406964 0.34593135 -0.23750126 0.20423137
000150 f1 2a bd 3d 31 3a 5f 3e 4b 88 a8 3e f3 12 2e 3d
       0.09236706 0.21799542 0.32916483 0.04249854
000160 31 6b 64 3d 7f c7 64 3e 7f ed 71 be 86 f5 55 3e
       0.05576629 0.22341727 -0.23625754 0.20894441
000170 8a bf d2 bc 32 94 b7 3e bc b5 49 3c fe 6e d3 bd
       -0.025726099 0.35855252 0.012311395 -0.103239045
000180 d4 d1 09 3e ff ad 5b be b1 51 bd 3d 13 8b 52 3e
       0.1345895 -0.21453093 0.09244097 0.20560865
000190 aa de 9f 3e 50 f3 a5 be 40 cd 0c 3e 34 ad 2d be
       0.31224567 -0.32412195 0.13750172 -0.16960603
0001a0 18 e6 1d 3e 79 14 14 be f2 07 ef bd 14 39 21 be
       0.15419805 -0.14460935 -0.11671437 -0.1574443
0001b0 4e b2 eb bd 96 3f e0 be fa f7 4c 3c 76 df c8 bd
       -0.11508618 -0.43798512 0.012510294 -0.09808247
0001c0 cf 2a 98 3e 02 f4 c7 3d a3 7f 2e 3d 17 1c 90 bd
       0.2972016 0.09763338 0.042602193 -0.07036608
0001d0 d1 c8 0d bd e9 84 bd bd f2 6c b5 be be e7 83 bd
       -0.03461534 -0.09253866 -0.3543468 -0.06440686
0001e0 70 e4 aa be 1f 0f 27 3e 33 b8 2e 3d 8f 5d 83 3d
       -0.3337741 0.16314362 0.042656135 0.06414329
0001f0 69 63 ad 3d a5 89 a8 bd 1c 88 b7 3c 25 1e 15 bd
       0.084662266 -0.082293786 0.02240377 -0.0364057

fc2.weight f4 [64, 128]
000000 85 c2 57 3d 8b cc 89 3c 09 91 fb bd 73 1c c4 3d
       0.052675743 0.016821167 -0.12283523 0.09575739
000010 71 e1 b1 be 7f aa 46 bd e4 28 6e bd c3 0a 38 3c
       -0.3474231 -0.04850244 -0.058144465 0.011233035
000020 7a 2f 3a 3e 2d 26 15 3d 82 fc e7 bc 8e 19 6f be
       0.18182173 0.03641336 -0.028318647 -0.23349592
000030 50 1e c8 3c 0f 24 36 3d 2b ec 7c 3d 1d 9d e3 bd
       0.024428517 0.044467982 0.061748665 -0.11113951
000040 3a e0 2c 3d c2 a6 0a 3e 76 81 88 bd 23 48 ee 3d
       0.042206027 0.13540176 -0.06665318 0.11634853
000050 61 bc 1e bd e1 6c 9c bd fb 5d 13 3d 5f 14 a1 bd
       -0.03875387 -0.076379545 0.0359783 -0.078652136
000060 a3 1f e1 bc 46 d7 28 3e 01 6e 97 3d cd cd 53 bd
       -0.027480906 0.1648837 0.073940285 -0.05170994
000070 ec fa 2b be 00 17 1f bb 56 ff f0 bd f1 49 1f 3d
       -0.16794938 -0.0024275184 -0.117674515 0.038888875
000080 88 fa cb 3d 37 be 75 3d 1d bf 54 3c a0 e0 35 bd
       0.099598944 0.059995856 0.012985018 -0.044403672
000090 f8 31 a2 3c af 41 11 3e 4d bf 63 3e 8a 3d f6 3d
       0.019799218 0.14185213 0.22240944 0.120234564
0000a0 c6 5f f5 3d ed 0c e6 3d 69 b3 fc 3a af ae da 3d
       0.11981158 0.11232934 0.0019279543 0.106778495
0000b0 de f2 0e 3e 62 6d 81 3c c3 90 98 bd 6a 6b 54 3c
       0.13959834 0.015799228 -0.07449486 0.012965063
0000c0 10 41 62 ba 82 a0 74 be 6d e8 84 be 09 0f 50 3d
       -0.0008630911 -0.23889354 -0.25958577 0.05079559
0000d0 24 96 ec 3d b9 41 79 3e 71 0d 09 bd f1 f1 fa bd
       0.115520746 0.24341477 -0.033460084 -0.12253178
0000e0 66 57 a3 bd a0 88 d5 3b ab bf da bd 71 b6 e8 3e
       -0.07975654 0.006516531 -0.10681089 0.45451692
0000f0 f3 db 2c be bf e0 13 3e 7c ab ba bc 2f c6 c4 bd
       -0.16880779 0.14441203 -0.022786848 -0.09608113
000100 04 29 1e be f4 4b d9 3d e4 f9 eb ba e0 4d 6f be
       -0.15445334 0.1061019 -0.001800355 -0.2336955
000110 6d 33 8c 3b a1 b0 f2 bc 86 be cd 3c b4 d7 f5 bc
       0.0042785914 -0.029625239 0.025115263 -0.030010082
000120 db 55 05 3d e8 81 e2 bc e9 77 c1 bd a5 57 8d be
       0.03255258 -0.027649835 -0.09446699 -0.2760593
000130 f9 6f e7 bd 13 5b df 3d 55 97 13 be 27 66 15 be
       -0.11300654 0.10906043 -0.14413197 -0.1458975
000140 9a 1d 8e bd d7 6b cc 3c d9 48 b3 bd 4e 79 b8 3d
       -0.0693924 0.024953766 -0.08754129 0.09007512
000150 f9 71 7e bb 65 77 9a bd 26 a7 2e 3c 0f d7 a2 bc
       -0.0038825257 -0.07542304 0.0106599685 -0.019877939
000160 5e 12 39 3d e5 b5 8c 3a 59 a6 60 be c5 1c b2 3d
       0.045183532 0.0010735361 -0.21938457 0.086968936
000170 6b 4c 3d 3b 3a 21 07 3e ec 0b 19 3e 3d 9d c5 3d
       0.002888466 0.13196269 0.14945954 0.096491314
000180 3e 92 7b bc b7 c5 02 be b3 5e 90 bc ce 89 0d 3e
       -0.015354691 -0.12770735 -0.017623281 0.138221
000190 00 c6 d4 3d de c2 66 be c4 9a 58 39 35 b9 07 be
       0.10389328 -0.22535273 0.0002065702 -0.13254245
0001a0 88 7d 84 3d 63 bf 56 bd ca 7e 45 3d a8 1b 9b bd
       0.06469256 -0.052428614 0.04821662 -0.075736344
0001b0 fb 6f 4d bc 53 0e 4a be a8 00 17 3e 10 9b dd bc
       -0.012538905 -0.19732027 0.14746344 -0.027051479
0001c0 22 92 38 3c 2f a3 d8 3c e2 ba 78 bd dd 1d d7 bd
       0.0112653095 0.026445 -0.0607251 -0.10503743
0001d0 ab 2e 95 3d c3 9e 16 be 4a 0b 73 be 81 27 01 be
       0.07284292 -0.14709 -0.23734775 -0.12612726
0001e0 5d 90 3a be 4e 53 00 3e 47 41 08 be f8 06 04 bd
       -0.18219133 0.12531778 -0.13306151 -0.03223321
0001f0 91 aa 26 be be fd 4b 3e c5 26 d7 bc 56 94 10 3e
       -0.16276003 0.19921014 -0.026263604 0.14119086
000200 bf ba 62 3d 36 ef e0 bc 7b b3 85 bd 08 89 1f bc
       0.055353876 -0.027457815 -0.06528374 -0.009737261
000210 50 83 aa 3e a4 51 85 bd 5f 49 4c 3d b5 d2 30 3e
       0.33303308 -0.06509712 0.04987466 0.17267878
000220 1a ff 36 be de c6 e2 3d f3 61 dd 3b 80 a6 64 3e
       -0.17870751 0.11073087 0.006756061 0.2232914
000230 38 a5 4a 3e b7 ce e7 bd 99 de ce 3d 1f 3f 82 bd
       0.19789588 -0.113187246 0.10101051 -0.06359696
000240 4c eb 2c 3e 55 96 a6 bc 23 78 82 3c 75 a3 d4 bd
       0.16886634 -0.020335356 0.015926426 -0.103827395
000250 c1 84 10 3d 41 59 90 3d 63 f4 cf bd 82 e0 f7 3d
       0.035282854 0.07048274 -0.10154035 0.12103368
000260 73 f2 42 bd 6b 02 53 be de 63 9d bc 95 af 26 3e
       -0.0475945 -0.20606391 -0.01921266 0.16277917
000270 92 38 8e 3d 0a 68 b0 3c 31 ec 3b 3e 53 fd 32 bd
       0.06944384 0.021533985 0.18351819 -0.04369862
000280 db 7b e3 3d 93 ef 5c 3e 95 5b cf 3c e1 80 9c bd
       0.11107608 0.21575765 0.025312224 -0.07641769
000290 ee 17 76 bd d7 de 4b be 50 61 a2 be 76 0f 84 be
       -0.060081415 -0.19909225 -0.3171487 -0.25793046
0002a0 5d 05 89 bd fd 09 03 be 3a e7 80 bb 2b 9d 18 be
       -0.06690476 -0.12796779 -0.0039338144 -0.14903705
0002b0 88 c3 fc bd c7 13 03 be e8 dd 9e bd bc d7 99 3d
       -0.12341982 -0.12800513 -0.07757169 0.07511851
0002c0 e8 ea 9c 3c e5 d2 86 3c 59 ca 3f 3e 5f 2d bf 3d
       0.01915498 0.016457984 0.18729533 0.09334826
0002d0 92 17 b0 3d 74 61 0d 3d c3 f0 f6 bd 7d 3d 95 3d
       0.08598246 0.034516767 -0.120576404 0.072871186
0002e0 bf ca 39 3d 3e 48 6b bd b6 31 1e 3e 19 bf af be
       0.04535937 -0.057441942 0.1544865 -0.34325483
0002f0 3b bb 51 3e 00 e5 0f be 1f b5 05 be 6f ae 76 3d
       0.20481579 -0.140522 -0.13057373 0.060224947
000300 69 11 23 3c a0 e0 a3 3d 2b 36 b8 3d 45 47 b9 3e
       0.009952881 0.08001828 0.08994707 0.36187187
000310 bb f9 4f 3c 35 1b 4d bd 31 41 60 3e e2 17 7c bd
       0.012693818 -0.050074775 0.21899869 -0.061546214
000320 b9 06 eb 3c 31 96 71 3e 35 be f0 bc 1f 91 1f 3e
       0.028689729 0.2359245 -0.029387573 0.15582703
000330 53 57 1c 3e 23 8a 9b 3d 2b d3 01 3e 07 30 bc 3d
       0.15267687 0.07594707 0.1267821 0.09188848
000340 20 20 4f 3e 75 a5 c1 bc b0 e6 66 3e 0d a3 06 3e
       0.20227098 -0.023638466 0.22548938 0.13148136
000350 4b 36 52 bd e5 cd 31 be 57 df b4 3d e2 e7 0c bd
       -0.05132131 -0.17363699 0.08831661 -0.03440083
000360 d9 dc 7e bc e0 71 41 3c a4 9b 42 3e 74 ff a7 be
       -0.015555584 0.011806935 0.19004685 -0.32812083
000370 fc 8e be 3c de 2c 65 3c ca 45 b2 3d 4c 8c c5 3d
       0.02326154 0.013987748 0.087047175 0.096459
000380 9e aa d9 bd 4f d5 20 3d 59 86 ab 3c e9 35 91 3d
       -0.10628246 0.039265927 0.020938085 0.07090361
000390 fe 67 bd bd f7 b7 4d 3e 75 9e bb 3d 7f 5c 51 3e
       -0.092483506 0.20089708 0.09161083 0.2044544
0003a0 85 8e c6 bb fb 29 ad 3d 5b 7b 1f 3d 1c 59 bb 3d
       -0.00605947 0.08455273 0.038936 0.09147856
0003b0 24 c8 08 3d 07 a2 f4 3b 85 08 ae 3d bf c4 b9 3c
       0.033393994 0.007465604 0.08497719 0.022676824
0003c0 53 ed d3 3c 87 1a 03 3e b9 42 aa 3c ec 6a b6 bc
       0.025870001 0.12803088 0.020783769 -0.022267781
0003d0 b5 ae 07 3e f7 a2 0a 3d 42 6c d0 3c 34 08 d3 3c
       0.13250239 0.03384682 0.025442246 0.025760747
0003e0 ca 31 a5 3d 56 48 42 be a3 01 45 be 98 70 d9 bc
       0.08066137 -0.18972906 -0.19238906 -0.026542947
0003f0 9f 6d a1 3e dc 60 dd bc 4b 92 bd 3d 7e 65 e4 3d
       0.31528947 -0.027023725 0.09256419 0.111521706

fc2.bias f4 [64]
000000 51 d3 bf 3d b4 e3 0b bd 6b b4 49 3e 5a 05 8a 3c
       0.09366477 -0.0341527 0.1969773 0.016848255
000010 82 e9 fc 3d 9f 7b 0a bd 75 b8 28 3e 78 39 20 bd
       0.123492256 -0.0338093 0.16476615 -0.039117306
000020 fe 05 8a bc 5f c2 ac 3c 37 b7 81 3d 57 e1 3a be
       -0.01684856 0.021088777 0.063337736 -0.18250023
000030 b5 39 f1 3d a6 1d c1 bd f8 2d a2 bd e1 e9 58 3d
       0.11778585 -0.09429483 -0.07918924 0.05295742
000040 cb 41 f6 3d 93 c0 d3 bd 3c bb 37 be 6f 0e 23 3e
       0.12024268 -0.10339465 -0.17942518 0.15923475
000050 50 c1 9e 3d 5f 95 31 bd 9b be 26 3e 08 f3 0b 3e
       0.07751715 -0.043355342 0.16283648 0.13666928
000060 27 ae bc bd 1b f1 9d 3d db e4 11 be cd b4 28 3d
       -0.092129044 0.07712003 -0.14247458 0.04118805
000070 b3 83 07 3d 5f c3 af 3d 07 50 c4 3d 01 3e 4c 3e
       0.033084583 0.08582186 0.095855765 0.19945528
000080 4e 4d 14 3e 38 61 1e be 82 43 23 be a0 13 af 3d
       0.14482614 -0.15466774 -0.15943721 0.08548665
000090 90 2e 7f 3c ff 8e cc bd 4c 16 d4 3d 25 1d 64 3d
       0.015575066 -0.09988212 0.10355815 0.055691857
0000a0 be e1 43 3e af e0 c6 bb 50 d0 3f 3e de be 0f 3e
       0.19129083 -0.006069265 0.18731809 0.14037654
0000b0 1d 96 89 bc 73 24 e4 3c a3 b0 a4 3c 9c 6f 05 3c
       -0.016795212 0.027849412 0.020103758 0.0081442855
0000c0 ae 09 f1 3d 0d 61 14 3e 42 61 7c bc 05 5b e2 3d
       0.117694244 0.14490147 -0.015404047 0.11052517
0000d0 15 4a 30 3d e9 7d a9 bd 21 00 d4 bd 14 b1 10 be
       0.0430394 -0.082759686 -0.10351587 -0.1413005
0000e0 76 2e 2b 3e d0 ff 77 bd d4 f1 99 bd 82 78 56 3d
       0.16716942 -0.060546696 -0.07516828 0.05236102
0000f0 65 68 41 bd ec 07 12 3d 32 ac ef 3d 96 00 c8 3d
       -0.0472187 0.035652086 0.117027655 0.09765737

fc3.weight f4 [2, 64]
000000 9d 93 e2 3d d6 74 99 bd 7c fc 3e 3d c3 30 8a 3c
       0.11063311 -0.07492988 0.046627507 0.016868955
000010 9b de a5 3e 25 f8 d8 bc 8a 4d 8e 3d 2e 82 4f be
       0.32396397 -0.026485512 0.06948383 -0.20264503
000020 4f 4a 24 be 25 cb 59 3d 8c 96 61 3e b6 a2 38 be
       -0.16043971 0.05317225 0.22030085 -0.1803082
000030 21 8b 90 3e 51 f7 aa bd f7 bf e4 bd cc 89 b2 3e
       0.28231147 -0.08347953 -0.11169427 0.34870756
000040 2a 32 1d 3e 2f f6 8b bd 1c e6 99 be 85 c7 a8 3e
       0.15351167 -0.06834065 -0.30058372 0.3296472
000050 c6 58 b4 3d 9c ac d7 be 8d fc 71 bd c0 a3 99 3d
       0.08805995 -0.42123878 -0.05907874 0.07501936
000060 f6 e6 93 3e 47 18 dd bc 11 01 19 bd 67 67 0f 3e
       0.28887147 -0.026989115 -0.037354533 0.14004289
000070 65 d4 ea 3e df a9 c7 3d ff fe d3 3e 34 39 02 3c
       0.4586517 0.09749197 0.41405484 0.007948209
000080 8b 99 a3 3e 5e 0d 2b bc ed 4f 29 3e 37 22 73 3e
       0.3195308 -0.010440199 0.16534396 0.2374352
000090 61 90 8f 3e 89 3c ee bc 80 f6 81 3e 7c 1b 91 3e
       0.2803984 -0.0290816 0.25383377 0.2834128
0000a0 bd 7c b6 bd 11 e9 18 3e 67 52 b0 3e d4 36 e0 3d
       -0.08910511 0.14932658 0.34437868 0.10947958
0000b0 6f 08 c1 bd 5a b3 65 bd 16 61 b0 bd 5e f2 7b 3e
       -0.09425437 -0.056079246 -0.08612268 0.24604174
0000c0 ac 07 cd 3e e6 3f f4 3d 15 0e 61 3e 49 85 6b bd
       0.40044916 0.1192625 0.21978028 -0.057500158
0000d0 12 55 41 be e5 04 9b be 35 38 d8 bc b8 5e 6f 3d
       -0.18880108 -0.30277172 -0.02639399 0.05843994
0000e0 d4 1b 28 3e f7 ec 1f bd 2f 5c 9f be fb 45 2e 3e
       0.16416866 -0.039044347 -0.31125018 0.17018883
0000f0 11 a5 03 3c 51 d1 44 3c e8 fa c5 3d 07 5f 76 3d
       0.00803496 0.012012796 0.09666997 0.06014922
000100 51 52 1e bd fb cb 92 3d 74 b8 f0 bc a7 ca d5 be
       -0.03865272 0.071678124 -0.02938483 -0.41756174
000110 b7 e8 d1 bd 18 f5 60 3c b3 02 56 3c f0 00 62 3b
       -0.10249465 0.01373031 0.013062167 0.0034485422
000120 7b 75 ca 3e 00 88 45 3e d8 49 95 bd 3a ab 54 3c
       0.39542755 0.19290161 -0.07289475 0.012980277
000130 b6 c5 96 be 58 6a 5c 3d b5 d2 66 3d 5e 4d 0a bf
       -0.29447716 0.053812355 0.05635329 -0.540243
000140 c6 c6 16 be de b4 b2 3d 01 14 93 3c 8a 5f 71 3e
       -0.14724264 0.08725904 0.017953875 0.23571602
000150 42 e3 b0 bb 7a 4a 8e 3b a2 f0 c7 be 4c 43 c8 be
       -0.005398185 0.0043423744 -0.39050776 -0.39113843
000160 a5 17 b1 3e 01 04 76 be d6 cb b8 3d 30 f1 ed be
       0.34588352 -0.24024965 0.090232536 -0.46473074
000170 5c 30 9f 3d d6 7c 0d be aa 58 97 3e 07 a7 f7 be
       0.07772896 -0.13817152 0.29559833 -0.4836962
000180 9c b5 99 3c e7 3f 01 3e 09 79 84 3e d8 c6 51 be
       0.018763356 0.12622033 0.25873592 -0.20486009
000190 3f d2 2d ba 80 33 22 3e c4 86 9b 3c 73 cd a1 be
       -0.00066307554 0.15839958 0.01898516 -0.31602058
0001a0 db 1b c6 be a5 75 00 3f a9 f6 03 be 80 47 0d be
       -0.38693127 0.5017951 -0.12887062 -0.13796806
0001b0 15 54 99 3d 49 d1 9a 3d ea 4e 45 3d 50 a2 3d 3e
       0.074867405 0.07559449 0.04817096 0.18518949
0001c0 4a c4 88 be 61 cc e3 bd a6 86 a9 be 7b 58 01 bf
       -0.26712257 -0.111229666 -0.3311054 -0.50525635
0001d0 e8 af 03 3c ba c2 c5 3d ab 45 23 3d e1 22 c2 3e
       0.008037545 0.09656282 0.039861362 0.37917235
0001e0 3b aa 33 be aa da 72 3e e5 b1 9e be a6 f7 be 3c
       -0.17545407 0.23716226 -0.30995098 0.023311447
0001f0 87 fd df 3d 77 89 98 be 6a c8 2a 3e 1c 63 db be
       0.109370284 -0.29792377 0.16678014 -0.42849052

fc3.bias f4 [2]
000000 a2 40 1e bd 9f 73 82 bd
       -0.038635857 -0.06369709
