checkpoint_actor_target1.pth (torch_old, 47280 bytes, 6 tensors)

fc1.weight f4 [128, 24]
0	0xba64409f	-0.0008707139
1	0x3e6bd0c4	0.23028857
2	0xbc1eb906	-0.009687668
3	0x3c3b8e51	0.011447505
4	0xbca7e822	-0.020496432
5	0x3ddebf63	0.10876348
6	0xbbe7ad4f	-0.0070702205
7	0xbaa4e259	-0.0012579664
8	0xbd0c5db4	-0.03426905
9	0x3e0b9d99	0.13634337
10	0x3e0851a5	0.13312395
11	0x3e37117c	0.17877764
12	0x3e2c3eb0	0.16820788
13	0x3e1c0003	0.1523438
14	0x3dc03949	0.09385926
15	0x3e0a47fc	0.13504022
16	0x3d31df9a	0.043426134
17	0x3e371eeb	0.17882888
18	0x3c07af77	0.00828158
19	0xbd1b0322	-0.037844785
20	0x3e88d06d	0.26721516
21	0xbd64d8f1	-0.055870954
22	0x3d733fa6	0.05938687
23	0x3d8e2b8a	0.06941898
24	0xbd829a3a	-0.06377073
25	0x3c8bab1b	0.017049363
26	0x3c924caf	0.017858831
27	0xbd85b9f1	-0.06529606
28	0xbd532fcd	-0.05155926
29	0xbde3f2a3	-0.11130264
30	0xbd604198	-0.054750055
31	0x3c965008	0.018348709
32	0xbd86d659	-0.06583852
33	0x3b87dae9	0.004145969
34	0x3d3cd946	0.046105646
35	0x3c94cc26	0.018163752
36	0x3c85bcd8	0.0163254
37	0xbdff9252	-0.1247908
38	0xbd2aaadf	-0.04166686
39	0x3c1c7a3b	0.009550626
40	0xbe4eb732	-0.20187071
41	0x3cf1d248	0.029519215
42	0x3c52be1b	0.0128627075
43	0xbdc97b73	-0.09837999
44	0x3de3f135	0.11129991
45	0xbdc256eb	-0.094892345
46	0xbc0b150b	-0.008488904
47	0xbe453721	-0.19259311
48	0xbda1ce68	-0.07900697
49	0xbd946d37	-0.072473936
50	0x3bfc428f	0.007698364
51	0x3e513dad	0.20433684
52	0x3d3dab42	0.046305902
53	0xbe5c64ff	-0.21522902
54	0x3c56c824	0.013109241
55	0x3e83278d	0.25616112
56	0xbe027f74	-0.12743932
57	0xbb90a2f8	-0.0044139586
58	0xbd577b38	-0.052607745
59	0x3d3f5072	0.046707578
60	0x3d61a339	0.055087302
61	0xbd005615	-0.031332094
62	0xbce81a1d	-0.028332764
63	0x3d012d4b	0.031537335
64	0xbd6b1424	-0.057392254
65	0x3dfbcad6	0.12294547
66	0xbcd35338	-0.025796518
67	0xbd59ed0c	-0.05320458
68	0xbcdc7829	-0.026912766
69	0x3db94f65	0.090483464
70	0x3d3b8bc3	0.045787584
71	0xbd39fe23	-0.04540838
72	0x3dac543f	0.08414506
73	0x3e7e6bd7	0.24845825
74	0xbe00a959	-0.12564601
75	0x3d8f7ffa	0.070068315
76	0xbe125ccd	-0.14293213
77	0xbe05d139	-0.13068093
78	0x3cf0d8e5	0.029400298
79	0x3dac4443	0.084114574
80	0x3cad5c0e	0.02116206
81	0x3e417092	0.18890598
82	0xbdbc50d0	-0.09195101
83	0x3d82c612	0.06385435
84	0xbdd72840	-0.10505724
85	0xbe7c2c02	-0.24626163
86	0xbd9adc78	-0.07561582
87	0xbd43eed9	-0.047835205
88	0xbce516b6	-0.027964931
89	0x3e31e914	0.17374068
90	0x3c5eb996	0.013594052
91	0xbda77059	-0.081757255
92	0xbdcaf44e	-0.09909879
93	0xbeb354bd	-0.35025588
94	0x3d22ec08	0.03977588
95	0xbde1f3a6	-0.110328004
96	0x3d26aa9c	0.04069005
97	0x3ccbfbaa	0.024900276
98	0x3d365c77	0.044521775
99	0x3d93caec	0.07216439
100	0x3d6d04fb	0.057866078
101	0x3ee2d3e7	0.44302294
102	0xbc58066f	-0.013185128
103	0x3e3223b2	0.17396429
104	0xbd4272d8	-0.047472805
105	0xbde2df8f	-0.11077797
106	0x3b9c14b5	0.0047632107
107	0x3ceacad5	0.028661171
108	0x3e06c7e7	0.13162194
109	0x3e9b412c	0.3032316
110	0x3e11c8c5	0.14236744
111	0x3989fb51	0.00026317922
112	0xbde6e68e	-0.112744436
113	0xbdf4a1d2	-0.11944927
114	0xbd1177fb	-0.035514813
115	0xbd8b3cf6	-0.06798737
116	0x3e8889ee	0.26667732
117	0x3ea750bb	0.3267878
118	0xbe109e30	-0.14122844
119	0xbd3e3cad	-0.046444584
120	0xbe271431	-0.16316296
121	0xbdc82b7b	-0.09773918
122	0xbc9a9bcc	-0.018873118
123	0x3e7a3546	0.24434385
124	0xbd16d547	-0.03682449
125	0xbdbef82a	-0.09324677
126	0x3dd621eb	0.10455688
127	0x3e409da6	0.18810138
128	0xbdffea6a	-0.12495883
129	0xbcdf3ab4	-0.027249672
130	0xbd1be657	-0.038061466
131	0x3e02eff6	0.1278685
132	0xbd2b9d4b	-0.041898053
133	0xbe4c6cbe	-0.19963357
134	0x3d36fdb1	0.044675533
135	0x3d762ab0	0.060099304
136	0xbd640324	-0.055667058
137	0x3cb3726a	0.021905143
138	0xbc111ee0	-0.008857459
139	0xbd9344d0	-0.07190859
140	0xbd717a72	-0.058954664
141	0xbeaecd22	-0.3414088
142	0xbcc3d19c	-0.02390366
143	0xbd54a0f9	-0.051911328
144	0xbdeaf284	-0.114720374
145	0xbdd0f2f3	-0.10202589
146	0xbcf1ad62	-0.02950162
147	0x3e093d08	0.13402188
148	0x3e0355e7	0.12825738
149	0xbe48d6c7	-0.19613181
150	0xbda327e2	-0.079665914
151	0xbcbe1a15	-0.023205796
152	0xbb94b649	-0.0045383316
153	0xbca91ebe	-0.020644542
154	0x3dc8ba1e	0.09801124
155	0x3d7c43ea	0.061588205
156	0x3e072ca4	0.13200623
157	0xbe354d3e	-0.17705247
158	0x3d87b888	0.066269934
159	0x3e3e38f5	0.18576415
160	0xbd56366d	-0.052298
161	0xbd0bffba	-0.034179427
162	0xbd165c0a	-0.03670887
163	0x3e800ed0	0.250113
164	0x3d651fdf	0.055938598
165	0xbe2a289a	-0.16617051
166	0x3d7af954	0.061272934
167	0x3e20d2ab	0.15705363
168	0x3cb89bee	0.02253529
169	0x3e5b5618	0.21419561
170	0xbd839ff4	-0.06426993
171	0x3d7d988f	0.06191307
172	0xbda48f0b	-0.08035096
173	0x3e335c49	0.17515673
174	0xbe0de227	-0.13855802
175	0x3c516146	0.012779539
176	0x3d16a310	0.036776602
177	0x3e1a41b9	0.15064134
178	0x3d559175	0.05214067
179	0x3e2b7ef1	0.16747643
180	0x3c932b1b	0.01796489
181	0x3e85ef74	0.2615925
182	0x3d8af889	0.067856856
183	0x3d2d3c9d	0.042294133
184	0x3d4229b2	0.047403045
185	0x3def22eb	0.11676582
186	0x3df44198	0.119265735
187	0xbc7a08dd	-0.015260902
188	0x3dc0e629	0.094188996
189	0x3e427588	0.18990147
190	0xbcfbef04	-0.03075362
191	0xbbf4be15	-0.0074689486
192	0xbce418b6	-0.027843814
193	0xbdb52e18	-0.08846682
194	0x3e12d6b3	0.14339714
195	0x3d8ff80a	0.070297316
196	0x3c8cd1a7	0.017189814
197	0xbda2f5bc	-0.07957026
198	0xbcbc1683	-0.022959953
199	0x3dfcb1d0	0.123386025
200	0xbda36329	-0.07977898
201	0x3d99d109	0.075105734
202	0x3d7cd2ed	0.061724592
203	0x3ea0d738	0.314142
204	0x3df3d47d	0.11905763
205	0xbe12b631	-0.14327313
206	0xbd1e8700	-0.038702965
207	0x3eb17d12	0.34665734
208	0x3d298ef3	0.041396093
209	0x3ddda475	0.10822383
210	0x3db320ef	0.08746516
211	0x3e678af7	0.22611605
212	0x3b653235	0.0034972553
213	0xbe8e8734	-0.27837527
214	0x3d8d6515	0.069040455
215	0x3e06de35	0.13170703
216	0x3d8ff45f	0.07029032
217	0x3d1b67e0	0.03794086
218	0xbdc61d89	-0.09673602
219	0xbd5c5c5f	-0.05379903
220	0xbca30f24	-0.01990468
221	0xbdcdb270	-0.100438
222	0xbd4ffe57	-0.050779667
223	0xbe48687e	-0.1957111
224	0xbcb4d0bb	-0.022072187
225	0x3cef391a	0.029202033
226	0xbd98043b	-0.07422682
227	0xbe0503ac	-0.12989682
228	0xbe1750a3	-0.14776854
229	0x3d47958d	0.048726607
230	0xbd894c61	-0.06704021
231	0xbe5e1b5f	-0.21690129
232	0xbd91aeb9	-0.07113404
233	0x3d6c23a0	0.057651162
234	0xbda0134d	-0.07816181
235	0xbe0759b9	-0.1321782
236	0xbe86023f	-0.2617359
237	0x3e97313a	0.29529744
238	0x3d928cec	0.07155785
239	0xbd91ab7b	-0.071127854
240	0x3cc3ac77	0.023885949
241	0xbe35b566	-0.1774498
242	0x3d68e5ab	0.056859653
243	0x3e8db94a	0.27680427
244	0x3da42258	0.08014363
245	0xbe1fa94d	-0.15591927
246	0xbc0cc6d3	-0.008592325
247	0x3e98455d	0.2974042
248	0x3d82cc17	0.06386583
249	0xbce02167	-0.027359677
250	0xbd062bf9	-0.03275678
251	0x3e4d5050	0.20050168
252	0x3e55229e	0.20813987
253	0xbe0ae3b5	-0.13563426
254	0xbd2034cf	-0.039112862
255	0x3ddc4a99	0.10756416

fc1.bias f4 [128]
0	0xbe1ba0f8	-0.15198123
1	0x3e5143cd	0.2043602
2	0x3d783fe8	0.06060782
3	0xbe622943	-0.22086053
4	0x3cd5d2bc	0.026101463
5	0x3e38d039	0.1804818
6	0x3dca3f47	0.098753504
7	0xbe77b942	-0.24191764
8	0x3d08e9b9	0.03342602
9	0xbcb7960e	-0.022410419
10	0xbda78f19	-0.081815906
11	0xbe2575bb	-0.16158192
12	0xbe032630	-0.12807536
13	0xbbfbdc34	-0.0076861624
14	0x3de247ad	0.11048827
15	0x3ee40b88	0.44540048
16	0xbdce9d2b	-0.10088571
17	0x3cecf600	0.028925896
18	0x3e2d128f	0.16901611
19	0xbe4423bb	-0.19154255
20	0xbd1e6c06	-0.038677238
21	0x3e67c757	0.22634636
22	0x3dea6609	0.11445243
23	0x3af75da3	0.001887251
24	0xbda1123f	-0.07864808
25	0x3e0e7074	0.13910085
26	0xbe4898a3	-0.19589476
27	0xbaee902d	-0.0018200927
28	0x3c336509	0.010949382
29	0x3dc35974	0.09538546
30	0xbe408c40	-0.18803501
31	0xbbcad941	-0.0061904495
32	0x3dd17a5e	0.10228418
33	0x3de93d5e	0.11388658
34	0xbdb173b1	-0.086646445
35	0x3e8085b6	0.25102013
36	0xbe2d62c4	-0.16932207
37	0xbd94d846	-0.072678134
38	0xbdb9dc16	-0.09075181
39	0xbd8fc620	-0.07020211
40	0x3d83e9f8	0.064411104
41	0x3e8fb91b	0.28070912
42	0xbdba84ef	-0.09107386
43	0xbdcc6925	-0.09980992
44	0xbe04203c	-0.12902921
45	0x3e6bbe27	0.23021756
46	0x3d87413a	0.06604238
47	0xbdde213f	-0.10846185
48	0xbd1999f1	-0.037500326
49	0x3ca7a7c5	0.020465741
50	0x3e9451df	0.28968713
51	0x3ce87dae	0.028380241
52	0x3e115402	0.14192203
53	0xbe5c3ec2	-0.21508315
54	0xbda24c04	-0.07924655
55	0xbda9166c	-0.0825623
56	0xbb80d604	-0.0039317627
57	0x3e751f2c	0.23937672
58	0x3d80ba74	0.06285563
59	0x3ded3b44	0.1158357
60	0x3de4e015	0.11175553
61	0x3e13e683	0.14443402
62	0xbe45759f	-0.1928315
63	0xbd974d45	-0.07387785
64	0x3e0005be	0.1250219
65	0xbe09d1a1	-0.13458873
66	0x3d27396d	0.04082625
67	0xbc1fab28	-0.009745397
68	0xbe854bdb	-0.26034436
69	0xbd5146fc	-0.051093087
70	0xbe35b172	-0.17743471
71	0xbdd3823c	-0.103275746
72	0x3d5308d7	0.051522102
73	0xbd0f75a6	-0.035024308
74	0x3e692b90	0.22770524
75	0xbe588bfe	-0.21147153
76	0x3da84b5c	0.08217499
77	0xbe17b448	-0.14814866
78	0x3df65bc2	0.1202922
79	0x3dfcb1c5	0.12338594
80	0xbdc5502f	-0.096344344
81	0x3de11672	0.10990609
82	0x3d3728b6	0.04471656
83	0x3de35e4a	0.111019686
84	0xbcbaa158	-0.022782013
85	0x3d8b2255	0.06793658
86	0x3ed1964f	0.4093499
87	0xbdca4fef	-0.098785274
88	0xbd464cfd	-0.048413265
89	0x3e3d7972	0.18503359
90	0xbe056e90	-0.13030457
91	0x3e808ac8	0.25105882
92	0xbe6eb1da	-0.23310032
93	0x3d971c2c	0.0737842
94	0xbe2b4f26	-0.16729411
95	0x3cdb6bbd	0.026784772
96	0x3e630753	0.22170763
97	0xbe41dfa0	-0.18932962
98	0x3e67cba9	0.22636284
99	0x3ca4182b	0.020031055
100	0x3e8a5984	0.2702142
101	0xbe9d9e92	-0.30785042
102	0x3d8f7439	0.070045896
103	0xbe3961a6	-0.18103656
104	0x3de8e9c6	0.11372714
105	0xbd857456	-0.0651633
106	0xbd000462	-0.03125418
107	0x3cce5891	0.025188716
108	0xbe19d7ce	-0.15023729
109	0xbe264166	-0.16235885
110	0x3d061b60	0.03274095
111	0x3c99e527	0.018786026
112	0x3e3c2305	0.18372734
113	0xbcbc42b8	-0.022981033
114	0x3e2931f0	0.16522956
115	0xbe0adad9	-0.13560046
116	0xbd83b2ac	-0.06430563
117	0xbe389b09	-0.18027891
118	0xbd591d0a	-0.05300621
119	0x3c208a66	0.009798622
120	0xbd7d5c01	-0.06185532
121	0x3e68969e	0.22713706
122	0xbde09261	-0.109654196
123	0x3e48d927	0.19614087
124	0x3e49a665	0.1969238
125	0xbd9a4c42	-0.07534076
126	0x3e74ac34	0.23893815
127	0x3df9eb34	0.122030646

fc2.weight f4 [64, 128]
0	0x3e2bbdb6	0.16771588
1	0xb99e4473	-0.00030187107
2	0xbe3f6058	-0.18689096
3	0x3e743ec2	0.23852065
4	0x3e08cd94	0.13359672
5	0xbe1cec88	-0.15324605
6	0xbb1e6209	-0.002416732
7	0xbcfd7740	-0.030940652
8	0x3c6c31bf	0.014416157
9	0x3e672787	0.22573672
10	0xbd6904b6	-0.05688926
11	0xbd8062bc	-0.06268832
12	0x3e09902e	0.13433906
13	0x3cbc1d37	0.02296315
14	0xbd0eed3e	-0.03489422
15	0xbd8cbfbd	-0.06872509
16	0x3e422895	0.18960793
17	0x3e0bcb5c	0.13651794
18	0xbde7a11d	-0.11310027
19	0x3e13ebdc	0.14445442
20	0xbd239854	-0.039940193
21	0x3dfb33d3	0.12265744
22	0x3d7a8cd5	0.061169464
23	0xbd49a7da	-0.04923234
24	0xbdb2aad4	-0.08723989
25	0x3d462818	0.04837808
26	0x3dd37722	0.10325457
27	0x3daa7951	0.083239205
28	0x3db2b5fb	0.08726116
29	0xbc273934	-0.010206509
30	0xbe2b32ff	-0.16718672
31	0x3e35dfc3	0.1776114
32	0xbd6064da	-0.05478368
33	0xbe126652	-0.14296845
34	0x3e9e6e70	0.30943632
35	0x3df014f8	0.117227495
36	0x3d1ce8f9	0.038308118
37	0x3e09863a	0.1343011
38	0x3e0e572e	0.13900444
39	0x3e91a59d	0.28446665
40	0x3df64b35	0.12026063
41	0x3e2c6f3a	0.16839305
42	0xbdbec19f	-0.09314274
43	0xbd9c8e51	-0.07644332
44	0x3d51f64f	0.05126029
45	0xbc448dd4	-0.011996705
46	0x3efa356f	0.48868892
47	0x3df81764	0.121138364
48	0xbe15d153	-0.14630632
49	0x3d82ab4e	0.0638033
50	0xbdad4725	-0.08460835
51	0x39e46c11	0.00043568065
52	0xbdbd2dd2	-0.09237255
53	0xbd3580cb	-0.04431228
54	0xbdc71c08	-0.097221434
55	0x3e1f817e	0.15576741
56	0xbe7f811c	-0.24951595
57	0x3ceb91de	0.028756078
58	0xbe36ca94	-0.17850715
59	0x3d215708	0.03938964
60	0xbe507af6	-0.20359406
61	0x3e68ec51	0.22746398
62	0xbbf3b0f3	-0.0074368655
63	0xba433eed	-0.00074480363
64	0xbe4fb228	-0.20282805
65	0xbd4bd83e	-0.04976677
66	0xbc3ed881	-0.011648298
67	0x3e692001	0.22766115
68	0x3e21abdc	0.15788215
69	0xbc53eeb9	-0.012935334
70	0x3d68ca90	0.056833804
71	0xbe713eab	-0.23559062
72	0xbc50bf24	-0.012740884
73	0x3ccf01f6	0.02526949
74	0xbe1bfcb5	-0.15233119
75	0xbdb2cd0d	-0.087305166
76	0x3d37aecb	0.04484443
77	0x3e498a79	0.1968173
78	0xbde1a45e	-0.11017679
79	0xbd2715f1	-0.04079241
80	0xbe094b3b	-0.13407604
81	0x3de30e98	0.11086768
82	0xbd9e6917	-0.07734888
83	0x3e219e07	0.15782939
84	0xbe0ed308	-0.1394769
85	0x3cbcb953	0.023037588
86	0x3d2ca2ed	0.042147566
87	0xbdb06930	-0.08613813
88	0x3d666109	0.056244884
89	0x3ecc2485	0.39871612
90	0x3e0b1af1	0.13584496
91	0xbe079a36	-0.1324242
92	0xbdcf1287	-0.10110956
93	0x3da8ee9c	0.08248636
94	0x3df4a6f9	0.1194591
95	0x3d88b55a	0.06675215
96	0xbbce633c	-0.0062984508
97	0xbacfe1a8	-0.0015860097
98	0x3e3bd3fc	0.18342584
99	0x3e1e98a1	0.15487911
100	0x3d5c6168	0.05380383
101	0xbe047d60	-0.12938452
102	0xbc20691e	-0.009790687
103	0xbdc1d697	-0.09464758
104	0xbe3344e3	-0.17506747
105	0x3d5c61ce	0.05380421
106	0x3d3a1b17	0.04543599
107	0x3d67de8f	0.056608733
108	0xbeaa6315	-0.3327872
109	0xbda49772	-0.080366984
110	0x3dbee7b7	0.0932154
111	0x3e761183	0.24030118
112	0xbe1d8edf	-0.15386532
113	0xbdcf693e	-0.10127495
114	0x3d504e9f	0.05085623
115	0xbd98163c	-0.07426116
116	0x3c5f5e52	0.013633328
117	0xbda96148	-0.08270508
118	0x3dfe98ab	0.12431463
119	0xbe44ada1	-0.19206859
120	0xbd0db4c8	-0.034596235
121	0x3ddedaa4	0.10881546
122	0xbd50789b	-0.05089627
123	0x3d224084	0.03961231
124	0x3b7b5165	0.0038348075
125	0x3e171177	0.14752756
126	0xbe604fbf	-0.2190542
127	0x3e3053d2	0.17219475
128	0xbc1be900	-0.009516001
129	0xbd5c3b09	-0.053767238
130	0xbc94c697	-0.018161101
131	0xbe1b5539	-0.15169229
132	0x3df78f96	0.12087934
133	0xbe4e41a8	-0.20142233
134	0xbc84b72e	-0.016200628
135	0x3e24f365	0.16108473
136	0xbea47a64	-0.32124627
137	0x3e174b3e	0.14774796
138	0xbc5240bb	-0.012832816
139	0xbd736e99	-0.059431646
140	0x3e08e895	0.13369973
141	0x3d9ab243	0.07553532
142	0x3d85baab	0.06529745
143	0xbdccd533	-0.10001602
144	0x3dcd74af	0.10032021
145	0xbd91a0e5	-0.07110766
146	0x3d772f49	0.06034783
147	0xbd134ad7	-0.035960045
148	0x3dd0ef5a	0.10201903
149	0xbe16f258	-0.14740884
150	0xbddcabf2	-0.107749835
151	0xbd99e7ab	-0.0751489
152	0xbdb8486a	-0.08998187
153	0xbcd81648	-0.026377812
154	0xbc52f005	-0.012874608
155	0x3e080996	0.13284907
156	0x3d9a0bd0	0.07521784
157	0xbe2e8247	-0.17041884
158	0x3e1fe397	0.15614162
159	0xbda4e28f	-0.08051025
160	0x3c4048f0	0.01173614
161	0x3e42efca	0.19036785
162	0xbd303c51	-0.043026272
163	0xbe5ff443	-0.21870522
164	0xbd1b473c	-0.03790973
165	0xbe817f8c	-0.25292623
166	0xbec98ef4	-0.39366877
167	0xbcbc036a	-0.022950847
168	0xbda1a9b2	-0.07893695
169	0x3c12997f	0.008947729
170	0xbd5254f2	-0.05135054
171	0xbd91b1e6	-0.071140096
172	0xbb39f754	-0.0028376179
173	0xbe2d1bcf	-0.1690514
174	0xbe407861	-0.18795921
175	0x3bff87f6	0.00779819
176	0x3dbaaa8a	0.09114559
177	0xbe7c11f0	-0.24616218
178	0x3d8954eb	0.0670565
179	0x3e25c597	0.16188656
180	0x3d064bbe	0.032787077
181	0xbdd64370	-0.104620814
182	0xbd942ec1	-0.0723548
183	0x3d05c2b7	0.032656398
184	0x3de56f16	0.112028286
185	0x3cc42c14	0.0239468
186	0x3d84008f	0.06445419
187	0x3d5d2019	0.05398569
188	0xbd941d11	-0.072321065
189	0xbea3bc18	-0.31979442
190	0xbd6cad34	-0.057782367
191	0x3dd79c19	0.1052782
192	0xbe7688eb	-0.24075668
193	0x3e68e668	0.22744143
194	0x3e21f8ff	0.1581764
195	0x3d96c019	0.073608585
196	0xbe20dc19	-0.1570896
197	0xbdf0c560	-0.11756396
198	0xbcd03524	-0.025415964
199	0xbe6b0ed7	-0.2295488
200	0x3d22a4fb	0.03970812
201	0x3e09436f	0.1340463
202	0xbdf6449b	-0.12024804
203	0xbe2b38a2	-0.16720822
204	0xbddfdd9e	-0.10930942
205	0x3e00587c	0.12533754
206	0x3dd67172	0.10470857
207	0xbd66c1fc	-0.05633734
208	0x3e089129	0.13336624
209	0xbe4bc773	-0.19900303
210	0x3e087205	0.13324745
211	0x3d695aac	0.056971237
212	0xbcc4b112	-0.024010215
213	0x3b13768b	0.0022501077
214	0xbbdc0b46	-0.006715211
215	0x3d9ab0ec	0.075532764
216	0xbe6b163f	-0.22957705
217	0xbdcda003	-0.100402854
218	0xbdf55cb5	-0.11980573
219	0xbdd8ae32	-0.105801
220	0x3db04f22	0.086088434
221	0xbbe40b2f	-0.006959341
222	0x3dd0d071	0.10196007
223	0x3d0e998f	0.034814414
224	0xbdab6cb0	-0.0837034
225	0xbc1be39c	-0.0095147155
226	0xbc4315f2	-0.011907088
227	0xba997d90	-0.0011710394
228	0xba89a08c	-0.0010500117
229	0x3da6e27c	0.08148667
230	0x3e2c215a	0.16809598
231	0xbe59409d	-0.21216054
232	0xbd89c4bb	-0.067269765
233	0x3e49dead	0.1971385
234	0x3e03ee55	0.12883885
235	0xbd0abf17	-0.033873644
236	0x3d388267	0.045046236
237	0xbd998f23	-0.07498004
238	0x3df18993	0.11793818
239	0x3c0b9db3	0.008521485
240	0x3bc25a99	0.0059312102
241	0x3e2bfd1d	0.16795774
242	0x3b61f61d	0.003447897
243	0xbe6688a1	-0.22513057
244	0x3de49fac	0.111632675
245	0xbe3647c1	-0.1780081
246	0xbd313518	-0.043263525
247	0x3dbae58d	0.091258146
248	0x3ce4a849	0.027912276
249	0xbec2edd6	-0.3807208
250	0xbd76f2bd	-0.060290087
251	0xbdd4eba9	-0.10396511
252	0x3dcd3f1f	0.10021805
253	0xbe40a343	-0.1881228
254	0xbd86c947	-0.06581359
255	0x3d6b5029	0.057449494

fc2.bias f4 [64]
0	0x3d15a814	0.036537245
1	0xbd05ab62	-0.032634147
2	0x3db014c6	0.08597712
3	0x3c9c0ffa	0.019050587
4	0x3dc260b9	0.09491105
5	0x3d114e7b	0.035475235
6	0x3b34110d	0.0027475983
7	0x3e21f0d3	0.15814523
8	0x3c9f4d9f	0.019446192
9	0x3ba52b4a	0.005040561
10	0x3dcb55c7	0.0992847
11	0x3d3d67df	0.046241637
12	0x3dba499e	0.090960726
13	0xbbf67463	-0.0075211986
14	0xbd385845	-0.045006055
15	0xbddc5a25	-0.10759381
16	0xbd91301d	-0.07089255
17	0x3cf0191e	0.029308852
18	0xbcf64c31	-0.030065628
19	0x3d86ca5b	0.06581565
20	0xbd867b30	-0.06566465
21	0x3aeaf93d	0.0017927062
22	0x3e0850ab	0.13312022
23	0x3e1016ed	0.14071245
24	0xbd9b1cbd	-0.07573841
25	0xbe1ce662	-0.15322259
26	0x3c013d05	0.007888083
27	0xbe072ca9	-0.1320063
28	0x3dd08355	0.101812996
29	0xbc1d9e8f	-0.009620323
30	0x3d5ee907	0.05442145
31	0x3d6d3933	0.057915878
32	0x3c93da47	0.018048419
33	0xbe252a8f	-0.16129516
34	0xbde40726	-0.11134176
35	0x3de7036e	0.11279951
36	0x3d3d98d4	0.046288326
37	0x3da4ec16	0.08052842
38	0xbd155387	-0.03645661
39	0x3c1a2ad1	0.009409622
40	0x3db0bd1e	0.08629821
41	0xbdbde50c	-0.09272203
42	0x3d6d0e20	0.0578748
43	0xbdaee94b	-0.08540591
44	0x3cc129ce	0.023579504
45	0x3e75c9aa	0.2400271
46	0x3d9f8548	0.07789093
47	0xbd51522e	-0.051103763
48	0xbbbfcdb6	-0.00585338
49	0x3d891c20	0.066948175
50	0xbcd406da	-0.025882173
51	0x3c1bfeb8	0.009521179
52	0xbce8ad1c	-0.028402857
53	0x3d1589c8	0.03650835
54	0xb95483dc	-0.00020267017
55	0xbd97fadd	-0.07420895
56	0xbda17012	-0.07882704
57	0x3c95a5c0	0.018267512
58	0x3d865c01	0.06560517
59	0x3d9a44d7	0.075326614
60	0xbb3316e2	-0.0027326872
61	0xbda3fe85	-0.0800753
62	0x3ca9050f	0.020632295
63	0x3bf30660	0.0074165314

fc3.weight f4 [2, 64]
0	0xbe435965	-0.1907707
1	0xbe3763a5	-0.17909105
2	0xbdab04c6	-0.0835052
3	0x3dfb39fa	0.122669175
4	0x3dbe87fb	0.0930328
5	0x3e3e14d9	0.1856264
6	0xbe3fcd40	-0.1873064
7	0x3da8b82a	0.082382515
8	0xbe9c0404	-0.30471814
9	0x3caca1e7	0.021073295
10	0x3e894f09	0.26818112
11	0x3d4af452	0.04954941
12	0xbd59e343	-0.05319525
13	0xbded2214	-0.115787655
14	0xbe1ecf96	-0.15508875
15	0xbcf6ed2c	-0.03014239
16	0xbdcf0ae9	-0.10109503
17	0x3dcdab78	0.10042471
18	0xbd6ee916	-0.058327757
19	0xbd5d81ea	-0.054078974
20	0xbd2d4f0f	-0.042311724
21	0x3c847e89	0.016173618
22	0x3de3cfe3	0.111236356
23	0x3ddaf1cb	0.106906496
24	0xbe671ba6	-0.22569141
25	0x3f1aa9b4	0.60415196
26	0x3e0e953c	0.13924116
27	0xbd455918	-0.04818067
28	0x3de1508b	0.110016905
29	0x3e90be36	0.2827012
30	0x3e25abd8	0.16178834
31	0x3e4a4895	0.1975425
32	0x3d15f03f	0.03660607
33	0xbcef4292	-0.029206548
34	0xbde0b858	-0.10972661
35	0xbd5dd1d3	-0.054155182
36	0x3d9207d2	0.07130398
37	0x3dce1695	0.10062901
38	0xbdb2734e	-0.08713399
39	0xbd87ce1e	-0.066311106
40	0x3d796ff7	0.060897794
41	0x3e349a6e	0.17637035
42	0x3e459ecd	0.19298859
43	0xbde26c60	-0.11055827
44	0xbd3c2f94	-0.04594381
45	0x3df6c93f	0.120501034
46	0xbe0ebe77	-0.13939844
47	0x3dc3bd00	0.09557533
48	0xbd82329c	-0.06357309
49	0xbdbfcfa1	-0.09365774
50	0xbebb3cf4	-0.3656994
51	0xbe093adb	-0.13401358
52	0xbe043f39	-0.12914743
53	0xbdacec19	-0.084434696
54	0x3eb407f9	0.35162333
55	0x3e43d64c	0.19124717
56	0xbde01072	-0.10940637
57	0xbd840e97	-0.06448095
58	0xbda55ea8	-0.08074695
59	0x3e7348c7	0.23758231
60	0x3e04d219	0.12970771
61	0xbd849779	-0.064742036
62	0xbe668466	-0.22511443
63	0x3d9a2084	0.07525733
64	0x3dd6b266	0.104832456
65	0x3dd2b0d4	0.102876335
66	0xbdedeed2	-0.11617817
67	0xbf42d4ee	-0.76106155
68	0x3e4ac032	0.19799879
69	0x3d5b5abe	0.053553335
70	0x3e7fce8d	0.24981137
71	0xbe023bbf	-0.12718104
72	0xbd9514ed	-0.07279382
73	0x3eb8cfcb	0.36096033
74	0x3e2863bc	0.16444296
75	0xbda3e9e8	-0.080035985
76	0xbe265845	-0.1624461
77	0xbe0588c4	-0.13040453
78	0x3e7100ca	0.23535457
79	0x3e1c6892	0.15274265
80	0x3cb9e949	0.022694247
81	0x3d05b8ed	0.032647062
82	0xbdcd5dd4	-0.10027662
83	0xbd1d6251	-0.03842384
84	0xbc9f5d81	-0.019453766
85	0x3ecaf8d9	0.3964298
86	0xbdda6e89	-0.10665614
87	0xbe16da9b	-0.14731829
88	0x3e7d9aed	0.24766131
89	0x3f1beacf	0.60905164
90	0xbd95d078	-0.07315153
91	0x3d859df3	0.06524267
92	0xbe137f60	-0.14404058
93	0x3e1e3066	0.1544815
94	0x3e59d883	0.21273999
95	0x3ea00e90	0.3126111
96	0x3eac6013	0.3366705
97	0x3e3ff872	0.18747118
98	0x3e9ee25c	0.31032073
99	0xbe2266f9	-0.15859593
100	0xbdf3fe87	-0.119137816
101	0xbe40327a	-0.18769255
102	0xbd850361	-0.06494785
103	0xbe99e124	-0.3005458
104	0xbe5f0c39	-0.21782006
105	0x3e82ecde	0.2557134
106	0x3f06ad6d	0.52608377
107	0x3e2d3a7d	0.16916843
108	0x3ed20ab3	0.41023788
109	0xbde16a7d	-0.11006639
110	0xbdf7561e	-0.120769724
111	0x3ddead57	0.10872906
112	0x3ed89cc7	0.42307112
113	0xbd35ca43	-0.044382345
114	0x3e57d4ef	0.21077321
115	0xbdf36573	-0.11884584
116	0x3d4bfb3c	0.049800143
117	0xbdf43e8b	-0.119259916
118	0x3b4ac7cb	0.003094184
119	0x3e78480c	0.24246234
120	0x3e0ebd21	0.13939334
121	0x3df8a94e	0.12141667
122	0xbdefa638	-0.117016256
123	0x3e066b35	0.13126834
124	0x3d40672c	0.046973392
125	0x3dbaeac4	0.09126809
126	0x3ea42ac9	0.32063892
127	0x3d9ec4d5	0.077523865

fc3.bias f4 [2]
0	0xbd7bdce1	-0.061489943
1	0xbd356d5d	-0.04429375
