checkpoint_critic_local0.pth (torch_old, 574967 bytes, 9 tensors)

fcs1.weight f4 [400, 52]
0.0011096196 0.07383536 -0.050121404 0.15543036 0.07506473 -0.12535723 -0.0025558947 0.08797266
0.024852056 0.16427523 -0.062115718 0.049134158 0.07447724 -0.09406975 -0.063202284 -0.034400754
0.016895432 0.12740804 0.038088486 0.013290678 0.0011723035 -0.08828158 0.065360814 0.045050796
0.048943292 0.025851151 0.049373653 0.10609974 -0.025577968 -0.1181462 0.043021377 0.097112
0.07417008 0.10115743 0.021381488 0.010962921 -0.013184459 -0.105577916 0.049609087 -0.0447194
0.03952616 0.06490363 0.043043647 -0.053850785 0.0037320685 -0.071007185 0.024267988 -0.0023299523
0.121082634 -0.008846174 0.097497225 0.064833075 0.019996684 0.013531602 0.046334483 0.08529925
0.033064097 -0.15379135 -0.037678562 0.05508538 0.012940431 -0.017362462 0.03829182 0.04507642
-0.016361216 -0.059205327 -0.03470543 -0.030470042 0.0034667745 0.020155298 0.018100893 -0.029691692
-0.021158284 -0.11153385 -0.008440749 -0.10142178 -0.029626561 0.03112271 -0.027783029 -0.10255134
0.04103292 -0.13293935 -0.010627561 -0.13753214 -0.05477342 -0.10186543 0.0008075719 -0.16945334
0.07402641 -0.066792175 -0.04379995 -0.12103869 -0.05233044 -0.07536622 -0.016241318 -0.2374895
0.012067813 -0.061702464 0.0012614052 -0.24773291 0.02745184 0.09429542 0.17823848 0.1957254
-0.11957377 -0.17410737 -0.006177873 -0.05945558 0.04445362 0.13038549 0.027158732 -0.10040176
-0.05403588 -0.10607511 0.033437304 0.021480836 -0.07086125 0.13596687 -0.023854569 0.0102097895
-0.09561208 -0.17519264 -0.008340118 -0.049892236 -0.044491783 0.035136066 0.027263284 -0.117100865
-0.08538581 0.021317462 0.0051761894 0.007081998 0.04352934 0.14396635 0.013315906 -0.01836847
-0.16091259 -0.043491196 0.020675994 0.075960115 0.0058848513 0.112478584 0.013093177 0.037152126
-0.22169532 -0.116014935 -0.0039894185 0.016321464 0.08905437 0.0146794645 0.036966823 -0.009856217
8.208642e-05 0.21539235 -0.32554647 -0.044408105 -0.040171117 0.16478626 -0.017627122 0.048458617
0.0057042167 -0.09408848 0.012024247 0.023921482 -0.085407056 0.1715645 -0.019457806 0.02470843
0.08129039 -0.110565394 0.031801287 0.02867909 -0.069266655 0.22469877 0.009084809 0.025763167
0.019958435 -0.13015658 -0.042438507 0.019891737 0.07956509 0.029821305 0.04466301 -0.0788925
-0.083881915 -0.1684653 -0.01884977 -0.023582622 0.06693273 -0.05638322 -0.028836722 -0.112150095
-0.028405676 -0.111812666 0.0179455 -0.1001286 0.054000616 -0.15158825 -0.046818145 -0.07670922
-0.010260428 -0.09459794 -0.07590102 -0.16683902 -0.11776081 0.06825852 0.13570666 0.21075307
-0.017954715 0.07772289 0.003580143 0.07069798 0.013412515 -0.03736536 0.0006526766 0.052374877
-0.00092604914 0.138241 -0.0004075618 0.071213864 0.02832703 -0.034339733 0.027493868 0.09468996
-0.106477775 0.018151103 -0.08791031 -0.03977475 0.042712126 0.0034162523 -0.08809148 -0.07634747
0.073757924 0.23851132 -0.013770913 -0.10772805 -0.03730645 -0.014256464 -0.030739564 -0.13089612
0.054319896 0.24262655 -0.014061189 -0.11477662 -0.034470264 -0.043957487 0.0035861435 -0.10093895
-0.03799783 0.17814705 -0.0052019595 -0.089901894 0.0058371373 0.024348812 -0.015312185 -0.12289546
00000000: a870 913a fe36 973d 1a4c 4dbd 2329 1f3e
00000010: 8abb 993d a55d 00be cc80 27bb 032b b43d
00000020: 8a96 cb3c c437 283e 0d6d 7ebd e640 493d
00000030: 8687 983d a4a7 c0bd 3370 81bd cee7 0cbd
00000040: 4a68 8a3c 4177 023e ac02 1c3d 25c1 593c
00000050: faa7 993a f9cc b4bd e4db 853d 2f87 383d
00000060: c378 483d cbc5 d33c 073c 4a3d d24a d93d
00000070: e388 d1bc a3f6 f1bd 2f37 303d a8e2 c63d
00000080: 7ce6 973d a02b cf3d 3b28 af3c d39d 333c
00000090: a103 58bc 3c39 d8bd e632 4b3d b12b 37bd
000000a0: 2fe6 213d 32ec 843d 894e 303d a492 5cbd
000000b0: b895 743b 376c 91bd a9cd c63c 1db2 18bb
000000c0: 2cfa f73d 8bef 10bc a0ac c73d 34c7 843d
000000d0: 16d0 a33c a7b3 5d3c 3ac9 3d3d 60b1 ae3d
000000e0: 386e 073d 7b7b 1dbe d654 1abd 35a1 613d
000000f0: 1a04 543c b93b 8ebc e2d7 1c3d 0da2 383d
00000100: f507 86bc 4981 72bd 4827 0ebd 4f9c f9bc
00000110: d332 633b b91c a53c 5348 943c fe3b f3bc
00000120: 2354 adbc dc6b e4bd 114b 0abc 39b6 cfbd
00000130: 67b3 f2bc 0ef5 fe3c 3c99 e3bc 7006 d2bd
00000140: 2312 283d 4121 08be 391f 2ebc 3ad5 0cbe
00000150: 185a 60bd d39e d0bd 3cb3 533a 2d85 2dbe
00000160: 299b 973d 56ca 88bd 9467 33bd 22e3 f7bd
00000170: 7258 56bd 9b59 9abd 830c 85bc 7330 73be
00000180: 14b8 453c b9bb 7cbd bc55 a53a b2ad 7dbe
00000190: aee2 e03c f51d c13d 2684 363e 3d6c 483e
000001a0: 18e3 f4bd 3449 32be c16f cabb b287 73bd
000001b0: 0015 363d c683 053e fd7b de3c 709f cdbd
000001c0: ba54 5dbd e83d d9bd 8ef5 083d 94f8 af3c
000001d0: b41f 91bd e63a 0b3e a86a c3bc f646 273c
000001e0: 44d0 c3bd b365 33be fea4 08bc cd5b 4cbd
000001f0: 043d 36bd d6ea 0f3d 4057 df3c 94d2 efbd
00000200: c1de aebd f5a1 ae3c 069d a93b 1b10 e83b
00000210: d24b 323d ea6b 133e f52a 5a3c 7979 96bc
00000220: 45c6 24be d323 32bd b460 a93c fa90 9b3d
00000230: b6d5 c03b 2c5b e63d c484 563c d42c 183d
00000240: 1904 63be 3d99 edbd abb9 82bb 97b4 853c
00000250: 2362 b63d 2382 703c 866a 173d f87b 21bc
00000260: d025 ac38 d08f 5c3e 07ae a6be 46e5 35bd
00000270: 788a 24bd bbbd 283e c166 90bc 8b7c 463d
00000280: 70ea ba3b 76b1 c0bd 5901 453c fcf6 c33c
00000290: e5e9 aebd 9bae 2f3e fa65 9fbc 5569 ca3c
000002a0: 937b a63d 1c70 e2bd 1142 023d 69f0 ea3c
000002b0: addb 8dbd 6f17 663e 73d8 143c 470d d33c
000002c0: df7f a33c c447 05be 00d4 2dbd fff3 a23c
000002d0: 06f3 a23d cf4b f43c 8ff0 363d 6492 a1bd
000002e0: 48ca abbd 2b82 2cbe d56a 9abc 5830 c1bc
000002f0: 0714 893d 17f2 66bd fd3a ecbc f3ae e5bd
00000300: 05b3 e8bc 0afe e4bd 7102 933c 3910 cdbd
00000310: c02f 5d3d f339 1bbe 62c4 3fbd b919 9dbd
00000320: 5b1b 28bc 91bc c1bd fe71 9bbd d9d7 2abe
00000330: 942c f1bd 1fcb 8b3d b0f6 0a3e a7cf 573e
00000340: c415 93bc 2e2d 9f3d d5a0 6a3b 1aca 903d
00000350: 2ac0 5b3c 6b0c 19bd 6318 2b3a 0a87 563d
00000360: 1bc2 72ba 0c8f 0d3e 05ae d5b9 93d8 913d
00000370: 160e e83c d2a7 0cbd d23a e13c cfec c13d
00000380: 0511 dabd 9fb1 943c 520a b4bd d9ea 22bd
00000390: e9f2 2e3d 34e3 5f3b 4e69 b4bd 105c 9cbd
000003a0: 650e 973d 503c 743e 659f 61bc 86a0 dcbd
000003b0: a6ce 18bd f293 69bc 8ad1 fbbc a209 06be
000003c0: 8a7e 5e3d 1873 783e e760 66bc 0110 ebbd
000003d0: b130 0dbd c40c 34bd 8105 6b3b 15b9 cebd
000003e0: 9da3 1bbd 2e6c 363e 3375 aabb 7c1e b8bd
000003f0: 7545 bf3b 2977 c73c f5df 7abc 9db0 fbbd

fcs1.bias f4 [400]
0.08973297 -0.12047725 -0.04637842 0.09088193 0.04988859 -0.14670894 -0.3362966 -0.1700252
-0.16242637 -0.19379435 -0.13032782 -0.15807168 0.057331048 -0.11383438 -0.120444216 -0.099509455
-0.115863994 -0.2421315 -0.23591417 -0.014815046 -0.16085976 -0.20687114 -0.42467564 -0.088890836
0.098455735 0.013253784 0.034441568 -0.027115596 -0.10503915 -0.083368205 -0.1541172 0.08655061
-0.057003107 -0.021629235 -0.2145622 -0.14340845 -0.19546945 -0.058281843 -0.16588458 -0.057227217
0.15794118 -0.062367864 0.00557255 0.04116834 0.042775642 0.056308266 -0.01816078 -0.06747473
0.07155094 0.12705104 -0.15471524 0.017572125 0.0902104 -0.30845335 0.024680668 0.009249203
-0.020901864 -0.048181336 -0.034123287 0.081026845 -0.13555308 0.040802777 -0.06508814 0.05726308
-0.03256071 -0.06597581 0.08223959 -0.16512196 -0.03618127 -0.026459249 0.11242817 0.0043213917
-0.06440421 -0.040828712 -0.24369831 0.081973225 -0.13032624 -0.06299706 -0.17288423 -0.3832964
-0.033179067 -0.08633891 -0.11228506 -0.003248231 -0.10156926 0.05113132 -0.15142715 -0.13013545
-0.12036905 0.12248064 -0.07243665 0.015376718 0.11083008 -0.124553554 -0.036379438 0.010797324
0.08448898 -0.076982915 -0.042350095 -0.049138103 -0.04199761 0.039969895 -0.11037543 0.026374904
0.05426216 -0.13869701 -0.14573723 -0.04293666 0.012323101 -0.09664575 -0.052348558 0.090314716
-0.09765342 -0.12125753 0.052674815 -0.052152023 -0.20804557 -0.2210611 -0.11070447 -0.116592176
-0.130054 -0.22523195 -0.039010867 -0.20438917 -0.029926816 -0.08894168 -0.015890453 -0.14259775
-0.12381164 -0.13132378 -0.009376692 -0.14269842 -0.06703539 -0.13817725 -0.037135918 -0.09785784
-0.032490958 -0.11326994 -0.12455697 0.059999336 0.0020108323 -0.046830192 -0.022315172 -0.18105946
-0.12776008 0.018464081 0.052447967 -0.11604714 0.06176767 -0.22753267 -0.05557337 -0.20194438
-0.05965863 0.009247971 0.06574157 0.041222498 -0.02010592 -0.07341251 0.17911372 -0.22958533
-0.14595522 -0.09197124 0.012110313 -0.042677127 -0.11510545 -0.07609588 0.027761197 -0.26383922
0.0651644 -0.12500012 -0.046172235 -0.10485924 -0.05110875 0.12425301 0.025799612 -0.03967054
0.026910089 -0.016822996 -0.07378878 -0.14192407 -0.25731897 -0.113926664 -0.18149306 0.04350475
-0.07087229 0.03887913 -0.051608562 0.035071936 0.08389769 -0.036361825 -0.04709521 -0.06295839
-0.07007058 -0.11371404 -0.20975548 -0.0966332 -0.1368885 0.11538891 0.1051386 -0.1853228
-0.14152758 -0.20221224 0.021369599 0.04830068 -0.06071952 -0.15912686 -0.1097363 0.04388739
0.11679579 -0.07562554 -0.026261242 -0.10568445 0.06031169 -0.02735219 -0.054060683 0.0599403
0.03976713 -0.227472 -0.2145296 0.028169854 -0.08996137 0.03471523 -0.024640402 0.038654976
-0.020550897 0.049159877 -0.123883985 0.027255526 0.059380848 0.013582258 -0.030338153 -0.14825991
0.07932958 -0.050121333 -0.09245349 -0.07426741 -0.078097925 -0.18149368 0.04577831 0.056578416
0.030545447 -0.09329696 0.0486757 0.05094479 -0.050102245 0.09418516 0.047480855 0.03363699
-0.017383002 -0.066912174 0.112575635 -0.020182235 -0.08975132 -0.21096522 -0.14272772 -0.08177178
00000000: ebc5 b73d c7bc f6bd 4cf7 3dbd 4e20 ba3d
00000010: fa57 4c3d de3a 16be 112f acbe 161b 2ebe
00000020: 1953 26be 0772 46be a874 05be 8bdd 21be
00000030: f6d3 6a3d 0022 e9bd 75ab f6bd 9dcb cbbd
00000040: 1a4a edbd 52f1 77be 7c93 71be cfba 72bc
00000050: 6cb8 24be 07d6 53be 166f d9be 660c b6bd
00000060: 29a3 c93d 6626 593c 9a12 0d3d 8721 debc
00000070: c41e d7bd f3bc aabd e6d0 1dbe 7241 b13d
00000080: 177c 69bd cb2f b1bc 31b6 5bbe aad9 12be
00000090: 2529 48be f1b8 6ebd a6dd 29be 1667 6abd
000000a0: 55bb 213e 7275 7fbd f099 b63b 22a0 283d
000000b0: 8335 2f3d 7fa3 663d ebc5 94bc 3130 8abd
000000c0: 4d89 923d ab19 023e ac6d 1ebe 6bf3 8f3c
000000d0: 3bc0 b83d 99ed 9dbe 1d2f ca3c f889 173c
000000e0: 633a abbc cb59 45bd dcc4 0bbd 67f1 a53d
000000f0: 6dce 0abe d020 273d ee4c 85bd b18c 6a3d
00000100: 615e 05bd 531e 87bd 3b6d a83d bb15 29be
00000110: d032 14bd 11c1 d8bc be40 e63d 769a 8d3b
00000120: 5be6 83bd 023c 27bd 0d8c 79be 94e1 a73d
00000130: 3e74 05be 9a04 81bd 9008 31be 6d3f c4be
00000140: c6e6 07bd 74d2 b0bd b6f5 e5bd 46e0 54bb
00000150: 8b03 d0bd 136f 513d b80f 1bbe 3a42 05be
00000160: 0c84 f6bd 21d7 fa3d ab59 94bd a1ee 7b3c
00000170: e2fa e23d ef15 ffbd 9b02 15bd 42e7 303c
00000180: 8f08 ad3d 38a9 9dbd 4b77 2dbd 0945 49bd
00000190: b005 2cbd 79b7 233d 830c e2bd 2f10 d83c
000001a0: 0042 5e3d 9706 0ebe 243c 15be 5ade 2fbd
000001b0: d5e6 493c 35ee c5bd 716b 56bd ecf6 b83d
000001c0: 84fe c7bd de55 f8bd 8cc1 573d 5c9d 55bd
000001d0: e609 55be d75d 62be 06b9 e2bd e1c7 eebd
000001e0: e02c 05be 34a3 66be dcc9 1fbd 654b 51be
000001f0: 1529 f5bc 0e27 b6bd b22c 82bc 2505 12be
00000200: f590 fdbd be79 06be b2a0 19bc 891f 12be
00000210: da49 89bd 567e 0dbe d51b 18bd b169 c8bd
00000220: 3d15 05bd 12fa e7bd ba17 ffbd ddc1 753d
00000230: 2bc8 033b 04d1 3fbd 4fce b6bc a767 39be
00000240: 8ad3 02be fc41 973c aed3 563d 1faa edbd
00000250: 1900 7d3d 53fe 68be e7a0 63bd 82ca 4ebe
00000260: 9c5c 74bd cd84 173c 84a3 863d ecd8 283d
00000270: 2cb5 a4bc 4c59 96bd 9669 373e 6b18 6bbe
00000280: 4975 15be 6b5b bcbd 566a 463c 36ce 2ebd
00000290: 68bc ebbd 28d8 9bbd 736b e33c ef15 87be
000002a0: ea74 853d 0800 00be 191f 3dbd 71c0 d6bd
000002b0: 6957 51bd 5d78 fe3d b559 d33c 937d 22bd
000002c0: 8c72 dc3c 61d0 89bc 921e 97bd 8b54 11be
000002d0: 50bf 83be 6252 e9bd 51d9 39be 0932 323d
000002e0: 7e25 91bd b93f 1f3d 8063 53bd 97a7 0f3d
000002f0: 8dd2 ab3d 23f0 14bd e8e6 40bd 54f0 80bd
00000300: 2a81 8fbd e8e2 e8bd 24ca 56be a1e7 c5bd
00000310: 802c 0cbe 0551 ec3d e852 d73d 43c5 3dbe
00000320: 9bec 10be ba10 4fbe 4c0f af3c efd6 453d
00000330: 08b5 78bd 27f2 22be 6dbd e0bd 44c3 333d
00000340: a232 ef3d 90e1 9abd d121 d7bc 1771 d8bd
00000350: 6409 773d b311 e0bc bc6e 5dbd f683 753d
00000360: dce2 223d 6cee 68be a6ad 5bbe 77c4 e63c
00000370: ab3d b8bd 8f31 0e3d abda c9bc ae54 1e3d
00000380: 5b5a a8bc de5b 493d e3b6 fdbd fb46 df3c
00000390: 5539 733d 1e88 5e3c b887 f8bc 72d1 17be
000003a0: 8c77 a23d 074c 4dbd 4158 bdbd 8319 98bd
000003b0: cef1 9fbd 7bd9 39be 0a82 3b3d c5be 673d
000003c0: 723a fa3c 7a12 bfbd 2c60 473d 7cab 503d
000003d0: 0338 4dbd 26e4 c03d 497b 423d f1c6 093d
000003e0: cc66 8ebc 4009 89bd 0e8e e63d 3755 a5bc
000003f0: 8acf b7bd 4407 58be 3727 12be f777 a7bd

fc2.weight f4 [300, 400]
0.03825654 -0.023434399 0.013177178 -0.03292487 -0.04414703 0.109205514 -0.08137857 0.042687014
0.044425536 -0.11562635 -0.017191349 -0.06361993 0.025448723 -7.183943e-05 -0.05808778 0.044494364
-0.00352949 -0.00657501 0.035699114 -0.01677558 -0.044828914 -0.08537021 0.054365005 -0.103396736
-0.0146092605 -0.034599036 0.044763323 0.009285469 0.033435173 -0.07645894 -0.04197401 -0.048463218
-0.09895629 0.005139529 -0.03110947 -0.09914139 0.05061327 -0.024007991 -0.05644981 0.10491706
-0.009775704 -0.090939075 -0.043114368 -0.04340871 0.006334707 -0.03901305 0.0019987123 -0.037474174
0.108507335 0.008462879 -0.046048872 0.06275875 0.055702563 -0.073685475 0.03555922 -0.1963342
-0.08555185 -0.03529215 0.08533706 0.038150612 -0.00772059 0.01558545 0.010442169 0.019367555
-0.012606579 -0.05972598 0.08905393 0.002035151 0.012309608 -0.07199997 -0.054798923 -0.023429262
0.034684666 -0.052344467 0.027131865 -0.08083269 -0.08737314 -0.04664618 0.01729437 0.009173559
-0.050518386 -0.037573703 -0.034292795 -0.060750894 -0.036000147 -0.0064499713 0.06716541 0.032808572
0.10258712 0.016596686 -0.04155893 0.0795326 -0.08055574 -0.05922513 -0.045012053 0.0475005
0.01988043 0.08876137 0.03573009 -0.049981683 -0.06123181 0.002239307 0.0127850175 -0.00932193
-0.06503988 -0.10503138 0.0384432 -0.0069970614 0.091089055 -0.0356432 0.004013083 -0.01826205
0.014149533 0.04273003 0.072512865 -0.0906658 0.027759684 -0.0068743704 0.048862625 0.060339034
-0.03688981 -0.06036236 0.022548381 -0.08054116 -0.052869137 -0.037799377 -0.041404925 0.075620696
0.0708397 -0.09457259 0.07106905 -0.14763702 0.042045183 0.102883205 -0.02771653 0.014911882
-0.047692146 -0.043514464 -0.07145516 0.014550648 -0.0684167 -0.09782994 0.005443284 -0.02934763
-0.0690849 -0.049682375 -0.027198268 0.033092704 0.008833587 -0.011541861 -0.05213463 -0.079224594
-0.04246418 0.039167132 0.045713697 0.048964243 -0.08809381 -0.068135805 -0.014970832 -0.004107583
0.02898855 0.011950443 -0.017632129 -0.025668249 0.022751749 0.05392514 -0.018279672 -0.12128378
0.020896662 0.05364372 0.017804092 0.038765784 -0.055698875 -0.0007872683 -0.054015417 0.015395002
0.055300225 0.07864537 -0.038438797 -0.041532077 -0.19133401 0.07613057 -0.029540928 -0.04175686
0.0029966624 -0.100770436 0.059842136 0.04442871 0.034290306 -0.032706887 -0.043683983 0.05729978
-0.0867324 -0.024961306 0.010755394 -0.019609023 -0.04190539 0.0104229925 -0.044868447 -0.0060964325
0.024298882 -0.061848953 -0.030221004 0.075554505 0.0017985302 0.021999622 0.0013466858 0.007511761
-0.17140283 -0.08427476 -0.07213513 -0.0063066515 -0.04451815 -0.03739983 0.012393453 -0.0655618
0.06877662 -0.006766247 -0.03842666 -0.011648498 -0.060828246 0.05172016 0.044821925 0.05589002
-0.053540587 -0.015028786 0.11977225 0.06911873 -0.01732839 0.05744125 -0.037027273 0.10101725
-0.039339945 0.05640359 -0.017134288 -0.008601519 -0.068985514 0.060186736 -0.02572915 -0.036697116
0.013044517 -0.03747963 0.047859397 -0.00050366804 -0.023844419 0.0745077 -0.015989376 0.045704715
-0.14658694 0.013662603 -0.041734397 0.13376772 0.0065755146 0.01964591 -0.0037686732 0.072965294
00000000: e4b2 1c3d 7ff9 bfbc 17e5 573c 3adc 06bd
00000010: 84d3 34bd 24a7 df3d cfa9 a6bd 94d8 2e3d
00000020: 8df7 353d 82cd ecbd dfd4 8cbc 2a4b 82bd
00000030: d779 d03c 80a8 96b8 74ed 6dbd b93f 363d
00000040: 044f 67bb 2e73 d7bb 3c39 123d f16c 89bc
00000050: 869e 37bd 94d6 aebd d7ad 5e3d abc1 d3bd
00000060: ae5b 6fbc b8b7 0dbd bf59 373d 1422 183c
00000070: 52f3 083d 8196 9cbd f1ec 2bbd 5e81 46bd
00000080: 98a9 cabd 7e69 a83b 4ad9 febc a40a cbbd
00000090: dc4f 4f3d 68ac c4bc ea37 67bd c1de d63d
000000a0: 462a 20bc 443e babd b198 30bd 55cd 31bd
000000b0: 6093 cf3b 26cc 1fbd d4fc 023b 857e 19bd
000000c0: 1839 de3d e3a7 0a3c be9d 3cbd a987 803d
000000d0: 5f28 643d 69e8 96bd 8ba6 113d d50b 49be
000000e0: cf35 afbd 808e 10bd 32c5 ae3d d143 1c3d
000000f0: 01fd fcbb 1e5a 7f3c a215 2b3c b5a8 9e3c
00000100: d38b 4ebc 3ba3 74bd e861 b63d 2b60 053b
00000110: 3dae 493c b874 93bd d674 60bd b9ee bfbc
00000120: 8211 0e3d 2767 56bd a543 de3c 9c8b a5bd
00000130: b0f0 b2bd 1110 3fbd ecac 8d3c b24c 163c
00000140: 5eec 4ebd e2e6 19bd 9a76 0cbd eed5 78bd
00000150: e474 13bd 485a d3bb 058e 893d 4862 063d
00000160: 3219 d23d c6f5 873c b239 2abd fde1 a23d
00000170: 68fa a4bd 0d96 72bd 8f5e 38bd e28f 423d
00000180: 49dc a23c 85c8 b53d b759 123d 98b9 4cbd
00000190: 35ce 7abd 56c1 123b 4078 513c 02bb 18bc
000001a0: a133 85bd b11a d7bd 9e76 1d3d 9b47 e5bb
000001b0: e68c ba3d 9bfe 11bd 2e80 833b 4b9a 95bc
000001c0: 71d3 673c af05 2f3d a081 943d feae b9bd
000001d0: 4768 e33c 6642 e1bb 2d24 483d 1026 773d
000001e0: c519 17bd 863e 77bd 62b7 b83c c4f2 a4bd
000001f0: 4f8d 58bd 85d3 1abd 3698 29bd 06df 9a3d
00000200: 6814 913d 46af c1bd a68c 913d 292e 17be
00000210: 9237 2c3d 6eb4 d23d c70d e3bc f750 743c
00000220: d758 43bd 393c 32bd 1557 92bd d765 6e3c
00000230: 0e1e 8cbd 105b c8bd 935d b23b 716a f0bc
00000240: 627c 8dbd bf7f 4bbd e7ce debc 378c 073d
00000250: c0ba 103c 131a 3dbc 1f8b 55bd 8140 a2bd
00000260: ecee 2dbd b76d 203d 493e 3b3d bb8e 483d
00000270: 876a b4bd c98a 8bbd 3848 75bc e798 86bb
00000280: 6579 ed3c cacb 433c 4171 90bc 3846 d2bc
00000290: e061 ba3c 9ce0 5c3d 40bf 95bc a163 f8bd
000002a0: 7a2f ab3c 84b9 5b3d e3d9 913c dfc8 1e3d
000002b0: 8124 64bd ae60 4eba 453f 5dbd 523b 7c3c
000002c0: 7d82 623d d310 a13d 0072 1dbd 8a1d 2abd
000002d0: 10ed 43be 58ea 9b3d d1ff f1bc 3e09 2bbd
000002e0: a763 443b bb60 cebd 071d 753d e1fa 353d
000002f0: fe73 0c3d a8f7 05bd faed 32bd 2db3 6a3d
00000300: c2a0 b1bd a77b ccbc 6437 303c 1aa3 a0bc
00000310: fca4 2bbd 33c5 2a3c fac7 37bd 95c4 c7bb
00000320: 730e c73c 5455 7dbd 0a92 f7bc 52bc 9a3d
00000330: a9bc eb3a 8d38 b43c 4783 b03a 3825 f63b
00000340: 3984 2fbe 3f98 acbd 95bb 93bd 07a8 cebb
00000350: aa58 36bd 9030 19bd e90d 4b3c 4445 86bd
00000360: c2da 8c3d 65b7 ddbb 4665 1dbd 57d9 3ebc
00000370: 0a27 79bd 85d8 533d 3297 373d efec 643d
00000380: 604d 5bbd 4c3b 76bc 274b f53d 1f8e 8d3d
00000390: 45f4 8dbc 8447 6b3d e9a9 17bd 22e2 ce3d
000003a0: ec22 21bd 7307 673d 355d 8cbc 63ed 0cbc
000003b0: 4748 8dbd 5e86 763d f0c5 d2bc b74f 16bd
000003c0: abb8 553c 3e84 19bd 3708 443d 9708 04ba
000003d0: 5f55 c3bc 7e97 983d 27fc 82bc de34 3b3d
000003e0: e31a 16be 1cd9 5f3c b0f1 2abd 68fa 083e
000003f0: 6a77 d73b 76f0 a03c d8fb 76bb d46e 953d

fc2.bias f4 [300]
-0.060898248 -0.11820196 -0.04524971 -0.058282413 -0.14027508 -0.06825598 -0.07668943 -0.13065468
-0.081810504 -0.049479626 -0.02003993 -0.073731184 -0.053908575 -0.099038094 -0.073778965 -0.074776545
-0.05765606 -0.11980252 -0.11842755 -0.08948927 -0.13620248 -0.036463954 -0.09176079 -0.0014815935
-0.06573599 -0.14520556 -0.021844458 -0.11926816 -0.09675137 -0.051796354 -0.023772007 -0.11556495
-0.07120023 -0.046079695 -0.013194891 -0.13853464 -0.014469616 -0.09322787 -0.14431143 -0.03731184
-0.027940722 -0.116594635 -0.017489444 -0.057455312 -0.08022633 -0.113685206 -0.1486384 -0.059461184
-0.10451132 -0.12024001 -0.0859953 -0.12820761 -0.11978636 -0.14195183 -0.0685572 -0.059268195
-0.1025239 -0.014061108 -0.081990026 -0.102904424 -0.11876713 -0.03797048 -0.036553558 -0.08312421
-0.10480687 -0.13265142 -0.020815374 -0.109298095 -0.07463552 -0.13019826 -0.025285292 -0.096781686
-0.11054675 -0.11188637 -0.12813476 -0.11887395 -0.12707186 -0.108349234 -0.15218739 -0.14985202
-0.07730286 -0.06748991 -0.03101127 -0.121227205 -0.05431022 -0.007857453 -0.0947364 -0.11210958
-0.123496346 -0.094193436 -0.10228942 -0.14330284 -0.010117786 -0.07925461 -0.07782847 -0.14056434
-0.1196772 -0.05552419 -0.05692327 -0.102484725 -0.08469005 -0.08579313 -0.075773254 -0.10705149
-0.056932278 -0.08186474 -0.08303921 -0.09312821 0.0013857473 -0.034318853 -0.10195506 -0.13310584
-0.011955255 -0.02850983 -0.0738262 -0.050756335 -0.073906496 -0.112015426 -0.063696645 -0.064078346
-0.08281716 -0.10055629 -0.1435 -0.120742016 -0.09409109 -0.056154482 -0.096558675 -0.08101108
-0.054602996 -0.06785972 -0.06803729 -0.0949635 -0.08539111 -0.051069677 -0.05290684 -0.023633715
-0.15111685 -0.084413856 -0.09961206 -0.07250346 -0.07972743 -0.08181491 -0.027485989 -0.048348933
-0.08950976 -0.030694671 -0.06390211 -0.091887884 -0.05134141 -0.1463001 -0.06668718 -0.07472827
-0.07132426 -0.06496904 -0.04267761 -0.045244522 -0.07589932 -0.076827 -0.045505844 -0.079962224
-0.045352925 -0.050446283 -0.119360164 -0.089686655 -0.07279113 -0.10412808 -0.1311298 -0.059163664
-0.08812007 -0.11365524 0.02051673 -0.120673485 -0.097498484 -0.09552287 -0.07924752 -0.12896423
-0.057946455 -0.058394827 -0.09546995 -0.08181485 -0.06570495 -0.08659417 -0.08880787 -0.00012541463
-0.0969234 -0.09681335 -0.1130206 -0.07872633 -0.13271427 -0.11347216 -0.08079758 -0.13259664
-0.08386478 -0.124972336 -0.07513782 -0.059311245 -0.06636522 -0.14269078 -0.1321312 -0.12422917
-0.13440864 -0.036151346 -0.037789658 -0.032694682 -0.1416192 -0.09813202 -0.11234831 -0.04801843
-0.06896712 -0.09731264 -0.087016955 -0.10681439 0.021053506 -0.102081046 -0.11413625 -0.08125672
-0.08235419 -0.1391359 -0.11806076 -0.09216491 -0.07469379 -0.05589728 -0.10623677 -0.042386822
-0.12057232 -0.13659328 -0.04652425 -0.06573282 -0.0066442634 -0.098088466 -0.02471497 -0.042762067
-0.09591015 -0.03362024 -0.10952813 -0.0660973 -0.11142789 -0.107878625 -0.054954674 -0.09013057
-0.06484695 -0.13004224 -0.02967891 -0.015061101 -0.105561055 -0.124844484 -0.06804352 -0.103709675
-0.04068671 -0.083199866 -0.11088419 -0.0987748 -0.12729761 -0.10733217 -0.070000604 -0.07859003
00000000: 7170 79bd df13 f2bd c357 39bd 8ab9 6ebd
00000010: 45a4 0fbe cbc9 8bbd 590f 9dbd 57ca 05be
00000020: 448c a7bd 26ab 4abd c72a a4bc 6000 97bd
00000030: 3dcf 5cbd 7cd4 cabd 6d19 97bd 7224 99bd
00000040: c328 6cbd 065b f5bd 258a f2bd 2646 b7bd
00000050: aa78 0bbe 3a5b 15bd 15ed bbbd 0732 c2ba
00000060: 97a0 86bd c4b0 14be 26f3 b2bc dd42 f4bd
00000070: 9525 c6bd 6a28 54bd 83bd c2bc 51ad ecbd
00000080: 6dd1 91bd 10be 3cbd 622f 58bc 06dc 0dbe
00000090: f811 6dbc 41ee bebd 60c6 13be 4dd4 18bd
000000a0: f1e3 e4bc 2bc9 eebd 0646 8fbc 4356 6bbd
000000b0: b44d a4bd cad3 e8bd aa34 18be 928d 73bd
000000c0: 080a d6bd 6540 f6bd 4e1e b0bd db48 03be
000000d0: 8d52 f5bd d25b 11be b867 8cbd 35c3 72bd
000000e0: 0df8 d1bd 9060 66bc 63ea a7bd 8ebf d2bd
000000f0: 2e3c f3bd ef86 1bbd 2fb9 15bd 073d aabd
00000100: fca4 d6bd c6d5 07be 0185 aabc aed7 dfbd
00000110: 82da 98bd b152 05be 1a23 cfbc 7a35 c6bd
00000120: 5666 e2bd ae24 e5bd c235 03be 2f74 f3bd
00000130: 201f 02be 34e6 ddbd 03d7 1bbe cf72 19be
00000140: f650 9ebd 2638 8abd 590b febc f845 f8bd
00000150: 6574 5ebd 8cbc 00bc 2805 c2bd b599 e5bd
00000160: a7eb fcbd 7de8 c0bd 1e7d d1bd fbbd 12be
00000170: 12c5 25bc 3e50 a2bd 8864 9fbd 19f0 0fbe
00000180: 5219 f5bd 556d 63bd 6028 69bd 83e3 d1bd
00000190: fa71 adbd 4fb4 afbd 022f 9bbd d03d dbbd
000001a0: d231 69bd b3a8 a7bd 7610 aabd 01ba bebd
000001b0: f7a1 b53a ed91 0cbd d1cd d0bd e64c 08be
000001c0: f9df 43bc 728d e9bc 3132 97bd e0e5 4fbd
000001d0: 4a5c 97bd 5868 e5bd 6373 82bd 823b 83bd
000001e0: 0b9c a9bd 75f0 cdbd aaf1 12be 9747 f7bd
000001f0: d4b2 c0bd 3e02 66bd 8ec0 c5bd 23e9 a5bd
00000200: 64a7 5fbd 09fa 8abd 2257 8bbd 397c c2bd
00000210: 89e1 aebd 702e 51bd d8b4 58bd 7e9b c1bc
00000220: 60be 1abe 2ce1 acbd 6801 ccbd b27c 94bd
00000230: 2348 a3bd 938e a7bd 4c2a e1bc 8809 46bd
00000240: e550 b7bd 6473 fbbc 1cdf 82bd b72f bcbd
00000250: 5f4b 52bd b2cf 15be 4a93 88bd 230b 99bd
00000260: 7412 92bd 7d0e 85bd b8ce 2ebd 5252 39bd
00000270: 1a71 9bbd 7957 9dbd 5664 3abd 3cc3 a3bd
00000280: fdc3 39bd c3a0 4ebd 1a73 f4bd a3ad b7bd
00000290: 8413 95bd 1a41 d5bd e446 06be 9955 72bd
000002a0: 4c78 b4bd 14c4 e8bd b412 a83c a923 f7bd
000002b0: 49ad c7bd 7fa1 c3bd 864c a2bd 330f 04be
000002c0: 4359 6dbd 6a2f 6fbd c085 c3bd 8b8e a7bd
000002d0: 5190 86bd 4958 b1bd e7e0 b5bd bc81 03b9
000002e0: c77f c6bd 1446 c6bd 5877 e7bd 453b a1bd
000002f0: 40e6 07be 1864 e8bd 3479 a5bd 6ac7 07be
00000300: 4cc1 abbd 7ff1 ffbd dbe1 99bd 59f0 72bd
00000310: 7dea 87bd 881d 12be 674d 07be dd6b febd
00000320: 6ba2 09be 6f13 14bd 54c9 1abd dcea 05bd
00000330: a004 11be 71f9 c8bd df16 e6bd f9ae 44bd
00000340: a23e 8dbd d94b c7bd f235 b2bd 81c1 dabd
00000350: 6778 ac3c de0f d1bd 44c0 e9bd ec69 a6bd
00000360: 50a9 a8bd a479 0ebe d7c9 f1bd f5c0 bcbd
00000370: 0ff9 98bd 8cf4 64bd aa92 d9bd ce9d 2dbd
00000380: 9fee f6bd 1cdf 0bbe 3690 3ebd ee9e 86bd
00000390: 1fb8 d9bb 9be2 c8bd 0c77 cabc 4727 2fbd
000003a0: 8a6c c4bd 60b5 09bd 4950 e0bd 055e 87bd
000003b0: 4e34 e4bd 78ef dcbd 2718 61bd 6096 b8bd
000003c0: 7ace 84bd cb29 05be 2f21 f3bc d6c2 76bc
000003d0: 6530 d8bd 77ae ffbd 675a 8bbd bd65 d4bd
000003e0: 1ca7 26bd b164 aabd 4017 e3bd 714a cabd
000003f0: 4e5a 02be f8d0 dbbd 7a5c 8fbd cff3 a0bd

fc3.weight f4 [1, 300]
0.0073451004 -0.012635573 -0.012087633 0.008730302 -0.018183235 0.017194001 0.006565699 0.017653566
0.014458626 0.018242907 0.0062948465 -0.02313417 -0.026484584 0.012894937 -0.02639019 -0.007661338
-0.0063519813 0.013831927 -0.01583207 -0.016806649 0.036101084 0.0027049137 0.041840814 -0.008289221
-0.009414547 0.019663868 0.0040255333 0.008871386 -0.017484875 -0.0084132785 -0.025787586 0.0011430422
0.0072314125 0.009678189 0.021201195 0.023859903 0.008924636 -0.011071353 -0.029959109 0.023336885
-0.007573056 0.004778119 -0.012300568 0.007983327 0.008201681 0.023656957 -0.0092703635 -0.008016579
0.0013191078 0.020716762 -0.03119914 0.008317513 0.009310853 0.011909888 0.007375565 0.01221701
-0.041422457 0.013122279 -0.00899857 0.019379525 -0.019863619 0.009967475 0.010694009 0.0074637155
0.029304888 0.018946119 -0.011695772 -0.011781873 -0.014808124 0.02642136 -0.013186163 0.0027180966
-0.015443056 0.026497733 -0.017834928 0.042581353 0.008682983 0.0035057517 0.025351577 0.020104188
0.009870967 0.021872062 -0.005428936 0.026639888 -0.00042707624 -0.017662594 0.02118647 -0.012800114
0.012739424 -0.006553823 -0.044584688 0.027656687 -0.0057551814 -0.008224864 -0.01631206 0.017837528
0.0416813 0.009932655 -0.010846997 0.0053864927 0.022186927 -0.0017963263 -0.021459522 0.020493682
-0.030474406 -0.008140748 -0.012202033 -0.018957037 0.0069276756 -0.0062924917 -0.0058371993 0.023962762
0.00634027 -0.007965883 0.014615029 -0.005109934 0.005472172 -0.01862737 0.0059354384 -0.0035151101
-0.023688033 0.011939783 0.006776088 -0.008671144 -0.028721727 -0.02304793 -0.0356833 -0.012486823
0.013830146 -0.011179777 -0.0074001346 -0.012024736 0.006641962 -0.008854015 -0.0066807442 -0.007227848
-0.02691042 -0.014824193 0.01693541 -0.012662486 -0.004718843 -0.016738577 -0.012097584 -0.01823076
0.010390783 0.016794018 -0.016984701 0.008493201 -0.014510689 -0.014716214 -0.010982729 0.0077940263
0.010074562 0.01418279 -0.0137525685 -0.024647843 -0.028428737 0.022764364 0.011173608 -0.041751247
-0.008886872 0.0072131767 0.005833248 -0.017616313 -0.008359003 -0.0065755704 0.015526095 -0.0063763727
-0.014600788 0.019490171 -0.006248677 -0.0034829054 -0.009809188 -0.0094627105 0.012125882 0.014686335
0.01739326 -0.021128349 0.063425355 -0.011640247 -0.017621627 -0.015226966 0.00686275 0.005706557
-0.002175615 0.017086504 0.012808719 0.015318935 -0.012747757 0.016299278 0.008296938 0.012084476
-0.011270921 -0.011496906 -0.016090997 0.009234389 -0.008664596 0.013214628 -0.013432951 -0.014531204
0.043098163 0.008507518 0.012074811 -0.009784146 -0.03246181 0.007075996 -0.027317556 -0.0092457505
-0.010260238 -0.0063277236 0.0026057581 0.008874448 -0.0047339103 0.033588212 -0.009434186 0.00708167
-0.0073019806 0.04261034 0.01213894 -0.008945891 -0.0099832 0.01691688 -0.009124344 0.018438268
-2.3615583e-05 0.024257068 0.008174015 0.0047968677 0.015481036 -0.013040552 -0.009240587 -0.017840188
-0.0133422455 -0.012738303 -0.0070717083 -0.0069036447 -0.015075435 0.0107167605 0.033803705 -0.010403023
0.012861851 0.026221449 -0.01229618 -0.012561814 -0.003846493 0.030856643 0.006578931 0.011645973
-0.011923116 -0.013197401 0.011621696 -0.005090679 0.022316745 -0.013935816 0.032640323 -0.008873658
00000000: 2baf f03b 6f05 4fbc 350b 46bc 8a09 0f3c
00000010: 02f5 94bc 6fda 8c3c 1325 d73b 369e 903c
00000020: dfe3 6c3c 2672 953c 0045 ce3b df83 bdbc
00000030: 33f6 d8bc 4945 533c 3d30 d8bc f60b fbbb
00000040: 4824 d0bb 4f9f 623c 42b2 81bc 19ae 89bc
00000050: bbde 133d ec44 313b 4661 2b3d 83cf 07bc
00000060: 793f 1abc 1f16 a13c 9fe8 833b 4a59 113c
00000070: 713c 8fbc d9d7 09bc 7d40 d3bc 22d2 953a
00000080: 7cf5 ec3b 4491 1e3c 21ae ad3c d875 c33c
00000090: a338 123c 9f64 35bc ce6c f5bc ff2c bf3c
000000a0: 6627 f8bb c491 9c3b 5288 49bc 80cc 023c
000000b0: 5860 063c 3ccc c13c b9e2 17bc f857 03bc
000000c0: eae5 ac3a 33b6 a93c 5795 ffbc 2e46 083c
000000d0: 8c8c 183c b121 433c b9ae f13b db29 483c
000000e0: 98aa 29bd d4fe 563c bd6e 13bc cfc1 9e3c
000000f0: 07b9 a2bc 9f4e 233c ed35 2f3c 2f92 f43b
00000100: ce10 f03c e434 9b3c a09f 3fbc c208 41bc
00000110: c69d 72bc 9c71 d83c c70a 58bc 1822 323b
00000120: df04 7dbc c611 d93c 8e1a 92bc c969 2e3d
00000130: 1243 0e3c c1c0 653b 1cae cf3c 8ab1 a43c
00000140: d6b9 213c 0a2d b33c 37e5 b1bb e53b da3c
00000150: 34e9 dfb9 25b1 90bc 3f8f ad3c 92b7 51bc
00000160: 04b9 503c 74c1 d6bb 6f9e 36bd 4790 e23c
00000170: f695 bcbb 94c1 06bc dfa0 85bc 0220 923c
00000180: 03ba 2a3d 93bc 223c 9ab7 31bc 2d81 b03b
00000190: 5cc1 b53c b572 ebba e1cb afbc 5ee2 a73c
000001a0: 76a5 f9bc c660 05bc 09eb 47bc ca4b 9bbc
000001b0: 8e01 e33b 3f31 cebb fa45 bfbb 8e4d c43c
000001c0: 0ac2 cf3b 5683 02bc e073 6f3c 3c71 a7bb
000001d0: e84f b33b 6d98 98bc 117e c23b c35d 66bb
000001e0: 680d c2bc 149f 433c f209 de3b 6a11 0ebc
000001f0: d449 ebbc 03cf bcbc a728 12bd 8895 4cbc
00000200: d697 623c 622b 37bc d47c f2bb 6603 45bc
00000210: d1a4 d93b 6e10 11bc 25ea dabb 95d7 ecbb
00000220: 3e73 dcbc 2ce1 72bc 21bc 8a3c 5176 4fbc
00000230: 86a0 9abb 571f 89bc f234 46bc ad58 95bc
00000240: 1a3e 2a3c 9c93 893c 8023 8bbc 1127 0b3c
00000250: 3ebe 6dbc 461c 71bc e7f0 33bc 0865 ff3b
00000260: c70f 253c ef5e 683c 7452 61bc 46ea c9bc
00000270: 62e3 e8bc 557c ba3c 8211 373c 5b03 2bbd
00000280: 3e9a 11bc 835c ec3b d524 bf3b 1650 90bc
00000290: 33f4 08bc e277 d7bb 2a61 7e3c e4f0 d0bb
000002a0: 2538 6fbc daa9 9f3c b4c1 ccbb 7541 64bb
000002b0: b7b6 20bc 7c09 1bbc a3ab 463c f49e 703c
000002c0: 4f7c 8e3c 5c15 adbc 27e5 813d bcb6 3ebc
000002d0: 3b5b 90bc 867a 79bc ebe0 e03b 12fe ba3b
000002e0: c394 0ebb fff8 8b3c a9db 513c 45fc 7a3c
000002f0: f8db 50bc 1086 853c e1ef 073c f7fd 453c
00000300: aba9 38bc 855d 3cbc 44d1 83bc d64b 173c
00000310: f3f5 0dbc 2b82 583c e115 5cbc 4914 6ebc
00000320: b387 303d 1e63 0b3c 6ed5 453c af4d 20bc
00000330: adf6 04bd c2dd e73b 11c9 dfbc 7d7b 17bc
00000340: 8f1a 28bc cb58 cfbb 5ec5 2a3b 2266 113c
00000350: eb1e 9bbb cb93 093d d891 1abc 5b0d e83b
00000360: 7445 efbb 2e88 2e3d 68e2 463c c991 12bc
00000370: 9390 23bc 4595 8a3c 467e 15bc da0b 973c
00000380: 141a c6b7 c2b6 c63c 4eec 053c 0b2f 9d3b
00000390: 2ca4 7d3c 0aa8 55bc d565 17bc 9625 92bc
000003a0: 6f99 5abc 51b4 50bc cab9 e7bb f837 e2bb
000003b0: f5fe 76bc 5a95 2f3c c175 0a3d 7171 2abc
000003c0: 83ba 523c 5dce d63c eb75 49bc 11d0 4dbc
000003d0: 7215 7cbb 12c7 fc3c 1394 d73b c0ce 3e3c
000003e0: 2c59 43bc e939 58bc ed68 3e3c b6cf a6bb
000003f0: 9bd1 b63c 0c53 64bc dcb1 053d d262 11bc

bn1.weight f4 [400]
0.41822347 0.5501437 0.49077037 0.69350743 0.4343636 -0.14297622 0.6836465 0.59390867
0.17721286 0.8722632 0.46644124 1.0330217 0.0827278 0.59542114 0.6551915 0.42559725
0.13645017 0.3713311 0.6686007 0.06106505 0.6327667 0.1663818 0.7387689 0.2738951
0.35214776 0.4902126 0.9891598 0.4927867 0.112635106 0.22778486 0.31000054 0.5649979
0.7086214 0.6315064 0.9030531 0.7259718 0.26621965 0.4142243 0.21756892 0.42287177
0.8385804 0.32578123 0.11137095 0.19639653 0.08229437 0.35047933 0.1974623 0.46937153
0.33679914 0.5563119 0.31063098 0.6539586 0.4112768 0.6550358 0.04025976 0.14601558
0.4374681 0.5757722 0.6732552 0.7631701 0.5052286 0.3121533 0.20418984 0.039153166
0.1449988 0.380949 0.41576868 0.67477167 0.25563386 0.44338492 0.025388693 0.4094934
0.50046295 0.4257613 0.5996487 0.24362849 0.3861275 0.6433403 0.5459623 0.62396246
0.08236163 0.34440878 0.4077629 0.4293731 0.5051913 0.13594885 0.64902717 0.3838885
0.119093984 0.6277628 0.52754176 0.89885896 0.17150411 0.39364186 0.36568522 0.30346516
0.7770326 0.018371375 0.29637727 0.50468355 0.4876508 0.6039582 0.37898475 0.3592713
0.6312929 0.122646354 0.5830913 0.60649216 0.26935548 0.31798622 0.07862995 0.57267076
0.2776206 0.386983 0.5135884 0.06694475 0.5939961 0.315378 0.0578399 0.62869245
0.48230875 0.17900826 0.3247057 0.5982195 -0.04293369 0.28358528 0.0013112104 0.37581697
0.42343166 0.064180575 0.010200467 0.29205748 0.12353505 1.0733852 0.65911627 0.53865284
0.4487546 0.13230683 0.4377174 0.32456845 0.41738245 0.46391732 0.09605862 0.66679287
0.35884172 0.2549566 0.22038712 0.22290786 0.34378627 0.6452245 0.12990393 0.33011276
0.26153874 0.4221131 0.35699597 0.62769836 0.13027065 0.15917085 0.770407 0.067368664
0.5108794 0.8748233 0.65661246 0.23286192 0.35004935 0.43233588 0.62601435 0.23514795
0.4042045 0.59416395 0.29166323 0.15724301 0.30066657 0.08975753 0.5113691 0.37117633
0.4418093 0.24528508 0.49211857 0.09130146 0.3156306 0.56311166 0.57614994 0.27927315
0.29761794 0.58322346 0.8291125 0.155736 0.71032894 0.13257873 0.3004011 0.2206749
0.35617372 0.5634253 0.25293538 0.25153166 0.5400928 0.20012446 0.4221511 0.6409957
0.5296562 0.41679806 0.038842853 0.2744013 0.45415568 0.5307395 0.2828125 0.17550488
0.50944984 0.457717 0.40671328 0.35545802 0.27641943 0.64713025 0.6261113 0.32107633
0.37572864 0.25107962 0.73938024 0.15478538 0.3931679 0.3634006 -0.023234123 0.101208106
0.31652617 0.004071093 0.21052635 0.6488043 0.37283102 0.43732876 0.31969464 0.24340947
0.16368413 0.25713345 0.4346957 0.6920546 0.5733185 0.28668585 0.41471028 0.40266037
0.2276661 0.39430144 0.21697165 0.03695303 0.6871995 0.4624326 0.017635206 0.3234166
0.16145083 0.40770534 0.6680438 0.48383558 0.49687338 0.17457192 0.3650545 0.2991309
00000000: 6321 d63e 38d6 0c3f 4146 fb3e b489 313f
00000010: e864 de3e 5c68 12be 7503 2f3f 660a 183f
00000020: 4a77 353e a44c 5f3f 63d1 ee3e 0e3a 843f
00000030: 316d a93d 856d 183f a1ba 273f e2e7 d93e
00000040: 98b9 0b3e 1c1f be3e 6a29 2b3f 591f 7a3d
00000050: 00fd 213f fe5f 2a3e f51f 3d3f fb3b 8c3e
00000060: b64c b43e 25fd fa3e 9439 7d3f 8a4e fc3e
00000070: 3cad e63d 6f40 693e 64b8 9e3e b4a3 103f
00000080: 3668 353f 67aa 213f 7d2e 673f 4ad9 393f
00000090: f14d 883e 3515 d43e 63ca 5e3e a682 d83e
000000a0: 35ad 563f cccc a63e 7416 e43d 2c1c 493e
000000b0: f389 a83d 0772 b33e 8f33 4a3e 7751 f03e
000000c0: f070 ac3e 756a 0e3f 060b 9f3e d569 273f
000000d0: df92 d23e 6db0 273f 6be7 243d 1c85 153e
000000e0: d2fb df3e cf65 133f 745a 2c3f 1e5f 433f
000000f0: a956 013f 8fd2 9f3e 2417 513e 125f 203d
00000100: 917a 143e bf0b c33e a2df d43e d6bd 2c3f
00000110: 71e2 823e 5903 e33e f3fb cf3c 1ea9 d13e
00000120: 571e 003f 63fd d93e 9482 193f bf79 793e
00000130: 81b2 c53e f3b1 243f 2fc4 0b3f 01bc 1f3f
00000140: 37ad a83d 5956 b03e 4dc6 d03e cad6 db3e
00000150: 3854 013f 2d36 0b3e a526 263f 098d c43e
00000160: 8ce7 f33d 10b5 203f fa0c 073f 9f1b 663f
00000170: c69e 2f3e 6d8b c93e 183b bb3e c95f 9b3e
00000180: 9ceb 463f 917f 963c c3be 973e f132 013f
00000190: 5ead f93e 019d 1a3f 4a0a c23e 68f2 b73e
000001a0: 699c 213f 032e fb3d 7945 153f 1243 1b3f
000001b0: f6e8 893e 17cf a23e bd08 a13d 8d9a 123f
000001c0: 4a24 8e3e a322 c63e 887a 033f 541a 893d
000001d0: 2110 183f 3a79 a13e 88e9 6c3d fdf1 203f
000001e0: 2cf1 f63e f14d 373e d33f a63e ea24 193f
000001f0: 3ddb 2fbd 1732 913e ecdc ab3a 156b c03e
00000200: 09cc d83e 1b71 833d dc1f 273c 8f88 953e
00000210: f2ff fc3d b064 893f d8bb 283f 27e5 093f
00000220: 2ac3 e53e 717b 073e 7f1c e03e d62d a63e
00000230: 27b3 d53e 9286 ed3e 62ba c43d f0b2 2a3f
00000240: 1aba b73e ac89 823e 29ad 613e f541 643e
00000250: c104 b03e 6f2d 253f 8905 053e 8a04 a93e
00000260: 68e8 853e 351f d83e 2dc8 b63e d7b0 203f
00000270: ab65 053e affd 223e 6539 453f 95f8 893d
00000280: fec8 023f 6bf4 5f3f c117 283f 5b73 6e3e
00000290: ab39 b33e 215b dd3e 7a42 203f a0ca 703e
000002a0: e4f3 ce3e 211b 183f e254 953e 5004 213e
000002b0: f8f0 993e ccd2 b73d 16e9 023f d30a be3e
000002c0: d434 e23e 032c 7b3e f7f6 fb3e 43fc ba3d
000002d0: 569a a13e 1628 103f 907e 133f e4fc 8e3e
000002e0: 6161 983e 224e 153f b840 543f 4279 1f3e
000002f0: 1ed8 353f b8c2 073e 2cce 993e 9af8 613e
00000300: 675c b63e a43c 103f bf80 813e c2c8 803e
00000310: 8643 0a3f 6ded 4c3e 3024 d83e 4b18 243f
00000320: 8c97 073f 8e66 d53e af19 1f3d 547e 8c3e
00000330: 1887 e83e 8bde 073f cdcc 903e 8db7 333e
00000340: 4e6b 023f e259 ea3e b93c d03e 98fe b53e
00000350: d986 8d3e 54aa 253f d548 203f 1e64 a43e
00000360: 815f c03e 828d 803e 0648 3d3f 0f80 1e3e
00000370: 4e4d c93e a50f ba3e 7d55 bebc 3246 cf3d
00000380: b80f a23e ce66 853b 3894 573e 0a18 263f
00000390: b5e3 be3e 8ee9 df3e 04af a33e 5540 793e
000003a0: d09c 273e ffa6 833e 6f90 de3e 7e2a 313f
000003b0: 00c5 123f 7dc8 923e e854 d43e 8029 ce3e
000003c0: 4d21 693e e1e1 c93e d12d 5e3e 0f5c 173d
000003d0: 4eec 2f3f f7c3 ec3e b577 903c dc96 a53e
000003e0: 5e53 253e c1be d03e eb04 2b3f 4cb9 f73e
000003f0: 3066 fe3e fbc2 323e 6ce8 ba3e af27 993e

bn1.bias f4 [400]
0.04013593 0.17391863 -0.07309462 0.2285058 0.09119681 -0.11939864 0.18577914 0.029947031
0.04662275 0.3319145 0.11855305 0.084366955 0.06520476 0.07590389 0.21284741 0.13603896
0.09462769 0.23295398 0.08222993 0.018639851 0.24011157 0.058839865 0.22744992 0.032262724
-0.035850514 0.07164173 0.030286618 0.21000968 0.029059496 0.031025516 0.29481536 0.08804588
0.22403294 0.26122242 0.06916905 0.07019735 0.06569825 0.16647694 0.06388902 0.09570095
0.10688581 0.07092949 0.1672166 0.032787476 0.10745009 0.15970883 0.0559677 0.11444693
-0.042346142 0.14789575 0.089431986 -0.02323018 0.14781082 0.1605852 -0.07687608 0.031543087
0.23823068 0.012368332 0.011107904 0.2087358 0.12832943 -0.02475238 0.046147685 0.05986809
0.26822117 0.13220078 -0.0045113005 0.25892743 0.05465857 -0.011210775 0.21590412 0.2108848
-0.046189137 0.07166482 0.09007315 0.028791552 0.15750325 0.25258127 0.23106827 -0.07960963
0.022521459 0.024479121 0.09272123 0.052902784 0.18175672 0.0968984 0.024622874 -0.029056607
0.019779965 -0.08152251 0.16414237 0.15439004 0.10444078 0.06970941 0.13672319 0.09750076
0.27000096 -0.19303976 -0.032628585 0.0058553154 0.15817319 0.25596023 0.18229958 0.093638174
0.13100325 0.024965579 0.09119782 0.15405057 0.04750041 0.091064475 0.15844987 0.084863454
0.025193524 0.060853004 0.1666309 0.28936994 0.15015714 0.1125945 -0.003736229 -0.06377773
0.026273409 0.052944995 0.04275011 0.0072005144 0.22692592 0.039794102 -0.027129391 0.1247652
0.18692434 0.27184087 -0.13539593 0.10333762 0.06848005 0.096987024 0.08474243 0.06558683
0.064051375 0.105531126 0.052270446 0.17071311 0.02624699 0.17454265 -0.03816584 0.19534528
0.16386995 0.06686856 0.04504285 0.13116546 0.13564618 0.0859031 0.024963941 0.087767996
0.10571609 0.08517234 0.08743111 -0.009938901 0.11185766 0.3051091 0.13385345 0.166698
0.11912743 0.2078416 0.20658329 0.06464505 0.22635005 0.10339174 0.22334626 0.1630129
0.010132559 0.22264689 0.00736991 0.083847135 0.036246486 0.16232978 0.061760534 0.10234139
0.0993441 0.09169833 0.05917718 -0.052075267 0.03327622 0.17653605 0.08625786 -0.028111236
0.079744525 0.13350148 0.041533053 0.08087081 0.087585166 -0.0035768356 0.12825607 0.061445307
0.025210122 0.044444826 0.055027876 0.06813569 0.13716367 0.0055101314 -0.016941238 0.115630135
0.19171615 0.28837278 0.26038897 0.033410635 0.15068987 0.15495697 0.035931055 -0.0040370338
0.03638947 0.13488837 0.09208743 0.098461114 0.01499276 0.20526953 0.06837993 0.058931492
0.044120133 0.10851592 0.036320165 0.012025011 0.06524742 -0.011736103 -0.1455011 -0.18957388
0.06553109 0.0002329082 0.061290115 0.17488107 0.10295868 0.02937364 0.016165249 0.1163022
0.033580896 0.006362487 0.018605737 0.27934825 0.20400676 0.04819594 0.08183259 0.15243667
0.13104557 0.06113965 0.14552976 0.08344995 0.13848813 0.17653427 -0.052703075 -0.017835869
0.046965294 0.17054304 0.09551213 -0.0045520677 0.17443648 0.27902827 0.0938498 0.07815868
00000000: 9365 243d ba17 323e a2b2 95bd 6dfd 693e
00000010: 65c5 ba3d 4687 f4bd e33c 3e3e 7a53 f53c
00000020: 7ff7 3e3d b3f0 a93e f1cb f23d 95c8 ac3d
00000030: 138a 853d 8073 9b3d acf4 593e cc4d 0b3e
00000040: 2acc c13d 7d8b 6e3e 2a68 a83d 9ab2 983c
00000050: cfdf 753e 1202 713d a2e8 683e eb25 043d
00000060: fdd7 12bd e6b8 923d a41b f83c c70c 573e
00000070: 2e0e ee3c 3929 fe3c 0af2 963e 6651 b43d
00000080: e468 653e f2be 853e 81a8 8d3d a1c3 8f3d
00000090: ce8c 863d ee78 2a3e 3fd8 823d dcfe c33d
000000a0: f3e6 da3d 7b43 913d d43a 2b3e 294c 063d
000000b0: cb0e dc3d b68a 233e 633e 653d 2763 ea3d
000000c0: 2673 2dbd fc71 173e 1e28 b73d 384d bebc
000000d0: b85b 173e 7270 243e 3571 9dbd 5333 013d
000000e0: bef2 733e 8ba4 4a3c edfd 353c d6be 553e
000000f0: ca68 033e 81c5 cabc 5b05 3d3d 3e38 753d
00000100: 4954 893e a45f 073e 88d3 93bb 2392 843e
00000110: aae1 5f3d 66ad 37bc f815 5d3e 2ff2 573e
00000120: d230 3dbd 01c5 923d 4678 b83d 43dc eb3c
00000130: 8848 213e 5552 813e 299d 6c3e 600a a3bd
00000140: ec7e b83c 7088 c83c a1e4 bd3d 97b0 583d
00000150: 6f1e 3a3e ab72 c63d e9b5 c93c 1f08 eebc
00000160: 9809 a23c 46f5 a6bd f014 283e 6c18 1e3e
00000170: 0ce5 d53d cfc3 8e3d 2a01 0c3e 7aae c73d
00000180: 913d 8a3e 37ac 45be 8da5 05bd f2dd bf3b
00000190: 27f8 213e 380d 833e beac 3a3e 5fc5 bf3d
000001a0: b725 063e 9d84 cc3c ecc5 ba3d 6fbf 1d3e
000001b0: ca8f 423d 0380 ba3d af40 223e e4cc ad3d
000001c0: a662 ce3c 0041 793d 4aa1 2a3e 4c28 943e
000001d0: cbc2 193e f297 e63d 85db 74bb e69d 82bd
000001e0: 553b d73c dadc 583d bd1a 2f3d 4bf2 eb3b
000001f0: 455f 683e 24ff 223d 753e debc e684 ff3d
00000200: 1869 3f3e ba2e 8b3e 3ba5 0abe ada2 d33d
00000210: 453f 8c3d 22a1 c63d 708d ad3d 6352 863d
00000220: 5e2d 833d b420 d83d 8919 563d 6bcf 2e3e
00000230: ed03 d73c 4fbb 323e c953 1cbd 9808 483e
00000240: 86cd 273e 62f2 883d da7e 383d 3d50 063e
00000250: d5e6 0a3e f7ed af3d 2e81 cc3c b5bf b33d
00000260: ad81 d83d d66e ae3d 150f b33d c6d6 22bc
00000270: a115 e53d 4337 9c3e e110 093e e1b2 2a3e
00000280: 15f9 f33d 6ed4 543e 928a 533e a064 843d
00000290: 4fc8 673e 0cbf d33d e2b4 643e dbec 263e
000002a0: 0803 263c 8cfd 633e 497f f13b 0cb8 ab3d
000002b0: 3277 143d c739 263e 9df8 7c3d 5d98 d13d
000002c0: eb74 cb3d 56cc bb3d c563 723d e04c 55bd
000002d0: a54c 083d dec5 343e f6a7 b03d 8949 e6bc
000002e0: 1951 a33d 9db4 083e 901e 2a3d 989f a53d
000002f0: da5f b33d 5869 6abb 8f55 033e 13ae 7b3d
00000300: 7585 ce3c c70b 363d e964 613d ba8a 8b3d
00000310: a274 0c3e 558e b43b 5ac8 8abc 7ecf ec3d
00000320: 3d51 443e 99a5 933e b451 853e 97d9 083d
00000330: 724e 1a3e 0aad 1e3e 712c 133d 1849 84bb
00000340: 200d 153d 2d20 0a3e 5698 bc3d fba5 c93d
00000350: 31a4 753c 2d32 523e c70a 8c3d 2662 713d
00000360: 50b7 343d 983d de3d 74c4 143d 8d04 453c
00000370: 70a0 853d c948 40bc 3efe 14be a81f 42be
00000380: 2a35 863d d238 7439 580b 7b3d 0614 333e
00000390: 00dc d23d fda0 f03c fc6c 843c d92f ee3d
000003a0: 1f8c 093d 697c d03b 0f6b 983c bc06 8f3e
000003b0: 26e7 503e 1b69 453d d897 a73d 5c18 1c3e
000003c0: cf30 063e 926d 7a3d c105 153e cfe7 aa3d
000003d0: d5cf 0d3e 66c5 343e 2edf 57bd 871c 92bc
000003e0: ae5e 403d d6a2 2e3e dd9b c33d 8329 95bb
000003f0: 7a9f 323e cbdc 8e3e 5334 c03d a811 a03d

bn1.running_mean f4 [400]
1.0388777 0.7428051 8.3446045 0.4182384 0.97311664 0.114916086 1.0665001 1.103364
0.40710694 0.37920433 0.23837945 1.3699255 1.2021481 0.47884703 0.4409807 0.79963994
1.2449352 1.0658813 0.47486383 2.588612 0.67584544 0.47672272 1.1025865 0.9048979
0.97998637 0.8211963 7.3338337 0.83109546 1.6187456 0.37511215 1.6649811 0.31873965
0.57625145 2.0361922 5.7767963 2.0746803 0.23113132 0.8505042 0.4820465 4.734192
0.435649 1.2397265 3.1822143 0.8921853 1.9771934 0.49243134 0.3188253 0.72044563
1.822871 0.3821903 0.29145908 3.6878407 1.0777017 0.676462 0.43117243 1.3682129
0.8148638 0.93154085 3.515362 0.9806043 0.8397737 0.5173924 0.09962913 2.5907698
0.7302053 0.34019944 2.847825 0.58403945 6.219449 1.2653456 4.0448685 1.0898564
0.34238625 0.20039439 5.2912455 0.23191616 0.69495857 0.7720581 1.036483 5.2361045
0.7517884 1.0922321 7.1075797 3.120381 0.9797267 1.7318587 1.3064861 3.2401469
0.3217127 0.42885712 0.2697578 0.12501028 0.26755205 0.33076072 0.2788153 1.3142314
0.39272556 0.11867393 0.9384417 0.47792226 0.40564343 0.5579338 2.6979983 0.5543177
0.19880314 2.558437 0.7329471 0.41824332 0.4240982 0.24615158 0.29561386 0.76045245
4.139398 0.22343679 0.9841482 1.5631708 1.6304808 0.9994058 1.0314004 5.1940393
6.6018643 0.5750355 1.1455784 1.1476177 3.2731435 0.77764094 2.089491 0.70698315
3.4460328 1.1985763 4.1676426 0.1865374 0.49157196 0.589404 0.20508315 0.5593435
0.3499121 0.1362113 0.4357965 0.44379255 0.60826147 0.49846938 2.2859447 0.16829073
0.39312956 0.09432212 0.61437786 0.88530326 1.1861801 0.45291978 0.18158895 0.37297812
0.6470105 0.56570977 0.44834352 2.8346677 0.7338338 0.7353448 0.28220645 1.137095
2.743446 5.270296 0.74852794 0.1804516 4.435226 0.2782387 0.74421483 0.5285633
1.486383 0.57689905 0.7032858 0.72089976 0.5500769 3.1257024 3.3829436 0.307152
3.0485165 2.0272977 1.2665974 1.4721521 0.40074185 0.69744426 0.49372652 0.35052627
1.3351955 0.33458376 5.517288 0.81185776 0.5517523 0.2709229 1.1432989 1.545105
0.9646685 1.3024389 3.5995204 0.35604662 0.59293735 1.5819126 0.618215 0.41412085
0.93425035 0.53559214 2.902908 0.47302186 0.60559493 0.78939337 0.23705107 0.18409659
0.524098 0.49584216 1.1982237 0.05387813 2.8396778 0.17514655 0.38669628 0.6175991
2.4544175 0.44986904 3.449841 0.42809635 0.3341907 1.516167 2.5075686 2.1919024
3.0239587 2.9375951 0.48952198 0.42987812 0.47450256 0.26963338 1.3426043 0.5008639
0.7293127 3.4527965 1.0041811 0.4495497 1.354064 2.8283381 0.25775936 0.7664284
2.247035 1.3856118 0.5934861 7.029289 0.8792351 0.63815063 3.0107594 3.070343
0.28605917 2.3739693 0.15392193 5.90042 0.53580296 0.5277094 0.95384794 4.922419
00000000: f2f9 843f 7a28 3e3f 8083 0541 5823 d63e
00000010: 2c1e 793f 2059 eb3d 1383 883f 083b 8d3f
00000020: 5270 d03e 1227 c23e be19 743e b859 af3f
00000030: fddf 993f 702b f53e 39c8 e13e 34b5 4c3f
00000040: 095a 9f3f cc6e 883f 5a21 f33e d2ab 2540
00000050: 3504 2d3f 0015 f43e 8e21 8d3f 64a7 673f
00000060: 63e0 7a3f ec39 523f c4ae ea40 acc2 543f
00000070: 0e33 cf3f b30e c03e 1a1e d53f d831 a33e
00000080: 3785 133f f950 0240 84db b840 90c7 0440
00000090: b0ad 6c3e a5ba 593f cdce f63e 807e 9740
000000a0: 630d df3e 5caf 9e3f 66a9 4b40 4166 643f
000000b0: ac14 fd3f f61f fc3e 123d a33e 206f 383f
000000c0: d653 e93f 72ae c33e 203a 953e 9505 6c40
000000d0: 21f2 893f 9d2c 2d3f a2c2 dc3e 9a21 af3f
000000e0: ea9a 503f 7679 6e3f b1fb 6040 e208 7b3f
000000f0: 69fb 563f d473 043f 5b0a cc3d 2ccf 2540
00000100: bcee 3a3f 9f2e ae3e c442 3640 9c83 153f
00000110: ba05 c740 d8f6 a13f 906f 8140 6a80 8b3f
00000120: 404d af3e 3034 4d3e e251 a940 6e7b 6d3e
00000130: cee8 313f 9aa5 453f 7aab 843f 2b8e a740
00000140: 3475 403f 43ce 8b3f 4b71 e340 53b4 4740
00000150: 5ecf 7a3f 8cad dd3f f03a a73f 915e 4f40
00000160: 87b7 a43e 2993 db3e b21d 8a3e b202 003e
00000170: 95fc 883e 7859 a93e e1c0 8e3e bc38 a83f
00000180: 5313 c93e 510b f33d b73d 703f 3ab2 f43e
00000190: 7fb0 cf3e c0d4 0e3f 01ac 2c40 c4e7 0d3f
000001a0: 0d93 4b3e 6fbd 2340 6ca2 3b3f fd23 d63e
000001b0: 6623 d93e 290f 7c3e b35a 973e 03ad 423f
000001c0: f375 8440 9dcc 643e 23f1 7b3f fb15 c83f
000001d0: 98b3 d03f 0fd9 7f3f ee04 843f 9235 a640
000001e0: 7942 d340 8735 133f 50a2 923f 23e5 923f
000001f0: 2f7b 5140 7a13 473f 38ba 0540 d9fc 343f
00000200: cd8b 5c40 f36a 993f 545d 8540 a903 3f3e
00000210: 52af fb3e 2ee3 163f 5101 523e 2331 0f3f
00000220: ae27 b33e fa7a 0b3e b820 df3e c738 e33e
00000230: 06b7 1b3f 6137 ff3e eb4c 1240 6854 2c3e
00000240: 4748 c93e f52b c13d de47 1d3f 3ca3 623f
00000250: c0d4 973f 1ae5 e73e 74f2 393e fdf6 be3e
00000260: 7ba2 253f 5bd2 103f 488d e53e 326b 3540
00000270: 88dc 3b3f 8f3f 3c3f 5d7d 903e 548c 913f
00000280: 9f94 2f40 44a6 a840 879f 3f3f 4ec8 383e
00000290: 5fed 8d40 4e75 8e3e dd84 3e3f ed4f 073f
000002a0: cc41 be3f a8af 133f 8a0a 343f e38c 383f
000002b0: d7d1 0c3f 820b 4840 2682 5840 0743 9d3e
000002c0: e51a 4340 3fbf 0140 dd1f a23f 7b6f bc3f
000002d0: 092e cd3e b58b 323f b9c9 fc3e 2e78 b33e
000002e0: b0e7 aa3f 904e ab3e a08d b040 e9d5 4f3f
000002f0: a43f 0d3f 68b6 8a3e 9e57 923f 00c6 c53f
00000300: 84f4 763f 51b6 a63f 8b5e 6640 be4b b63e
00000310: beca 173f 1d7c ca3f 5743 1e3f a607 d43e
00000320: 082b 6f3f 911c 093f 3fc9 3940 ec2f f23e
00000330: 4508 1b3f af15 4a3f 84bd 723e d183 3c3e
00000340: 492b 063f 06df fd3e 655f 993f 50af 5c3d
00000350: 48bd 3540 9e59 333e 0efd c53e fa1a 1e3f
00000360: 2d15 1d40 3c55 e63e 32ca 5c40 722f db3e
00000370: 0b1b ab3e c311 c23f 017c 2040 2148 0c40
00000380: 8a88 4140 8f01 3c40 a0a2 fa3e fc18 dc3e
00000390: 00f2 f23e 630d 8a3e 75da ab3f 9e38 003f
000003a0: 3db4 3a3f 9efa 5c40 0289 803f 612b e63e
000003b0: f851 ad3f 7e03 3540 09f9 833e a734 443f
000003c0: 6ccf 0f40 ba5b b13f b4ee 173f efef e040
000003d0: 8d15 613f d75d 233f 48b0 4040 8080 4440
000003e0: 5976 923e 1def 1740 b69d 1d3e 3ed0 bc40
000003f0: 622a 093f f717 073f 612f 743f 7584 9d40
