checkpoint_critic_local1.pth (torch_old, 574967 bytes, 9 tensors)

fcs1.weight f4 [400, 52]
000000 d6 09 db 3b fa 53 e5 3d 5c 9c b0 bc 77 ff 30 3c
       0.006684522 0.11197658 -0.021558933 0.010803095
000010 7f 8b c7 3b 46 1b 82 bd 46 0b d5 3c 55 10 68 bd
       0.0060896273 -0.06352858 0.026006352 -0.0566562
000020 c7 72 58 3d 66 39 7e 3e 2f 3c 39 bb 08 77 9b 3d
       0.052843835 0.24826583 -0.0028264632 0.07591063
000030 38 07 7d ba 69 11 98 3c 5d 38 80 bb 22 d6 f9 bb
       -0.000965226 0.01856299 -0.003912969 -0.0076244036
000040 b6 85 80 3c 69 5a 37 3e b3 4d 73 bc f7 71 10 be
       0.015688758 0.17905582 -0.014850068 -0.14105974
000050 d8 30 23 bd e5 06 04 3e 11 86 4b 3c 76 d8 df bd
       -0.039841503 0.12893255 0.012422101 -0.109299585
000060 8e 54 fa bb cb b7 1c be dc 1d 4d 3b db 5b 1a 3e
       -0.0076394742 -0.15304486 0.0031298315 0.15074103
000070 9a c1 31 3d d5 ad 66 bd 62 2c 53 bb db 27 11 3e
       0.043397523 -0.056318123 -0.00322225 0.1417536
000080 06 cb db 3c 34 88 4b bd 23 dc bc 3a ea 62 08 3e
       0.026830208 -0.04969044 0.0014408868 0.13318983
000090 31 02 7f 3d 60 2d e7 3b 3e 0a f3 3c a4 bc 9e 3d
       0.06225795 0.0070549697 0.02966797 0.07750824
0000a0 7e 57 7f bb af aa c6 bd 7b c7 30 3d 88 cf ad 3c
       -0.0038962062 -0.09700524 0.04315899 0.021217123
0000b0 b0 47 37 3d 08 b7 15 3e 3d bf c7 3c e1 f7 94 3d
       0.0447461 0.14620602 0.024383182 0.07273842
0000c0 c4 01 f9 be 6f 61 09 3e c3 21 ee 3d 26 e7 60 be
       -0.4863416 0.13416074 0.11627533 -0.21963176
0000d0 a3 e0 f2 3d 14 1b 15 be 23 8e 31 3d d0 8f 74 3d
       0.11859252 -0.1456111 0.043348443 0.059707463
0000e0 7f d9 06 bd 7f 84 a5 bd d9 8f 26 bd c5 9a f1 3c
       -0.032922264 -0.08081912 -0.040664528 0.029492745
0000f0 21 86 e0 3d 0a b9 29 be b4 3e 3d 3d 54 22 14 3d
       0.10963083 -0.16574493 0.046202376 0.03616555
000100 91 1e 7f bd bf 9d 40 bc d0 80 db bc dc 4d 21 bd
       -0.06228501 -0.01175636 -0.026794821 -0.039380893
000110 bc 84 63 3c 8e 84 36 be 85 ce 29 3c 82 24 a6 3d
       0.013886627 -0.17824003 0.0103641795 0.08112432
000120 c8 c0 a7 bd 2e e9 9d 3c 6d 86 84 bc e6 e9 19 3c
       -0.08191067 0.019276228 -0.01617738 0.009394145
000130 c5 24 93 bd eb cc bd 3c 66 90 48 bd a6 ba 97 3b
       -0.071847476 0.023169002 -0.048965834 0.0046304045
000140 57 2d db 3d 99 a1 75 bd 4c 4c 02 bd 5d a1 f8 bc
       0.10702007 -0.059968565 -0.031811044 -0.030350382
000150 2b 68 b3 bd bd 85 9c bd 0a 60 91 3c 6f 9d 00 be
       -0.08760103 -0.07642696 0.01774599 -0.12560056
000160 4b a8 f5 3d 74 74 9e bc ce 0c dc bc f8 12 9e bd
       0.1199499 -0.019342639 -0.026861575 -0.07718462
000170 43 2e 01 be de 13 a3 bd 85 fb 99 bc cf 0a 1f be
       -0.12615304 -0.07962774 -0.018796692 -0.15531467
000180 40 23 95 3d e4 87 8d 3d f7 96 a9 ba e7 87 29 be
       0.07282114 0.06910685 -0.0012938668 -0.16555749
000190 ef 1e 61 bd cc 74 21 3c 16 f9 56 3c 84 a5 38 bd
       -0.05496114 0.009854507 0.01312091 -0.045079723
0001a0 99 bb 88 bd 8e 66 4d be 1e 59 58 bd 61 4f 76 bd
       -0.066764064 -0.20058653 -0.052819364 -0.060134295
0001b0 93 dd ac 3c f1 04 f8 3c 08 9a 9f bc 32 03 cf bd
       0.021101749 0.030275794 -0.019482628 -0.10108031
0001c0 a3 ed ee 3b 41 7e 10 be b2 f1 0f 3d 22 45 21 bc
       0.007291512 -0.14110662 0.035142608 -0.009843143
0001d0 70 61 1a bd d8 0c 3e bd f9 71 b5 bc 43 f8 ac bc
       -0.03769058 -0.046398968 -0.022149073 -0.021114474
0001e0 3f 6d 34 bd be c6 59 be ee f6 55 3c 69 46 4a bc
       -0.044049498 -0.2126722 0.013059361 -0.012345889
0001f0 32 94 6f 3d 29 01 db bd f4 52 47 3d 54 ed a2 bd
       0.05849094 -0.10693581 0.048663095 -0.07955423
000200 dd 5c 05 bd 27 77 94 3d 18 5e 2e bd 94 37 03 bd
       -0.032559264 0.07249289 -0.042570204 -0.032035425
000210 ea f8 88 3d c8 a3 33 3d 57 07 0d bd aa 76 6b bd
       0.066881016 0.043857366 -0.034430828 -0.057486214
000220 04 d3 22 bd 04 0f a3 3d 9a bf 8b 3d 33 16 b5 3d
       -0.03975202 0.079618484 0.068236545 0.08842125
000230 c8 86 df bc 87 21 8f bd 56 6f 78 3d 42 37 4b 3d
       -0.027285948 -0.06988817 0.060653053 0.049613245
000240 44 81 f4 bc c2 85 26 bc e2 7a 10 bd f5 8f 0c be
       -0.029846795 -0.010163726 -0.03527344 -0.1372679
000250 79 35 64 bc 5a 73 02 be 18 35 ba 3b 55 5e 27 be
       -0.0139287645 -0.12739316 0.005682599 -0.16344579
000260 99 bc b1 bd 42 d6 9d be 45 0a 75 3e 03 4d db bd
       -0.0867855 -0.30827528 0.23929699 -0.10708048
000270 df 47 84 3c 31 a4 f9 bb c9 5b 8d bc 67 fd 82 3d
       0.016147552 -0.00761845 -0.01725568 0.06395989
000280 be a2 88 bd f9 1b 2f bd dc 16 4b 3c 07 7a 21 3d
       -0.066716656 -0.042751286 0.012395587 0.039423015
000290 b5 78 cf bc b2 4c f1 3c 8e f0 7a bd 81 e7 93 3d
       -0.025326112 0.029455516 -0.061264567 0.0722189
0002a0 a5 91 24 3d 3b aa 47 bd 36 ef 23 bc 37 09 9c 3d
       0.04017796 -0.04874633 -0.010005763 0.07618945
0002b0 75 a5 f0 bc 00 18 94 3d bc c4 fd 3c 32 f8 b4 3d
       -0.029375771 0.0723114 0.0309776 0.08836402
0002c0 2b a8 6a bc 3b bb 66 3d 67 50 a8 bc e0 f1 a8 3d
       -0.014322321 0.0563309 -0.020546151 0.08249259
0002d0 63 38 02 3e 50 7c fa bc 17 9b 96 3c 1e ac c9 bd
       0.12716822 -0.030576855 0.0183845 -0.09847282
0002e0 27 ca 3b bc ec e1 ef bd 80 d8 38 bd 84 ca 30 bd
       -0.011461771 -0.11713013 -0.045128345 -0.043161884
0002f0 be d6 d2 3d 08 a1 83 bd 2b a9 66 bd 17 33 10 be
       0.10294865 -0.06427199 -0.056313675 -0.14081989
000300 fd 33 50 3c 1d c6 4c bd 4d 2c 1c bc 79 e3 03 be
       0.0127077075 -0.049993623 -0.0095320465 -0.12879743
000310 7a ba 93 3d d0 22 12 be 54 b5 b5 3c f3 28 80 3b
       0.07213302 -0.14271092 0.02218119 0.0039111315
000320 67 c6 c4 3c f3 2f bc 3d ab 25 e2 bb 04 93 b0 bd
       0.024020387 0.09188833 -0.006901463 -0.08621791
000330 cb 29 20 bf 58 c6 1f be c6 fb 50 bc 2c d2 b9 bd
       -0.6256377 -0.15603006 -0.01275534 -0.0907329
000340 d5 33 23 3e d2 38 99 3d c4 aa 18 3d c6 c5 7d bc
       0.15937741 0.07481541 0.03727223 -0.015489047
000350 de df 08 bd ce b1 d4 bd 1c ad 0c 3d 17 7e 0a bd
       -0.03341662 -0.10385476 0.034344777 -0.033811655
000360 1c 46 ff 3d 11 cb ae 3d f6 44 0b bc 68 17 3b 3d
       0.12464544 0.085348256 -0.008500328 0.04567662
000370 52 bc 7f 3c dc 24 91 bd a7 ee 9e 3c c4 9f 8d 3d
       0.015608864 -0.070871085 0.019400908 0.069152385
000380 20 82 e5 3c 4a 61 c0 3a fb a4 53 bb 84 98 a2 bd
       0.02801615 0.0014677432 -0.003229438 -0.07939246
000390 bb 1c a8 3b 3f 3d 91 bd 59 84 5f bb f0 7e ed bd
       0.005130378 -0.0709176 -0.0034105985 -0.11596477
0003a0 e7 b4 20 3d 18 7b 2d 3c 3f b4 61 bc a5 4d ae 3d
       0.039235022 0.01058843 -0.013775884 0.08510903
0003b0 60 06 1c 3c cc 5d a5 bd 5d dc fb bc 6e b6 7d 3d
       0.009523004 -0.08074531 -0.030744726 0.061941557
0003c0 ae 9f 00 3c f9 e5 1f 3d 8b 03 75 bd c1 0f b7 bc
       0.007850571 0.03903768 -0.059817832 -0.02234638
0003d0 02 31 b2 bc 3a d7 a4 bd 5d bb 2c bd e6 65 0b bc
       -0.021751884 -0.08048864 -0.04217087 -0.008508181
0003e0 41 f0 8d bd a4 6d bb 3b 6b 83 03 bc a8 6e 31 be
       -0.069305904 0.0057198573 -0.008026938 -0.17327368
0003f0 17 d7 31 3d 9f bc 4c bd cf 93 94 bc c0 37 53 be
       0.043418016 -0.04998457 -0.018136887 -0.20626736

fcs1.bias f4 [400]
000000 08 07 de 3c 44 3d 3e bd ab 4c 2b be 75 25 b6 3d
       0.027102962 -0.046445146 -0.16728465 0.08893863
000010 ff a6 43 3d e2 63 a3 bd 0e 08 cd be de b8 13 be
       0.04776668 -0.079780355 -0.40045208 -0.1442599
000020 ef 2d 1f be b3 84 0b be 3d 47 ed bd 8c 7d 45 be
       -0.15544866 -0.1362484 -0.11585853 -0.19286174
000030 ea 69 b4 3b 0a ba e3 bd d3 ab a0 bd 4d 26 58 bd
       0.00550579 -0.111194685 -0.07845273 -0.0527709
000040 ca 30 0c be 25 9d 2b be 6b b8 f7 bd 76 31 99 bd
       -0.13690487 -0.16759165 -0.12095722 -0.07480137
000050 a0 1b 43 be 2b 9c 36 be c8 cb 76 be d2 97 cd bd
       -0.19053507 -0.17833011 -0.24101174 -0.10038723
000060 03 55 0b be dd 37 e1 3b 1d 9d 34 3d 83 dc d9 bc
       -0.13606648 0.0068731145 0.044095147 -0.026594406
000070 32 b3 d9 bd bb af 9f bc 48 66 fb bd 6b 54 07 3d
       -0.10629882 -0.019492975 -0.12275368 0.03303949
000080 2f 1f 8f bd 82 94 e3 3d 89 59 35 be 00 73 ef bd
       -0.0698837 0.1111231 -0.17709936 -0.116918564
000090 25 72 65 be 90 e9 48 bc b2 fd f4 bd ae aa c0 bd
       -0.22406824 -0.012262717 -0.11962451 -0.094075546
0000a0 fa 2f 2f 3e de be 8f be cd 26 3c bc da 64 39 3d
       0.17108145 -0.28075308 -0.01148386 0.045262195
0000b0 56 a0 b1 bc 27 c6 b4 3d 62 c9 fe 3d a8 90 83 bd
       -0.0216829 0.08826857 0.124407545 -0.06424075
0000c0 12 6c cd 3c 47 a0 e2 3d 0f fc 17 be fc 37 0b bd
       0.025075946 0.11065727 -0.14842246 -0.033988938
0000d0 f9 40 4a 3d 23 3b 7d be 3a d7 2f bd 17 97 d4 3d
       0.04937837 -0.2472959 -0.042929865 0.103803806
0000e0 e6 80 e3 bd be b3 ea bc 22 ab 0c be 5b 9c 45 3e
       -0.1110857 -0.02865016 -0.13737157 0.19297926
0000f0 8e d6 2b be 58 07 99 3c 72 c1 39 be ac de b8 3d
       -0.16781065 0.01868026 -0.181402 0.09026846
000100 2b 16 14 be df 57 e1 bd 08 da f3 bc e6 8b 63 bd
       -0.14461581 -0.11003088 -0.029767051 -0.05555334
000110 0e 38 9e bc 7c a9 34 3d 25 dd 07 3e c4 f6 7c 3c
       -0.019313838 0.044106945 0.13267954 0.015439693
000120 27 29 d9 bd 25 ca c6 3c a1 b5 26 be 9f 6e 93 3d
       -0.10603552 0.024266312 -0.16280223 0.07198834
000130 25 fe b3 bd a0 6c 28 bd e3 38 0b be 1e 93 7c bd
       -0.087887086 -0.041119218 -0.1359592 -0.06166374
000140 e9 71 d1 bc c4 e2 7d bd 54 36 49 be 91 7e e0 bc
       -0.025567012 -0.06198384 -0.19649631 -0.027404102
000150 d1 ab 0e bd 91 96 c3 3d 51 84 17 be 2c 16 62 be
       -0.034831826 0.09550203 -0.14796568 -0.2207877
000160 ac e5 20 be 52 ce 5e 3d 88 33 19 bd 5d bb 25 bd
       -0.15712613 0.05439598 -0.03740266 -0.040461887
000170 01 73 01 3e 77 22 f6 bd 43 02 00 bd cb 0e 81 3c
       0.12641527 -0.120182924 -0.031252157 0.015754124
000180 ba a6 5f 3e 42 66 71 bd 3a 78 40 bd 82 4a 86 bd
       0.21840945 -0.05893541 -0.046989657 -0.0655718
000190 17 9c b6 3b d4 3a 88 3c a2 90 b4 3d c8 13 6e bb
       0.0055728066 0.016629614 0.08816649 -0.0036327709
0001a0 98 49 9c 3c f7 3c d5 bd 3e 02 2a be ed 05 4e bd
       0.019078061 -0.10412019 -0.16602418 -0.05029862
0001b0 47 3b 27 bc 9b 6a 1f be 33 b8 ae bd 71 72 f8 3d
       -0.010207004 -0.1556801 -0.08531227 0.12131203
0001c0 e1 55 e3 3b 7b 65 b0 bd e7 76 ba bb 7b dd 06 3d
       0.006937728 -0.08613106 -0.005690444 0.032926064
0001d0 1a bf 8d be 5c 7b 09 be 54 6d 2e be 39 87 55 3d
       -0.2768486 -0.13425964 -0.17033893 0.05213091
0001e0 cf ad 08 be d6 fa 4a be 1d 64 28 3d 13 da 1c be
       -0.13347553 -0.19822249 0.0411111 -0.15317564
0001f0 01 2d c7 bd c7 45 e5 bd ee b8 37 bd 12 70 0b be
       -0.09725381 -0.111949496 -0.044854097 -0.1361697
000200 80 c6 4c be 5b 9f 3d be 94 6f 02 bc 63 ac d1 bd
       -0.19997597 -0.1851782 -0.007961173 -0.10237958
000210 d9 3b 98 bd 4e d6 c2 bd d9 36 de bc 58 d5 58 be
       -0.0743329 -0.095135316 -0.027125763 -0.21175134
000220 de 0a 65 bd f5 4f 03 be 74 94 41 be d5 31 32 bd
       -0.055918567 -0.1282347 -0.18904287 -0.043504555
000230 a7 7e 09 be 94 2e b1 3c 0b 33 25 be e2 a9 50 be
       -0.1342722 0.021628655 -0.16132753 -0.20377305
000240 ba 85 ab bd bc b4 d8 3c 25 ed e3 3d 6f 9a a5 bd
       -0.08375116 0.026453368 0.11129216 -0.080860965
000250 62 4a 8c bc 26 69 a4 bd 0d cc a2 bd 89 68 21 be
       -0.017125312 -0.08027868 -0.07949076 -0.15762533
000260 e4 d3 52 bc 08 74 9e bc 1e 79 96 ba b9 a2 74 bc
       -0.0128679015 -0.019342437 -0.0011480188 -0.014931374
000270 9a d5 00 3d 04 08 58 bd d1 24 56 3e 93 3c 38 be
       0.031453706 -0.05274202 0.20912482 -0.17991857
000280 2a d2 65 be d0 ef 03 be ef a3 8f bd 67 11 81 bd
       -0.22443452 -0.1288445 -0.0701369 -0.06302147
000290 de 97 3e be 42 7b f2 bd 5a 2b 1e bd e2 89 43 be
       -0.1861262 -0.11839916 -0.038615562 -0.19095567
0002a0 21 67 8b bd 15 c4 0d be 25 c5 fe bc 83 e9 7e bd
       -0.0680678 -0.1384433 -0.031099865 -0.062234413
0002b0 1c e6 f0 3c a3 4b af 3d 66 1e 25 3d 87 66 e1 bc
       0.0294066 0.085593484 0.040312193 -0.02751471
0002c0 c2 08 9f 3d 8c 2b ba bc 18 3f 53 bd 1a 71 02 be
       0.07765342 -0.022725843 -0.051573843 -0.12738457
0002d0 23 9c 65 be bf d1 d0 bd 43 fc ab bd 14 73 a6 bb
       -0.22422843 -0.10196256 -0.083977245 -0.0050796364
0002e0 3e 13 17 be 82 0a cc 3b db 44 e3 bd 12 58 2d be
       -0.14753434 0.0062268386 -0.110971175 -0.16928127
0002f0 58 47 12 3e 30 0d f4 bb cb 75 99 bc cd 38 b2 bd
       0.14285028 -0.007447861 -0.018732926 -0.0870224
000300 c3 72 89 bd 5b f5 12 be 1e 76 85 be 1e 10 f2 bd
       -0.06711342 -0.14351408 -0.2606668 -0.1181948
000310 8d 19 f6 bd 44 19 ca bd 03 b5 0c 3e de bd 01 be
       -0.12016592 -0.098681 0.13740925 -0.12670085
000320 76 9d 7a bd 5f 8f 54 be 17 e0 05 3d 18 e9 dd 3d
       -0.061185323 -0.20757817 0.03268441 0.10835475
000330 90 24 e2 bd 0f f7 32 be b4 57 6e bd e8 a8 b9 3d
       -0.1104213 -0.17477058 -0.05818911 0.090654194
000340 9c b5 69 3d a6 07 de bd db 85 a0 bb f4 df 36 be
       0.05705796 -0.108413026 -0.0048987693 -0.17858869
000350 af 4a aa 3d 2b df 32 bd ee 25 be bd 3c d7 b0 3c
       0.08315026 -0.04366986 -0.09284578 0.021587007
000360 a1 76 b5 bc 68 3e 87 be 06 eb b1 be 3e 38 8d 3d
       -0.022151293 -0.264148 -0.3474962 0.06895493
000370 a8 54 bd bd ec 90 c8 3d c9 66 02 be 98 b4 6e 3c
       -0.092446625 0.09793267 -0.12734522 0.014569424
000380 b1 eb 4c 3d 0d 34 ad 3d 75 28 24 bd c5 73 d0 bb
       0.05002946 0.084571935 -0.040077645 -0.006361457
000390 c0 39 dc bc 3e ba 43 3c 1b c9 0e 3c 9c da bd bd
       -0.026883006 0.011946259 0.0087149395 -0.09270212
0003a0 10 cd 9d 3d 82 b3 9a 3b cb 82 cc bd 5d 82 2d be
       0.07705128 0.004721106 -0.09985884 -0.16944261
0003b0 0a 95 67 be e9 ed e3 bd c3 97 3f 3d 80 0c ad 3d
       -0.22615448 -0.11129362 0.04677559 0.0844965
0003c0 1a c1 9a 3b 49 27 2a be 56 b2 25 3c e8 d5 66 3d
       0.0047227265 -0.16616549 0.010113319 0.05635634
0003d0 10 4c 44 bd 93 1f f7 3d c8 6e 48 3d 7d 3a e8 bd
       -0.0479241 0.12066569 0.048933774 -0.11339281
0003e0 63 ec 28 bd 2f 6b 42 be 85 cd b0 bd 29 81 fd bd
       -0.04124106 -0.189862 -0.0863295 -0.12378151
0003f0 28 1c 8b be d7 b8 13 be 9c 95 19 be a7 29 a0 bd
       -0.2716992 -0.1442598 -0.14998478 -0.078204446

fc2.weight f4 [300, 400]
000000 82 f6 85 3d 5d 54 16 bd 50 0b 94 bb 75 0e f3 3d
       0.06541158 -0.03670155 -0.00451795 0.11867992
000010 82 f1 9f bc b3 d2 d0 3d 29 e6 5c bd 87 68 eb 3d
       -0.01952434 0.10196438 -0.053930435 0.114945464
000020 f2 fd 1b 3d cf 4a 2e bd 91 b2 40 bd 1f 94 07 3d
       0.038083978 -0.04255181 -0.047045294 0.033100244
000030 cb 0f 35 bc 80 4b 15 3d 04 4c b8 bc 26 17 1c bd
       -0.011051129 0.036448956 -0.022497185 -0.038108014
000040 61 a3 93 bd 03 b6 8e bc 93 42 ac 3d 66 a2 c1 bd
       -0.072088964 -0.017420774 0.084111355 -0.09454803
000050 a2 da 00 be b2 16 6b bd d2 ab ac 3c a8 dc 3c bd
       -0.12583402 -0.05739469 0.021078024 -0.04610887
000060 52 f9 f1 bb 79 28 5b 3c b3 b1 97 bd e0 a5 e0 bc
       -0.0073844576 0.013376349 -0.0740694 -0.027422845
000070 b5 21 60 3c 8b 56 4f bb df fa 83 bd fc ff 55 bc
       0.013679911 -0.0031637277 -0.06444334 -0.01306152
000080 e6 d4 8d bd e6 23 90 bd 22 d6 70 3b 38 dd f2 3c
       -0.06925373 -0.07038097 0.0036748727 0.029646501
000090 35 b7 1b 3b 1d 17 4a bd 08 6d b6 3d b0 25 9a 3c
       0.0023760323 -0.04933845 0.08907515 0.018816799
0000a0 0e a6 be 3c 23 aa 75 bd e7 62 8a bd f0 55 1d be
       0.02327254 -0.05997671 -0.067571454 -0.15364814
0000b0 44 3b c1 bd 25 d0 10 bd 7f 8f 4a 3d 4c db 01 3d
       -0.09435132 -0.035354752 0.049453255 0.03170328
0000c0 b5 ee bb 3d e1 07 24 3c b1 64 4f bc 2f d5 f3 3c
       0.09176389 0.010011644 -0.012658284 0.02976474
0000d0 97 ce de 3c a5 65 a4 bc b3 32 88 3d 73 7c a2 bb
       0.02719812 -0.020068 0.06650295 -0.004958683
0000e0 28 1d cf bd 29 20 09 3d 1b ab 43 3d 72 c3 92 bd
       -0.10112983 0.033477936 0.0477706 -0.071661845
0000f0 08 a3 59 bd b6 cd 7e bc b9 e0 be 3d af 94 3f bc
       -0.053133994 -0.015551975 0.09320206 -0.011693164
000100 c2 2d 7d bd 70 98 5a 3c cb 42 fe 3c c5 26 3d bd
       -0.061811216 0.013342008 0.031037709 -0.04617955
000110 9c c5 bb bc e4 a3 cd bc d0 56 ed bd 27 75 ad bd
       -0.022921376 -0.025102563 -0.11588824 -0.08469611
000120 48 86 78 3d 18 0d 58 bd b5 03 fe 3c 7b fa f8 bc
       0.060674936 -0.052746862 0.031007627 -0.030392876
000130 11 67 9f bd 4d 88 05 3d 92 4e 92 ba e7 47 b4 bc
       -0.0778333 0.03260069 -0.0011162332 -0.022006942
000140 e5 5b f6 3b 55 79 b3 bd 56 be 16 be bd 50 dd 3c
       0.007518279 -0.087633766 -0.14721045 0.027016038
000150 e3 85 27 bd f3 d8 23 bd fe 2e 91 3d 03 26 c6 3c
       -0.04089917 -0.04000182 0.07089041 0.024188047
000160 79 ee a3 bc d1 62 37 3d 19 b4 98 bc 4c ee 51 bd
       -0.020011174 0.044771973 -0.018640565 -0.05125265
000170 22 a0 1b be dd 65 00 3d 44 0b aa bd f9 31 45 bc
       -0.15197805 0.031347144 -0.0830293 -0.01203584
000180 a7 17 bb 3d 07 61 1b 3e a0 f0 20 bd 3c e9 04 bd
       0.09135371 0.15173732 -0.039291978 -0.032448992
000190 92 d0 bd bd f3 d9 37 3d 83 13 14 3b 6f 42 ae bd
       -0.09268297 0.044885587 0.0022594638 -0.08508765
0001a0 0c 63 a5 3d 11 05 38 bd 22 c5 cc bc f5 19 af bb
       0.08075532 -0.044926707 -0.024996344 -0.0053436705
0001b0 53 a8 60 3c d9 d3 09 be 97 3c b5 bd 01 f1 97 3c
       0.013712007 -0.1345972 -0.08849447 0.018547537
0001c0 f9 a4 ce bc 4b 50 32 3d 76 a2 03 bd 95 c8 02 be
       -0.02522515 0.043533605 -0.032137357 -0.12771828
0001d0 9c 2d 4a bd b4 dd ca bb a3 5c a1 3d 4d 6b 81 3d
       -0.049359903 -0.00619098 0.07878997 0.06319294
0001e0 06 fd 85 bb a6 67 f9 bc d0 1a 8f 3d 66 a7 14 bd
       -0.0040890006 -0.030444931 0.06987536 -0.036292456
0001f0 cd eb b2 bd 23 1c 87 bc dd 63 fd 3b da ad 72 bd
       -0.08736382 -0.016492909 0.007732852 -0.05924783
000200 26 67 34 3c 00 21 08 be f4 59 07 3e 54 3f 47 be
       0.011010921 -0.13293839 0.13217908 -0.19457752
000210 a0 9c 9a bc c8 72 fd bb 83 8b 68 bd d5 88 2f 3d
       -0.018873513 -0.0077346303 -0.056773674 0.042855103
000220 a7 6e 67 bd 9d 07 c8 bd 85 81 51 bd 0a 76 a5 bd
       -0.05650201 -0.09767077 -0.05114891 -0.08079155
000230 8c 69 4b 3c 7a af ad bd 5d 46 42 3c 18 f1 b5 3b
       0.012415301 -0.08480735 0.011857596 0.0055524223
000240 46 ec 4c bd 75 63 bd bd d9 4a 10 bd a6 6f d2 bd
       -0.050030015 -0.092474855 -0.03522763 -0.102752015
000250 e9 e3 65 3d 6b 4d 9b 3c 3a 05 5e bd 9e 0e 9c bd
       0.056125555 0.018957814 -0.054204203 -0.076199755
000260 ae 40 6a bd 0e e2 4e bc c9 a4 98 3b a5 6f e0 3c
       -0.05719059 -0.012627138 0.004658316 0.027396986
000270 9d 0c d3 bd f3 b2 55 bd d0 98 2f ba 84 4a 96 bd
       -0.1030514 -0.052172612 -0.0006698491 -0.073384315
000280 df df 5b 3d f5 fb 03 be 78 94 d5 3d c6 f3 95 3d
       0.053680297 -0.12889083 0.10428709 0.07321887
000290 e9 41 c1 ba e2 6b 3a 3d d9 be 56 bc 18 86 b0 bd
       -0.0014744374 0.04551304 -0.013107025 -0.08619326
0002a0 f3 57 8e bc 9b a8 2f 3d 85 6f 5d b9 63 d8 01 3d
       -0.017375922 0.042885404 -0.00021117747 0.031700503
0002b0 d5 7b 11 bd 7c 8d b5 bd 9d 32 d9 bd f5 f8 9d bd
       -0.035518486 -0.08864877 -0.10605357 -0.077135004
0002c0 86 be 25 3c af 9f c0 3a ef f5 50 bd 33 60 87 3c
       0.010116225 0.0014696027 -0.05101579 0.016525364
0002d0 2c 2f c7 bc 5f e0 0b bd a5 90 89 bd b3 09 19 3d
       -0.024314485 -0.034149524 -0.06717042 0.037362766
0002e0 1b 60 06 bd b3 c3 66 3c 15 c7 1d 3d b2 3a ee bc
       -0.032806497 0.014084744 0.038519938 -0.029080722
0002f0 12 e2 e8 3b 78 73 15 3c 7f ad 89 3d d7 59 1a 3d
       0.007107028 0.009121768 0.06722545 0.037683334
000300 5e 49 15 3d fe 5f fa 3b 62 5b b7 bb 10 e0 7c bd
       0.03644692 0.0076408377 -0.0055956105 -0.06173712
000310 97 20 2a bd dc dc c4 bd 83 b5 f4 bc b3 9e 84 bd
       -0.041534986 -0.09612438 -0.029871708 -0.06475582
000320 9e 79 e1 bb 41 70 66 be 60 f5 dd bd a4 cf 36 3d
       -0.006880953 -0.22503759 -0.10837817 0.044631615
000330 69 00 d1 bd 0a 51 a7 3d 2c 73 c7 3c 79 c4 65 3d
       -0.10205156 0.08169754 0.02434691 0.056095574
000340 95 4c 28 bd a8 99 cb bb 18 60 a0 bd 61 97 a0 3d
       -0.04108866 -0.0062133856 -0.078308284 0.07841373
000350 c9 9f 57 bc c7 e8 c4 bc 6b f7 5a 3d 1d c5 67 bc
       -0.013160654 -0.024036778 0.053458612 -0.014146117
000360 6c 9f eb 3c 09 70 81 bc c7 41 63 3c 50 7b d0 3b
       0.028762542 -0.015800493 0.013870663 0.0063623562
000370 9b df ea bc bf 7b 47 3d cc c8 77 3d 37 b2 0f 3e
       -0.028671077 0.048701998 0.06049423 0.14032827
000380 91 8e d2 bc 36 68 e6 3c 61 ae 69 bd f6 d7 64 3c
       -0.025702747 0.028125864 -0.057051066 0.013967505
000390 85 11 d4 bc a3 76 8f 3d ed dd a3 3b f1 7e 8e bd
       -0.02588726 0.0700505 0.005000821 -0.06957806
0003a0 89 b1 30 3c ac c0 42 bc 51 ce 3b bd ea 88 d8 bc
       0.010784515 -0.011886757 -0.045851056 -0.026432473
0003b0 b4 69 fe 3c 60 e3 e0 bb cf 88 85 ba 79 e9 43 bd
       0.031056263 -0.0068630427 -0.0010187867 -0.04783008
0003c0 c0 12 4e bd c4 e1 9d bd 83 d0 24 bb 6c 89 21 bd
       -0.05031085 -0.07709077 -0.0025148697 -0.039437696
0003d0 a7 be 82 bd 65 a6 20 3d 91 09 88 3d 32 ad a5 3d
       -0.0638402 0.039221186 0.0664245 0.08089675
0003e0 95 0b 91 3d 94 23 3d 3c 9a cd ab bd 0f 50 88 bd
       0.07082287 0.011544127 -0.08388825 -0.06655895
0003f0 7e 63 b0 bd 6f 5a 66 bd 20 5a af bd 35 4d 06 3d
       -0.08612727 -0.056238588 -0.08562112 0.032788474

fc2.bias f4 [300]
000000 2d 21 f0 bd 7d 69 d9 bd 58 eb 3c bd dc 3a 65 bd
       -0.11725078 -0.106158234 -0.04612288 -0.055964336
000010 10 19 b2 bd d8 3e 96 bc f0 e0 8a bc 1f c9 0e be
       -0.086961865 -0.018340513 -0.016952962 -0.13943909
000020 98 1e 4b bd 83 9e 7a bd 8c 7c b6 bc cb 11 df bd
       -0.049589723 -0.061186325 -0.022276185 -0.108920656
000030 47 e4 6b bd e2 6b 4d bd 9e a0 c2 bd ef b1 da bd
       -0.05759075 -0.050151713 -0.095032915 -0.106784694
000040 e4 65 27 bd c8 b6 fa bd 4c 14 b6 bd e9 80 b3 bd
       -0.040868655 -0.12241894 -0.0889059 -0.08764822
000050 32 f2 ae bd 88 f4 72 bd c7 c3 fe bd 99 47 d6 bd
       -0.08542289 -0.059315234 -0.12439685 -0.10462875
000060 de c8 81 bd e3 25 1f be e1 8c ad bd 3a 82 1d be
       -0.063371405 -0.15541796 -0.08474136 -0.15381709
000070 8f 96 30 bd ec 3e 93 bd 97 81 a0 bc d1 7e e0 bd
       -0.043112334 -0.07189736 -0.019593043 -0.10961688
000080 00 02 24 bc 04 b0 42 bd ef e6 f1 bc 57 a2 01 be
       -0.010010242 -0.047531143 -0.029529063 -0.12659584
000090 9a 53 13 3b ea fc 09 be 14 3f eb bd 00 ce 06 bd
       0.002248025 -0.13475385 -0.114866406 -0.0329113
0000a0 ee a6 33 bd d6 e8 2d be 8c 80 ed bd bc a0 92 bd
       -0.04386037 -0.16983351 -0.11596784 -0.07159564
0000b0 63 49 b9 bd 14 e9 ea bd 55 20 e0 bd 2f 56 34 bd
       -0.090472005 -0.114702374 -0.10943667 -0.044027504
0000c0 a7 fd 7c bd ca 8d a4 bd 1e 22 29 bd 11 c9 ed bd
       -0.06176534 -0.080348566 -0.041292302 -0.11610616
0000d0 34 83 ee bd 35 e4 14 be d4 21 0e be 9a c1 ce bd
       -0.11646119 -0.14540179 -0.13880092 -0.1009552
0000e0 46 0c b2 bd ee 92 c8 bd 09 f9 a3 bd ce 5c 03 be
       -0.08693747 -0.097936496 -0.08006484 -0.12828371
0000f0 c2 43 e5 bd 22 45 c7 bc 65 8c eb bd 7d 21 2f bd
       -0.111945644 -0.024324957 -0.115013875 -0.042756546
000100 7c 28 fa bd eb 19 0d be 87 89 db bd 35 7c e2 bd
       -0.12214753 -0.13779418 -0.10719591 -0.11058847
000110 51 67 00 bd 64 5c e4 bd f7 bc 21 bd 05 c7 8f bd
       -0.03134853 -0.111504346 -0.03948685 -0.07020382
000120 79 4d f8 bd b4 10 af bd 36 0b c8 bd c8 ca 00 bd
       -0.12124152 -0.08548108 -0.09767763 -0.031443387
000130 85 16 61 bd 3d 74 10 bd f3 f0 bd bd 9c ae b9 bd
       -0.054953117 -0.035267103 -0.09274473 -0.09066507
000140 7d 76 ed bd 22 af 88 bd 86 ab 0d bd d9 0e ae bd
       -0.115948655 -0.06674029 -0.034587406 -0.08498926
000150 07 50 5a bd 76 b2 f8 bc bb 38 b5 bd 8c 92 19 be
       -0.053298976 -0.030358534 -0.08848711 -0.1499731
000160 dd 58 18 be e5 39 c1 bd 55 68 c2 bd e2 68 f3 bd
       -0.14877649 -0.09434871 -0.09492556 -0.11885239
000170 11 a5 b4 bc 94 a8 9a bd cf 88 8e bd a9 6a 16 be
       -0.022051366 -0.07551685 -0.06959688 -0.14689125
000180 d5 9b 7d bd d0 a5 96 bc 48 d5 ac bd e0 1b fe bd
       -0.06191619 -0.018389612 -0.08439118 -0.124076605
000190 20 ff f7 bd 6c 53 39 bc 5b 74 09 be a0 57 97 bd
       -0.12109208 -0.011311393 -0.13423292 -0.0738976
0001a0 d0 24 5b bd 13 5d b1 bd 6a de 91 bd 2c 6b a6 bd
       -0.053501904 -0.086603306 -0.071225 -0.0812591
0001b0 0e d0 54 bd 08 b3 0c bd 29 31 8b bd 81 9c d7 bd
       -0.05195623 -0.034350425 -0.06796486 -0.105278976
0001c0 8f fc 8f bd 6b a1 ab bc 32 e5 a2 bd 94 66 dc bd
       -0.070305936 -0.020950994 -0.07953872 -0.10761753
0001d0 a5 36 fe bd 72 fe b3 bd 2a bd 30 bd 2a 14 c6 bd
       -0.12412766 -0.08788766 -0.04314915 -0.09671815
0001e0 19 a9 8e bd ca 69 80 bd b0 eb 63 bd ba b6 0f be
       -0.069658466 -0.06270178 -0.05564469 -0.14034548
0001f0 46 43 6b bd d4 91 f3 bd 6c e4 e7 bd 9a 21 99 bd
       -0.057437204 -0.11893049 -0.11322865 -0.07477112
000200 41 54 5d bd 9c 23 a6 bd fb c9 c4 bd 7b 11 c6 bc
       -0.05403543 -0.08112261 -0.09608837 -0.024178257
000210 f3 ea d8 bd 4d 86 6c 3c b2 45 00 be 50 c2 3e bc
       -0.10591688 0.014436317 -0.12526587 -0.011643007
000220 97 0f a0 bd ee aa b9 bd 78 3f 90 bd 83 1c 81 bd
       -0.078154735 -0.090658054 -0.07043356 -0.06304266
000230 2e 3b d8 bd 9c 30 56 bd aa 97 f7 bd f6 b0 58 bd
       -0.10558163 -0.05229245 -0.120894745 -0.052903138
000240 7f 5d c4 bd 6a 54 84 bd f4 1e 5f bd b6 47 07 be
       -0.095881455 -0.06461413 -0.05447288 -0.1321095
000250 27 1e b7 bc af 8e 7e bd 89 9e 66 bd b5 55 b1 bd
       -0.022353245 -0.062147792 -0.056303535 -0.086589254
000260 0b 36 fd bd a8 a5 e1 bd 30 e5 89 bd 3b 51 b7 bd
       -0.123638235 -0.110179245 -0.06733167 -0.0895104
000270 59 fc 06 bd 2e e2 b4 bd ac 10 ba bd 7c 1b 4d bd
       -0.0329555 -0.08832203 -0.09085211 -0.05007504
000280 58 08 3f bd 6c 83 03 be e9 d4 00 be 29 f3 8f bd
       -0.046638817 -0.12843102 -0.12581219 -0.07028801
000290 18 dd 81 bd 0b 51 16 be 60 b2 35 be 7b 4e f3 bd
       -0.063409984 -0.14679353 -0.17743826 -0.11880203
0002a0 a3 e1 c9 bd ac a2 07 be ca e0 32 bc 6a 97 cd bd
       -0.0985749 -0.13245648 -0.010917852 -0.100386456
0002b0 f1 54 99 bd 1b fe ee bd a0 15 bb bd a8 84 0b be
       -0.074869044 -0.116695605 -0.09134984 -0.13624823
0002c0 e1 ab b1 bc c6 7b 40 bd 8e 4b d6 bd d7 1e b9 bd
       -0.021688404 -0.04699304 -0.1046363 -0.09039085
0002d0 23 a0 b7 bd c1 66 79 bd 12 f9 c8 bd 73 6d 9d bd
       -0.089660905 -0.06088901 -0.098131314 -0.076868914
0002e0 56 1a 99 bd 74 c9 52 bd 06 4c 72 bd d5 78 6d bd
       -0.07475726 -0.051461652 -0.059154533 -0.057976563
0002f0 83 34 b9 bd 8b 12 ca bd ca 0a 06 be af 47 e3 bd
       -0.09043219 -0.09866818 -0.13090053 -0.11097657
000300 7f f5 a6 bd 92 7e 32 be 79 c2 6e bd cf 66 75 bd
       -0.081522934 -0.17431095 -0.058290932 -0.0599125
000310 72 47 02 be df 2d cd bd 51 d5 bc bd 81 e1 6f bd
       -0.12722567 -0.10018515 -0.092203744 -0.058564667
000320 f6 d5 de bd 72 b2 52 bd 0e 7b 8b bd 88 20 73 bd
       -0.108806536 -0.05143971 -0.0681058 -0.059357196
000330 66 d5 bd bd 58 85 a4 bd 99 55 e1 bd 34 0d c1 bd
       -0.09269218 -0.08033246 -0.110026546 -0.094263464
000340 89 55 b0 bd 06 6b d0 bd 54 71 a2 bc 69 83 12 be
       -0.086100645 -0.10176663 -0.01982943 -0.14307941
000350 97 1b 8c bd ae d0 c0 bd d0 78 95 bd 06 c9 db bd
       -0.068412 -0.094148025 -0.07298434 -0.107317016
000360 47 76 ae bd 2d 9f b7 bd 6c 37 93 bd 72 88 8f bd
       -0.08518653 -0.08965907 -0.07188305 -0.07008447
000370 31 24 b6 bd 09 19 06 bd 37 47 4e bd fd 6b 7a bd
       -0.08893622 -0.03273872 -0.050360885 -0.061138142
000380 7d dc ed bd 47 cb e5 bd 61 59 d8 bc f9 62 90 bd
       -0.116143204 -0.11220413 -0.026409807 -0.070501275
000390 3e 3d 8f bd 93 5c da bd 4c c3 8b bd d4 16 3f bd
       -0.06994103 -0.106621884 -0.06824359 -0.04665263
0003a0 62 99 42 be 5c b5 26 bd fc f0 db bd b5 b9 41 bd
       -0.19003823 -0.0407003 -0.107393235 -0.047296245
0003b0 d5 70 a5 bd 99 10 71 bd 4f c7 2d bd 20 6c 83 bd
       -0.080781616 -0.05885372 -0.042426404 -0.064171076
0003c0 62 06 52 bd 96 fb 01 be 6f f9 70 bd 5e 38 89 3a
       -0.05127562 -0.12693629 -0.05883163 0.0010469069
0003d0 2c 7a c3 bd 82 82 bd bd 28 43 84 bd 98 02 e8 bc
       -0.09544787 -0.09253408 -0.064581215 -0.02832155
0003e0 50 61 81 bd 04 ec a4 bd 0e 59 ff bc 63 e8 53 bd
       -0.06317389 -0.08052829 -0.031170394 -0.051735293
0003f0 4b 67 85 bd fd 5f c0 bd c2 00 9a bd 7d 00 7b bd
       -0.06513842 -0.09393308 -0.07519676 -0.061279763

fc3.weight f4 [1, 300]
000000 d3 ab 86 bc 2c c3 c2 3c 70 90 14 bc 41 27 24 3c
       -0.016439354 0.023774706 -0.00906764 0.0100191245
000010 5a e1 67 3b c7 5f b5 3b 5d 69 28 bc fb 33 95 3c
       0.0035382123 0.005535099 -0.010279027 0.018213263
000020 3c dc e1 3b 2c f3 0d 3c c9 40 3e 3c b2 f7 8d 3c
       0.006892709 0.008663934 0.011612126 0.017330024
000030 ae a0 85 bc 39 27 1a bc b6 fb 41 bc 23 2f 70 bc
       -0.01631197 -0.0094087655 -0.011839798 -0.014659676
000040 e7 66 21 bc 22 43 33 3c 3b f4 58 3c e9 15 36 3c
       -0.009851194 0.010941299 0.013241823 0.011113622
000050 c6 70 12 bc f0 8e 99 3b 37 43 4c 3c c8 f7 1b 3d
       -0.00893802 0.004686229 0.012467197 0.0380781
000060 65 9e 00 bc d1 6d 9a 3c c3 1c 42 3c 54 e6 a8 bc
       -0.007850264 0.018851193 0.011847678 -0.020617642
000070 e0 80 f3 3b cf 1d 90 3c b8 07 39 bc af 5e 83 bc
       0.0074311346 0.017592339 -0.011293344 -0.01603636
000080 24 fe f1 3b bc 59 47 bc 51 da 84 bc 51 8f e7 bc
       0.0073850323 -0.01216739 -0.016217383 -0.02826658
000090 c8 82 20 3c fa c9 36 3d 88 2e 8a 3c 9e d0 5e 3c
       0.009796806 0.044626214 0.016867891 0.013599543
0000a0 89 80 e7 bb ce 2c 0b 3c e9 30 e0 3c 7e 98 83 3b
       -0.007064883 0.008494569 0.027367072 0.004015981
0000b0 67 5a ad 3b a5 80 cd 3c d3 60 a3 bc 98 8f 21 bc
       0.005290318 0.025085757 -0.01994363 -0.009860896
0000c0 0c 40 3b bc 45 cd d4 bc e3 8e fc bb cb dc 82 bc
       -0.011428844 -0.025976786 -0.007707463 -0.015974423
0000d0 2b 3f 98 3c f5 c7 fa 3c 0d 8f dc 3c 14 1b f0 3c
       0.018584808 0.030612925 0.02692368 0.029309787
0000e0 b4 cb bb 3b 35 23 3e 3c 36 3e b6 3c 77 75 7b bc
       0.0057310704 0.011605074 0.022246461 -0.01534783
0000f0 0c 1e 6c bc 78 4b a1 3b 93 25 ab 3a 3b 6c 4d 3c
       -0.014411461 0.0049223267 0.0013057463 0.012538011
000100 c7 68 95 3c da 89 0b 3c f7 a6 3f 3c 7a 68 4c bc
       0.018238438 0.008516753 0.011697522 -0.012476081
000110 3e 2d d8 bb 83 cf 98 3c 3f e5 27 bd 20 3d 4b bc
       -0.00659719 0.018653637 -0.04099011 -0.01240471
000120 ba db 24 bc a9 6a 10 3c 88 5a 84 bc 5a 93 62 bc
       -0.0100621525 0.008814492 -0.01615645 -0.013829077
000130 5a 0f 97 3c 8c 7b dd bb 1c 2f e2 bb 70 f1 4d 3c
       0.018439937 -0.0067591127 -0.0069025885 0.01256977
000140 d7 78 25 3c 2c 2c 90 3b 43 4c db 3b 86 19 e6 3b
       0.010099611 0.004399797 0.0066924407 0.0070220856
000150 e6 6a 5e 3c 26 fd fa bc f0 0e 06 3c 3e 6f 8c bc
       0.013575291 -0.030638289 0.008182272 -0.017142888
000160 8e 3b e4 3c 26 92 fd bc a8 21 c2 3c 04 e4 c3 3b
       0.02786043 -0.030953478 0.02369769 0.0059781093
000170 6e ec 2c bc 04 35 98 bc 5c a3 23 bc 71 68 5e bd
       -0.010554416 -0.018579967 -0.009987678 -0.05429882
000180 ae 4e dd 3c 7c af 14 3c 1b 68 63 bb 25 fb 15 bc
       0.027015056 0.009075042 -0.0034699503 -0.009154116
000190 28 bd 76 3c 54 26 04 bc 89 73 18 3d 0e 0b 36 bc
       0.015059747 -0.008065779 0.037219558 -0.011111034
0001a0 c2 bc ac bc 6e c4 1c bc ce df c7 3b e1 3c 32 3c
       -0.0210861 -0.009568317 0.0060996776 0.0108787725
0001b0 4c 64 a6 bc 87 40 96 bc 2a fd 46 bc 93 35 f7 3b
       -0.020311497 -0.018341316 -0.01214532 0.0075442283
0001c0 fd 2f 89 3c 92 6a f3 3b 2d 0f 47 bc 3c 73 a8 bc
       0.016746515 0.0074284757 -0.012149614 -0.02056276
0001d0 ba 0f 86 bc bd f9 b5 3b b6 03 9a bb 94 74 cc bc
       -0.01636492 0.0055534528 -0.0047001494 -0.024957933
0001e0 5b f8 a0 bc a8 ff 5d bc a3 44 c9 3b 3d e5 b6 3c
       -0.019649675 -0.013549723 0.0061422153 0.022326106
0001f0 01 33 b4 3c 7c 7b 91 bc 84 b0 33 bc 38 bf 90 bc
       0.021996977 -0.017759077 -0.010967378 -0.017669305
000200 87 ca 12 3c 32 0e 69 bc db 23 00 3b 2f ca 47 bc
       0.008959419 -0.014224576 0.0019552622 -0.0121942
000210 1b 5b 1b 3c 18 f7 ae bb a2 58 a8 bc c9 5c 08 bc
       0.00948217 -0.0053395145 -0.020550076 -0.008322903
000220 40 37 87 bc 68 4e 62 bc 72 21 12 3c f0 02 c9 bc
       -0.016505837 -0.013812639 0.008919107 -0.024537534
000230 bb 03 91 bc 34 1a 85 bc 34 02 9f bc 0d 69 52 3c
       -0.017701974 -0.016247846 -0.01941023 0.012842429
000240 90 7d a5 bc bc f8 61 bc 6a b1 4b bc 3a 25 48 bc
       -0.020201474 -0.013792213 -0.0124324355 -0.012215907
000250 87 99 26 bc 46 e9 dc bb 1b b0 20 bc 90 c5 56 3c
       -0.01016844 -0.0067416755 -0.009807612 0.013108626
000260 04 60 67 bc a2 60 4b 3c f4 ac 67 3c 0c 83 f5 bc
       -0.014122013 0.012413176 0.014140356 -0.029969715
000270 af aa 6e bc 8e fc c9 bc f1 bb d1 bc 85 1c 00 bc
       -0.014567061 -0.02465656 -0.025602313 -0.0078193
000280 3a 04 8f bc c7 b8 46 3d ed 8d ae bc 8e bc 2c 3c
       -0.01745807 0.04851606 -0.02130791 0.010543002
000290 c2 45 16 bc 2d 09 55 bc ca 3c c2 3c 31 dc d9 bc
       -0.009171905 -0.013002676 0.023710627 -0.026594253
0002a0 7f 4f d6 bc 2b 35 14 3c 43 81 bd bb 12 54 04 3d
       -0.026160954 0.009045879 -0.0057832315 0.03230674
0002b0 c1 42 34 bc 8a 42 83 ba b9 5a 59 3c 96 3f 02 bd
       -0.0110022435 -0.0010014337 0.013266259 -0.03179892
0002c0 77 f6 03 3c f9 b7 20 bb 64 e3 8a 3d 23 ba b5 3b
       0.008054367 -0.0024523719 0.067816526 0.005545871
0002d0 c5 65 13 bc 21 f0 7a 3c f0 1a 58 3c 96 19 42 bc
       -0.008996432 0.01531604 0.013190016 -0.0118469205
0002e0 06 91 3d 3c b0 5d 99 bc c1 06 cf bb 29 d5 08 bc
       0.011570221 -0.018721431 -0.006317944 -0.008351603
0002f0 3a 20 ab bb c3 eb bf 3a b3 00 63 bc 96 e9 0f 3c
       -0.0052223476 0.0014642406 -0.013855147 0.008783719
000300 57 c9 88 bc f1 31 fa 3c 37 dd 04 3c 02 0f 82 3c
       -0.016697569 0.030541392 0.008109382 0.015876297
000310 90 93 1b bd fb f7 77 bc e7 c6 ac 3b 54 50 77 3c
       -0.037982523 -0.015134807 0.0052727344 0.015094835
000320 1c ad 8f 3c be 1c 03 3c d0 53 65 3c 14 6f 2c bc
       0.0175386 0.008002458 0.013997033 -0.01052453
000330 9b 0e 0c 3c 21 5d ca 3c 07 42 9b bc ad 7e 92 3c
       0.008548404 0.02470261 -0.018952383 0.01788267
000340 36 49 00 bc fc f1 e9 3c 1d 7c ad 3b 04 c5 aa 3c
       -0.007829955 0.02855777 0.0052943365 0.020845897
000350 f5 02 06 3b d9 cc ab bc c6 cc 12 3c 22 b0 33 3d
       0.002044854 -0.020971702 0.008959955 0.043869145
000360 7d d5 4c bc e8 cb 03 3c 75 52 de 3b 52 27 27 3c
       -0.012502071 0.0080442205 0.006784732 0.010202246
000370 7f 4b 1f 3c 4b ec 1b 3c e1 b5 d8 bb 01 b0 55 bc
       0.0097225895 0.009516786 -0.0066134785 -0.013042451
000380 f7 31 b4 bc 36 68 e2 bc 6a 14 08 3c 95 fb d0 bc
       -0.021996481 -0.027637582 0.008305648 -0.025510589
000390 bb 3f 39 bb fb 1e 47 bc b2 3f 43 bc df ad 8c 3c
       -0.0028266746 -0.012153382 -0.011917042 0.017172752
0003a0 b8 de 1f 3d f8 6c 11 3c 30 9e a0 bc 1f e7 01 bc
       0.03903076 0.008876078 -0.01960668 -0.007928639
0003b0 71 a3 d9 bb 41 66 dc 3b fc 03 04 bd 7d 4d 33 bb
       -0.006641798 0.006726057 -0.032230362 -0.002735942
0003c0 12 44 2e 3c 5d 7c f9 3c 4f 81 29 bd ba 9e 05 bc
       0.010636346 0.030454809 -0.041383084 -0.008155519
0003d0 ff 1a ca bc 49 f2 d5 3b 7e 8c 0a bc 84 26 01 bc
       -0.024671076 0.006529127 -0.0084563475 -0.007882718
0003e0 e8 12 94 bb 98 c6 c2 3c e5 01 22 3c ea 9c 66 bc
       -0.0045188554 0.023776338 0.009888147 -0.014075497
0003f0 26 c9 f4 bb 50 f0 a3 bc 70 fb 40 bc f6 89 50 3c
       -0.007470268 -0.02001205 -0.011778697 0.012728205

bn1.weight f4 [400]
000000 7a 78 15 3f ad 55 ea 3e 35 69 a3 3e 43 42 1e 3f
       0.5838696 0.4576849 0.31916204 0.6181986
000010 09 3a 04 3f 2b b1 2a 3d 92 c3 26 3f 42 50 1a 3f
       0.51651055 0.041672867 0.65142167 0.60278714
000020 b8 4d 08 3e 6c 0a f9 3e 63 de c8 3e b9 7e 73 3f
       0.13310897 0.48640764 0.39232168 0.9511524
000030 de c3 a5 3d b5 45 08 3f 06 6c 09 3f 94 f0 0d 3f
       0.08093999 0.53231364 0.53680456 0.5544522
000040 36 0d 1f 3e b0 71 89 3e 1e 40 29 3f fa 88 d9 3d
       0.15532383 0.2684455 0.6611346 0.10621829
000050 2f 98 26 3f 76 0e 0d 3e c5 49 b5 3e 03 d5 5a 3e
       0.65075964 0.13775048 0.35407844 0.2137032
000060 d3 8a d5 3e a0 a2 d8 3e 1e 5e 5d 3f 7e 09 10 3f
       0.41707477 0.42311573 0.86471736 0.56264484
000070 b1 be 8d 3e fb 67 52 3e 07 8c bd 3e a0 a0 10 3f
       0.27684548 0.20547478 0.37020895 0.56495094
000080 f4 0e 3b 3f 3a ad 0a 3f 60 8a 0f 3f a3 2f 34 3f
       0.7306969 0.5417057 0.5607052 0.7038519
000090 25 ff b4 3e b2 38 9a 3e 55 77 3c 3e 2d 23 8d 3e
       0.3535091 0.3012138 0.18404897 0.275659
0000a0 ae 4d 28 3f fd 65 b8 3e 8a 9d fe 3d 13 66 be 3e
       0.6574353 0.3601531 0.12432392 0.3718725
0000b0 10 4e 20 3e 20 82 a9 3e 12 bc 08 3e f7 53 e1 3e
       0.15654778 0.3310709 0.13352993 0.44009373
0000c0 02 05 9d 3e 3d ec cd 3e a0 84 25 3e 31 69 10 3f
       0.30667883 0.40219298 0.16163874 0.5641051
0000d0 ed 54 ea 3e 54 e0 23 3f ae cf b1 3d ac 56 31 3e
       0.45767918 0.6401417 0.0868219 0.17318219
0000e0 d1 48 0f 3f 13 80 fb 3e 42 9b 0a 3f 22 6a 2c 3f
       0.55970484 0.4912115 0.54143155 0.67349446
0000f0 43 9a 16 3f e6 e1 18 3f e7 df 92 3d 93 f1 95 ba
       0.58829135 0.59719694 0.07171612 -0.0011439793
000100 50 77 f0 3d aa f3 df 3e fc 30 a5 3e 57 f2 cc 3e
       0.11741507 0.43740588 0.32263935 0.4002864
000110 01 08 07 3e 64 3d c5 3e 55 aa 03 bc c3 e5 ac 3e
       0.13186647 0.385234 -0.008036216 0.33769044
000120 99 e5 3b 3f 88 22 da 3e 46 a0 06 3f c3 df 1e 3e
       0.73397213 0.4260447 0.5258831 0.15515046
000130 73 09 53 3e e2 76 0a 3f 20 1d 08 3f 40 72 f5 3e
       0.20609073 0.5408765 0.5316944 0.47938728
000140 e9 7e 1a 3e fe ef b1 3e c0 2e 91 3e 8d 3a 51 3e
       0.15087475 0.34753412 0.2835598 0.20432492
000150 ac 6a ec 3e 2d 3a f9 3d 68 b5 23 3f 5a 69 f8 3e
       0.46175134 0.12169299 0.6394868 0.48517877
000160 35 bb b4 3e 41 44 0e 3f 88 f3 17 3f 45 c6 19 3f
       0.35299078 0.555729 0.59355974 0.6006816
000170 21 c0 33 3e 19 02 0d 3f 5a 03 cd 3e 16 13 e0 3e
       0.1755376 0.55081326 0.4004162 0.4376456
000180 f9 70 67 3f b5 d5 00 bd 1d f7 6b 3e 75 e4 ff 3e
       0.9040676 -0.031453807 0.23043485 0.49978986
000190 05 c1 00 3f 54 ef 25 3f 1d 0d b5 3e c7 6c 0f 3f
       0.50294524 0.6481831 0.35361567 0.56025356
0001a0 02 54 e3 3e 37 53 46 3e 69 07 18 3f f0 9f fb 3e
       0.4440003 0.19367681 0.59386307 0.4914546
0001b0 34 5a c9 3e b8 fe a4 3e 44 d2 3e 3e fb 24 dd 3e
       0.39326632 0.32225585 0.18634897 0.43192276
0001c0 f3 98 c9 3e 50 ad d5 3e 98 65 12 3f b9 78 54 3d
       0.39374503 0.4173379 0.5718627 0.051872943
0001d0 43 f2 24 3f 65 69 71 3e bf 35 21 3e f9 18 04 3f
       0.6443216 0.23575361 0.15743159 0.51600605
0001e0 5a 20 80 3e 6f 7c 38 3e 7f ed be 3e 5e fc 23 3f
       0.25024682 0.18016218 0.3729057 0.64056957
0001f0 bc 30 8b 3d b9 ca 4c 3e b3 0f c7 3c 30 68 0f 3f
       0.06796405 0.19999208 0.024299478 0.5601835
000200 e6 b9 01 3f 18 f2 be 3d 1a 6b f2 3c 57 f5 c0 3e
       0.50674284 0.093235195 0.029592086 0.3768718
000210 7a bd ea 3d 04 3d 8f 3f 7d 66 07 3f cf c3 2b 3f
       0.11461921 1.1190495 0.5289076 0.67095655
000220 f7 ae 05 3f 8a 0e 67 3d 91 39 01 3f e9 9b 2d 3e
       0.522201 0.05641035 0.50478464 0.16954006
000230 d8 7c d8 3e 0e 49 ce 3e fc a7 b4 3d e6 c6 f2 3e
       0.42282748 0.4029011 0.08821103 0.47417372
000240 9c d6 9f 3e 46 8a 9a 3d 4e c2 53 3e 5c eb 9e 3e
       0.3121842 0.07545905 0.2067959 0.3103894
000250 c9 a1 10 3f eb 4d 4a 3f e8 94 bf 3d ac a1 40 3f
       0.56496865 0.79025143 0.093545735 0.7524669
000260 9b 87 9e 3e 18 5c 97 3e f6 4a d2 3e cf 8a 18 3f
       0.30962834 0.2956245 0.41072816 0.59586805
000270 5e a3 95 3d 35 87 57 3e b9 65 35 3f b3 c4 c9 3d
       0.073065504 0.21047671 0.7085834 0.098519705
000280 b7 92 59 3f 0f 76 2e 3f d3 0f 2f 3f ff 16 90 3e
       0.84989494 0.68148893 0.6838352 0.28142545
000290 64 80 9d 3e 28 73 4b 3e 57 bb 50 3f ea 6f d0 3d
       0.30762017 0.19868147 0.8153586 0.10177596
0002a0 80 b0 f2 3e 7f 7c 02 3f 3e a4 40 3f b6 bb 90 3e
       0.47400284 0.50971216 0.75250614 0.28268212
0002b0 28 f5 9e 3e 24 83 02 3e 07 4a dc 3e 7d b7 be 3e
       0.31046414 0.12745339 0.43025228 0.37249365
0002c0 a6 af 24 3f 71 e3 8d 3e 1b e5 00 3f 05 02 23 3e
       0.6433052 0.27712587 0.5034959 0.15918739
0002d0 e9 80 a1 3d 98 a5 06 3f a4 ba a4 3e d3 42 5e 3e
       0.07885916 0.52596426 0.32173645 0.21705179
0002e0 ed 9d 9c 3e b4 70 03 3f 19 ce 1f 3f 29 58 46 3e
       0.30589238 0.51343846 0.62423855 0.19369568
0002f0 ad fc 2e 3f 99 6a 5a 3e b3 0b 8f 3e 02 99 62 3e
       0.683543 0.21329726 0.27938613 0.2212868
000300 ba db c0 3e bd 70 b0 3e 12 ac a8 3e dc 47 4f 3e
       0.37667638 0.34461012 0.3294378 0.20242256
000310 33 ac c4 3e ad be f6 3e 40 a6 a9 3e 75 31 0d 3f
       0.38412628 0.4819235 0.3313465 0.5515359
000320 aa fc fd 3e 0e 21 e3 3e d9 df 08 3d 74 a4 d3 3e
       0.4960683 0.44361156 0.033416603 0.41336405
000330 ab ea 07 3f b4 18 ea 3e e3 83 8c 3e a5 16 c2 3d
       0.5309245 0.45721972 0.27444372 0.09476975
000340 7e 90 db 3e 5a 68 0a 3f bf ca eb 3e 83 f2 8c 3e
       0.42883676 0.5406548 0.4605312 0.27528772
000350 41 e6 4b 3e e8 29 14 3f 8a 5d 0e 3f 55 91 ae 3e
       0.19912054 0.57876444 0.5561148 0.34095255
000360 85 33 34 3e c5 83 cf 3e 1b 92 16 3f 28 8b bd 3d
       0.17597778 0.4053022 0.5881669 0.092550576
000370 73 90 a2 3e 15 99 a5 3e d5 5d d4 3d f3 b7 2c 3d
       0.3175083 0.32343355 0.103694595 0.042167615
000380 11 17 97 3e 03 ba 1c 3b 03 e6 84 3e c4 76 3d 3f
       0.29509786 0.0023914583 0.25956735 0.74009347
000390 1e 62 19 3e 75 c9 be 3e ed af a2 3e c5 6f 23 3e
       0.14978835 0.37263075 0.31774846 0.15960605
0003a0 74 f6 f6 3d 53 48 8e 3e 4e a4 07 3f d7 d8 45 3f
       0.12058726 0.27789554 0.52985084 0.77283996
0003b0 d8 a8 39 3f f2 bd 44 3e bf 9f d4 3e 62 12 92 3e
       0.7252326 0.19213083 0.41528127 0.2852965
0003c0 52 48 5a 3e 61 ba 1a 3f 15 0f be 3d df ea 2c 3d
       0.2131665 0.6044064 0.092802204 0.042216178
0003d0 73 ba 12 3f 92 a9 e0 3e a6 39 c2 3c 84 b1 9d 3e
       0.5731575 0.43879372 0.02370913 0.30799496
0003e0 a5 6a c7 3d e2 c2 06 3f 65 1e 8d 3f 08 e5 0a 3e
       0.09737138 0.5264112 1.1024901 0.13563931
0003f0 85 bd 3c 3f a1 cd 56 3e 0c b0 14 3f 26 cb dc 3e
       0.73726684 0.20976879 0.58081126 0.4312374

bn1.bias f4 [400]
000000 8f 1e eb 3c 24 2c 74 3d a2 a0 c5 ba 4d b5 e0 3d
       0.028701095 0.05961241 -0.001507778 0.109720804
000010 14 c7 2c 3e 1e f0 25 be 32 8b ca 3d 4b ba 34 3e
       0.16872817 -0.16204879 0.09889831 0.1764919
000020 a1 e9 25 bd 2f f5 28 3e af 99 4b 3d 4d 3b 03 3d
       -0.04050601 0.1649978 0.04970711 0.032038976
000030 01 d8 9e 3d 79 7f 31 3d 62 56 17 3e 38 c3 89 3d
       0.07756043 0.043334458 0.14779046 0.06726688
000040 cc e3 24 3e 5e 40 41 3e 5f e7 3a 3d e8 c7 39 3e
       0.16102523 0.1887221 0.04563081 0.18142664
000050 ed 62 41 3e 99 6b 5a bc 77 6c 0f 3e 60 f9 73 bc
       0.18885393 -0.013331317 0.1400622 -0.014890999
000060 76 25 5a bd 1c 5b 15 3d 8d 26 56 3d 4e 61 36 3e
       -0.05325838 0.03646384 0.05228286 0.17810556
000070 39 6f cc 3d 7b f5 19 3d ed 8c 1c 3e bf 11 4c 3d
       0.099821515 0.037587624 0.15288134 0.04982161
000080 fb d2 b2 3d bb 7b 0c 3e 92 79 4b 3e 00 a5 15 3e
       0.087316476 0.13719074 0.19870594 0.14613724
000090 ed 3c 14 3e a8 43 11 3e 5c ad da 3c 6e 8b 2a 3e
       0.14476366 0.14185965 0.026693992 0.1665475
0000a0 b3 04 09 3e 45 7d f1 3d 18 4a 44 3e 55 db 12 3e
       0.13380699 0.117914714 0.1916889 0.14341481
0000b0 58 ff 4b 3e 1b df e1 3d e5 a7 2e 3d ef 2f 54 3d
       0.19921625 0.11028882 0.042640585 0.051803526
0000c0 e5 37 35 bc 34 0f 86 3d 8f a6 9b 3d 59 7b 0f be
       -0.01106069 0.065458685 0.07600128 -0.14011897
0000d0 bc fe a5 3d 7b 01 19 3e ca 41 7c bd d6 15 59 3c
       0.08105227 0.14941971 -0.06158618 0.013249835
0000e0 56 46 43 3e 6c 45 5f 3d 46 a9 66 3b d6 a8 50 3e
       0.190698 0.054509565 0.003519611 0.20376906
0000f0 12 ad 09 3e 3a 82 51 bd 12 1a 07 be bc 4f 9b 3a
       0.13444927 -0.051149584 -0.13193539 0.0011849324
000100 32 6a 84 3e 1e 93 84 3b ad bc a8 3d f7 4d 21 3e
       0.2586227 0.004045858 0.08239112 0.15752397
000110 95 0b 37 3d 43 07 03 3e aa ae 94 3e 11 1d 08 3e
       0.04468878 0.12795739 0.29039508 0.13292338
000120 14 ee d1 3d b5 bf f5 3d 61 df d8 3d 2a 72 1c bd
       0.10250488 0.11999456 0.10589481 -0.038194813
000130 6a c0 cc 3d be 46 4e 3e 10 32 16 3e a5 09 5c 3d
       0.099976376 0.20144174 0.14667535 0.053720135
000140 74 eb 12 3d 56 93 79 3d 1f a8 18 3e 9b 65 d4 bc
       0.035869077 0.060931526 0.14907883 -0.025927356
000150 87 43 18 3e 9e 4c 8c 3c ff 29 e9 3d 0c 2a 66 3c
       0.1486951 0.017126378 0.11384963 0.014048111
000160 90 c4 f2 3d 7f 69 f9 3c 97 af 54 3e 0d 80 12 3e
       0.118538976 0.030445812 0.20770107 0.1430666
000170 63 2a 47 3d b0 88 e4 3c fe 23 1d 3e 68 57 9e 3d
       0.048624408 0.027897209 0.15345761 0.07731515
000180 cc 89 8b 3e 5e fb a5 be 9b c1 11 3c 34 f1 c0 3d
       0.27253568 -0.3241834 0.008896257 0.09421006
000190 88 a5 20 3e 74 fb 40 3e 7d 98 18 3e 8c 28 5a 3e
       0.15688145 0.18845922 0.1490192 0.2130453
0001a0 d0 7d d2 3d 9a c9 40 3d 13 e0 b1 3d 56 32 fb 3d
       0.10277903 0.047067262 0.08685317 0.1226546
0001b0 98 cd 70 bd 84 f7 df 3d 7d 37 24 3e 40 d4 bc 3d
       -0.05878982 0.10935882 0.16036792 0.09220171
0001c0 4f ad 53 3d b7 ca 0e 3e b4 49 8a 3e 91 db 2c 3e
       0.05167895 0.13944517 0.27009356 0.16880633
0001d0 10 07 c3 3d 4b 89 8e 3d 97 d4 3c 3c 4f 55 30 3c
       0.095228314 0.0695978 0.011525295 0.010762527
0001e0 fd 29 aa 3c b9 fd 5e 3d 5b e0 9a 3d 57 32 2c 3d
       0.020771975 0.054441188 0.07562324 0.042040195
0001f0 20 72 6b 3e f5 a9 d8 3b c3 e0 cb bd 49 78 c4 3d
       0.22992754 0.0066120573 -0.09954979 0.09593255
000200 a0 2e 0c 3e 38 d3 86 3e eb 83 30 be 65 49 2f 3e
       0.13689661 0.26333022 -0.17237823 0.17117842
000210 61 0a a8 3d 82 df 84 3d 85 f4 00 ba 8c 1d f0 3d
       0.082051046 0.06487943 -0.0004919249 0.117243856
000220 f5 7e 67 3d a8 78 d1 3d 27 4e 87 bc a8 1e 3d 3e
       0.05651756 0.102280915 -0.016516758 0.18468726
000230 c0 ba a7 3d f1 83 d6 3d 95 70 1d 3d c6 a4 b9 3d
       0.081899166 0.104743846 0.038437445 0.09064631
000240 94 15 af 3d 3a 90 1f 3d 84 94 d3 3c 23 db 12 3e
       0.085490376 0.038955905 0.025827654 0.14341407
000250 42 ab f3 3d 17 9f a7 3c d7 f9 6c 3d dc ce 2a 3d
       0.11897899 0.020461602 0.057855453 0.041701183
000260 fc 21 ad 3d d7 bb 80 3d 0d d4 ff 3d d4 d2 45 3b
       0.08453748 0.062858276 0.12491617 0.0030185478
000270 44 45 aa 3d 89 14 ec 3d 53 80 8d 3d 84 0e e5 3d
       0.083139926 0.11527354 0.069092415 0.11184409
000280 67 58 ba 3d a3 6f 4e 3e c0 d8 18 3e a3 d9 f5 3d
       0.09098893 0.20159774 0.14926434 0.120044015
000290 86 af 48 3e 60 ab bb 3d db 58 81 3e e1 2a 22 3e
       0.19598207 0.091635466 0.25263104 0.1583667
0002a0 3d c5 c0 bd 33 3e 41 3e b9 f6 bd 3d 32 40 20 3e
       -0.0941262 0.18871383 0.09275574 0.15649489
0002b0 a8 c4 c7 3d 16 62 31 3e 46 cb e6 3d 06 30 af 3d
       0.09754306 0.17322573 0.1126924 0.085540816
0002c0 e8 e5 8c 3d 3c 97 c0 3d 6d 0a 2d 3e 5f ed 2b bd
       0.06879789 0.09403846 0.16898508 -0.04197442
0002d0 c0 ce 59 3d 97 62 fd 3d e4 ec bf 3d 24 7f 68 3d
       0.053175688 0.1237232 0.09371355 0.056761876
0002e0 74 7f af 3d df 84 26 3e 8b 9d 35 3e 0b 43 b1 3c
       0.08569232 0.16261624 0.17735879 0.021638414
0002f0 d2 b4 2a 3e 96 95 1a 3d 1f c7 ce 3d b9 65 95 3d
       0.1667054 0.037740313 0.10096573 0.07294793
000300 09 e9 93 3c 8b c0 2c bd 4c 43 8e 3b 0b 61 52 3d
       0.018055456 -0.04217581 0.0043415185 0.05136208
000310 43 ad c7 3d 08 df e1 3d 91 a8 5e bb 43 14 12 3e
       0.09749844 0.11028868 -0.0033974985 0.14265542
000320 96 7b 81 3d 5c 87 7a 3e d3 36 85 3e 45 c3 79 3d
       0.063224 0.24465698 0.2601839 0.06097724
000330 65 cd 3c 3e 74 0d f1 3d 94 81 b2 3d 10 8f 1a be
       0.18437727 0.11770144 0.08716121 -0.15093637
000340 dd 9d 08 3e 7f de 99 3d 67 27 c6 3c f4 f9 5f 3d
       0.1334147 0.07513141 0.02418871 0.054681733
000350 c3 ca b1 bc 35 d2 2f 3e e8 f3 0b 3e 45 36 9c 3d
       -0.02170313 0.17170031 0.13667262 0.076275386
000360 48 ea 25 3d 29 1f 48 3e cf 58 63 3d 16 16 21 bd
       0.04050663 0.19543137 0.055504616 -0.039327703
000370 cf 01 ff 3c 45 19 0f 3d 36 c5 93 bd cc 78 c0 bc
       0.031128792 0.03493621 -0.072153494 -0.0234951
000380 12 b6 84 bc f5 33 4c bb e4 d2 98 3d fe d5 63 3e
       -0.0162001 -0.0031158898 0.07462099 0.222496
000390 97 a8 2d 3d 63 02 b0 bc 36 36 0a 3d 53 1a 17 3e
       0.042397108 -0.021485513 0.033743106 0.14756136
0003a0 1f 04 6d bc 2e 06 8e bb 58 6d 30 3e f5 5e 6d 3e
       -0.014466315 -0.004334233 0.17229211 0.23180754
0003b0 cc 8e c0 3d e5 8e 1a 3d 12 da b1 3d 62 16 ad 3d
       0.09402236 0.03773393 0.08684172 0.08451535
0003c0 d7 92 d1 3d 3f 56 0e 3e 87 c7 d8 3b 18 bc dc 3d
       0.102330856 0.13900088 0.0066155824 0.107780635
0003d0 0c 6b 63 3d ac 62 27 3e 47 d6 30 be f4 5d 6b bb
       0.05552201 0.16346234 -0.1726924 -0.0035914155
0003e0 bf 87 15 bc 95 65 14 3e f7 b6 03 3d 8a dc bb 3c
       -0.009126603 0.14491875 0.03215691 0.02293231
0003f0 27 79 fa 3d 6b ac a3 3d 59 0a b5 3d 2c 15 3d 3e
       0.12230139 0.079918705 0.08839864 0.18465108
