checkpoint_actor_local1.pth (torch_old, 47280 bytes, 6 tensors)

fc1.weight f4 [128, 24]
00000000: a3fa 773b 3367 6d3e 4aef 65bc ff1b 7f3c
00000010: 084b b4bc 4ed8 d33d 210d 3bbc 12c8 3b3b
00000020: fd9d f2bc 91cf 0d3e 13ab 073e 69f2 393e
00000030: 9a0f 2d3e cfff 163e 7cec be3d 2529 0d3e
00000040: 94f4 423d 2b9c 393e 2538 fe3b 7c05 18bd
00000050: d1db 893e 0b31 6bbd 171a 713d a7a9 8f3d
00000060: 0728 79bd 0f86 893c 2089 943c 8b83 88bd
00000070: 0ee1 4abd da76 e6bd 6922 5fbd 6727 8b3c
00000080: de76 81bd 756a 3b3b de85 403d a0ee 603c
00000090: 9363 973c 29d9 01be 10fd 26bd 41a2 a73b
000000a0: 7105 4cbe 3a5c ed3c a686 503c e1e5 c1bd
000000b0: 0a08 e93d c80a cebd 714b 0dbc f46b 41be
000000c0: b172 a1bd 473b 8ebd 8f94 ca3b 34f6 523e
000000d0: 8220 293d fe2e 5cbe def0 3d3c c503 843e
000000e0: 4e2c 00be 5f5a a2ba a576 4ebd 1f1e 213d
000000f0: a9e7 533d 227f febc a811 d6bc 56f6 c53c
00000100: 5f15 5fbd c7a4 fe3d 3cca c8bc 3066 76bd
00000110: ee52 e2bc 59f7 b93d 53cf 403d 6877 56bd
00000120: 92ea a93d 82fb 793e 0a78 fdbd 5bf8 8d3d
00000130: 65d4 14be c5ba 07be c51f 003d 89bc aa3d
00000140: 1a76 a03c 90ab 3c3e 04d5 c2bd da8b 733d
00000150: 9df7 dabd e8f3 7fbe b460 a1bd a9ed 55bd
00000160: ccbb f4bc b141 2c3e 4cf8 5d3c 99df b0bd
00000170: 0a4b cdbd 1634 b6be 65bb 223d b962 ebbd
00000180: 427c 2a3d 6df2 d13c 8894 2f3d 929d 903d
00000190: 70d3 743d 8818 e33e 0f23 73bc b28c 303e
000001a0: 1c40 42bd 70df e1bd d1cb 723b 1b9c ec3c
000001b0: c81d 093e d941 9b3e e8b2 103e 7882 fe39
000001c0: 043a e9bd 1b86 f2bd fb92 16bd 16da 88bd
000001d0: c506 893e 5642 a83e 92e4 11be 4377 39bd
000001e0: 626a 29be 9ec9 bcbd 8267 8dbc 1bea 7b3e
000001f0: 2ffb 1cbd 1ce0 b8bd 1e6e d93d a952 423e
00000200: 0d24 02be 2684 b3bc d3eb 15bd 9e87 ff3d
00000210: 5bce 30bd d077 4abe 23f7 3c3d 3d7b 693d
00000220: 4cb9 6cbd 6343 dc3c b294 fcbb ecc4 99bd
00000230: d3e8 75bd 429b afbe e266 babc 62a1 61bd
00000240: 2b04 e8bd d6a9 dbbd 1e86 fdbc 9ace 083e
00000250: 6e01 023e b742 4abe bc1d a6bd 3589 c1bc
00000260: e9ee 0ebb 7a7e d4bc 3bd6 c93d 1750 803d
00000270: 22c8 073e c4e3 35be efd4 883d 9e4f 3f3e
00000280: 8de5 49bd 7abd 20bd 7bb4 17bd 5d84 813e
00000290: 5c23 753d ff94 2bbe 829f 793d 00be 233e
000002a0: e025 c63c 4827 5b3e 5910 81bd 3c94 713d
000002b0: b679 a4bd b6ed 323e 229a 0cbe b452 213c
000002c0: 6076 1e3d 1d77 183e 766d 5d3d eaf5 243e
000002d0: b1ad 9f3c 0c06 863e 8fe6 8e3d 6d1a 133d
000002e0: 0dcb 493d c046 e83d a566 f43d 5cb8 96bc
000002f0: d87f c43d 22e4 443e b256 fbbc 55c7 2dbc
00000300: 7cbb dabc f333 a7bd dbc9 133e 2bc5 963d
00000310: f807 8e3c fc5b a0bd ff78 b4bc 4ebf 013e
00000320: f4b9 a3bd 2be5 a73d 9490 7c3d 81ed a03e
00000330: 6ce0 f03d 0d9b 12be f8c7 1ebd 4d93 b13e
00000340: 4065 273d 4d67 ed3d a041 b43d bef7 673e
00000350: 84b9 b639 4407 90be d885 8e3d 5e4b 073e
00000360: 6335 933d 9a5f 093d a692 c5bd 3790 65bd
00000370: 2172 a4bc 9c6e d2bd 4ee9 4ebd f6b4 4abe
00000380: 9e68 a6bc 3a84 c03c 2388 8dbd 6469 05be
00000390: 3341 18be feab 423d e4a0 7dbd e580 5ebe
000003a0: 8965 8dbd 7d84 523d 9430 98bd 4ea0 09be
000003b0: 1f47 86be cdc5 963e 986e 9a3d 1e39 96bd
000003c0: 0421 be3c 9012 38be 053f 633d 0795 8d3e
000003d0: 75a0 9c3d e57b 1dbe b15d 23bc 0721 983e
000003e0: 19e0 823d 31a4 f4bc 4a0d fabc 8c6f 4e3e
000003f0: e3ad 533e 2adb 06be 790f 17bd da89 de3d
0.00378386 0.23183899 -0.014034102 0.01557064 -0.022008434 0.10343991 -0.011416704 0.0028653187
-0.02961635 0.13848712 0.13248853 0.18158878 0.16900483 0.1474602 0.093224496 0.13785227
0.04759653 0.1812598 0.007758158 -0.037114605 0.2692552 -0.057419818 0.05886277 0.070147805
-0.06082919 0.016787557 0.018131793 -0.06665715 -0.049531035 -0.11253138 -0.054476175 0.016986562
-0.063215 0.002859739 0.047002666 0.013728768 0.018480098 -0.12680496 -0.040768683 0.0051157777
-0.1992395 0.028974641 0.012727415 -0.09467674 0.113784865 -0.1006065 -0.008623944 -0.18888837
-0.07883204 -0.069449 0.0061822603 0.20601732 0.041290767 -0.21502301 0.011593072 0.25784126
-0.12516901 -0.0012386552 -0.050406117 0.039335366 0.0517346 -0.031066481 -0.026131466 0.024165314
-0.05446374 0.124337725 -0.024510495 -0.060156047 -0.027627435 0.09080381 0.04707272 -0.05235997
0.08296694 0.24412349 -0.12376411 0.06932136 -0.14534147 -0.1325484 0.031280298 0.083367415
0.019587565 0.18424821 -0.09513286 0.059459545 -0.1069176 -0.24995387 -0.07879773 -0.052228604
-0.029874705 0.16821934 0.013547968 -0.08636398 -0.10024078 -0.35586613 0.039729495 -0.11493439
0.041622408 0.025628293 0.04286626 0.07061304 0.059771955 0.44354653 -0.014839902 0.17241171
-0.04742442 -0.110289454 0.0037047754 0.02888303 0.13390267 0.30323675 0.14130747 0.00048543862
-0.11388019 -0.11841985 -0.036761265 -0.066822216 0.26762977 0.3286311 -0.14247349 -0.045279752
-0.16544488 -0.09218143 -0.01726127 0.24601023 -0.038325485 -0.090271205 0.10616706 0.18976845
-0.12709065 -0.0219136 -0.036601853 0.12477039 -0.043165546 -0.19772267 0.046134125 0.057002295
-0.0577939 0.026887601 -0.0077081556 -0.07508263 -0.06003649 -0.3429814 -0.022754136 -0.055085547
-0.1132892 -0.10725753 -0.030947741 0.13360062 0.12695858 -0.19752012 -0.0811114 -0.023624996
-0.0021809882 -0.025939215 0.09855314 0.06265276 0.13259938 -0.17762667 0.06681239 0.18682715
-0.049291182 -0.0392432 -0.037037354 0.25296298 0.059848174 -0.16756056 0.060943134 0.15990448
0.024187982 0.21401703 -0.06301946 0.058979258 -0.08031027 0.17473492 -0.13730672 0.009846378
0.03868711 0.14889188 0.05405947 0.16109434 0.019492002 0.26176488 0.06977569 0.035913873
0.04926591 0.113416195 0.119336404 -0.018398456 0.09594697 0.19227651 -0.030680988 -0.0106066065
-0.026700728 -0.081642054 0.1443247 0.073618256 0.017337784 -0.078300446 -0.022030352 0.12670633
-0.07994452 0.08198007 0.061661318 0.314312 0.11761555 -0.1431696 -0.038764924 0.34682694
0.040868044 0.11591969 0.088015795 0.226531 0.00034851965 -0.28130543 0.069591224 0.13212344
0.07187917 0.03353844 -0.096471116 -0.056045737 -0.020073952 -0.10275003 -0.050515465 -0.19795594
-0.020313557 0.02350055 -0.06910732 -0.13028485 -0.14868622 0.047527306 -0.061921015 -0.21728857
-0.06904132 0.051395882 -0.074311405 -0.13440058 -0.26226136 0.29447785 0.07540625 -0.07335113
0.023209102 -0.17975831 0.055480022 0.2765276 0.07647792 -0.15379293 -0.009971068 0.29712698
0.063903995 -0.029863449 -0.030523915 0.2015974 0.20671801 -0.13169542 -0.03687999 0.10866137

fc1.bias f4 [128]
00000000: 7771 20be 414f 4e3e b7c1 703d 20a4 60be
00000010: e3df d43c 1005 3b3e 160e c83d 429b 79be
00000020: 9ff5 063d 5938 bebc 0192 a6bd dfff 24be
00000030: 1358 00be a001 e8bb 3a2f e93d 3287 e53e
00000040: 9957 cdbd 9b01 f23c 1361 2c3e e9d2 46be
00000050: 7a4a 19bd a6f0 653e f973 e83d d85d a639
00000060: 61d8 a4bd d0b5 0c3e 3d06 45be 467d b9bb
00000070: 94fe 313c 10b3 c33d a140 3cbe 2393 c8bb
00000080: 0f0f d03d e389 e63d 0473 a6bd 42b0 7c3e
00000090: 8e78 2ebe e9b3 92bd 0de1 b8bd b066 80bd
000000a0: 28fd 7a3d fffa 8f3e 9719 bfbd e964 c8bd
000000b0: 5d48 07be 55a5 6b3e 7d94 943d e84a ddbd
000000c0: 9b42 1cbd 1576 823c c23f 933e 9d6b d73c
000000d0: e145 103e 5bc7 5ebe 33a8 a1bd fbd9 a5bd
000000e0: 6b58 5ebb 4146 753e 3fa9 843d 589f eb3d
000000f0: 6c18 e43d dea0 143e f657 45be 597f 99bd
00000100: cabe f83d f87e 0bbe 53d4 1e3d 14ee d9bb
00000110: 448a 83be 934d 60bd 85d5 35be ce26 d8bd
00000120: 3edf 493d cf86 f9bc aba1 673e 0b0f 5abe
00000130: 1fb6 a43d d817 17be 284f f43d fa63 f43d
00000140: 6e60 c9bd a94e e13d 1817 353d 0a41 e33d
00000150: a862 b7bc 2af0 8b3d 68c1 d33e 2ddb d0bd
00000160: de6d 46bd 2254 423e cc0f 05be 6a95 7f3e
00000170: 9649 6fbe 9664 883d 5378 28be bd20 cc3c
00000180: 15a8 613e 19e3 43be 674d 683e 62d3 c63c
00000190: 565e 893e 3255 9dbe c63f 873d 2135 3abe
000001a0: 3964 eb3d 05e7 83bd 8040 ffbc 40ec d73c
000001b0: d05b 16be 62d9 25be 1e7a 0e3d cee1 a03c
000001c0: 44f7 3e3e 1b82 c8bc ecf8 273e de1d 0dbe
000001d0: dd01 84bd 8296 39be 9a63 59bd e676 043c
000001e0: 4708 7bbd 2f9b 693e 95be dfbd b804 473e
000001f0: 066d 4a3e eba8 98bd ef89 733e cfa2 f93d
-0.15668283 0.2014742 0.05877849 -0.21937609 0.025985664 0.1826365 0.09768312 -0.24375632
0.032949086 -0.023220228 -0.08133317 -0.16113232 -0.12533598 -0.007080272 0.11385961 0.44829708
-0.100264736 0.029541781 0.16833906 -0.19416393 -0.037424542 0.22455081 0.11350245 0.00031731906
-0.080490835 0.13741231 -0.19240661 -0.0056606857 0.010863919 0.09555638 -0.18384029 -0.0061210557
0.10159122 0.112567686 -0.08127406 0.24676612 -0.17038175 -0.071632214 -0.090273 -0.06269586
0.061276585 0.28121182 -0.09331053 -0.09784872 -0.13211198 0.23012288 0.072548844 -0.10805303
-0.038149457 0.015925447 0.2875958 0.026296431 0.14089157 -0.21755736 -0.078934096 -0.08098217
-0.0033927213 0.23952581 0.06477594 0.11505002 0.111374706 0.14514491 -0.19271836 -0.07494993
0.12145765 -0.13622653 0.038776707 -0.0066506956 -0.25691426 -0.05476148 -0.17757232 -0.105542764
0.049285166 -0.03045979 0.22620265 -0.21294801 0.08042549 -0.1475519 0.1192916 0.119331315
-0.09832846 0.11001331 0.044211477 0.110963896 -0.02238591 0.06832917 0.41358495 -0.101980545
-0.04844462 0.18977407 -0.12994307 0.2495934 -0.23367915 0.0665981 -0.1645215 0.024917955
0.22036774 -0.191296 0.22685777 0.024270717 0.26829785 -0.3072906 0.06603961 -0.1818433
0.11493725 -0.06440548 -0.031158686 0.02635777 -0.14683461 -0.16196206 0.03478443 0.019638922
0.18649012 -0.024476102 0.1640355 -0.13780925 -0.06445668 -0.1812382 -0.053073503 0.008084988
-0.06128719 0.22813104 -0.109250225 0.19435394 0.19768152 -0.074540935 0.23783086 0.121892564

fc2.weight f4 [64, 128]
00000000: 792c 2a3e c6f6 383b d218 3bbe b5e7 723e
00000010: 1488 0b3e cbe8 16be 3a47 3f3a 3438 f5bc
00000020: 81fd 7e3c 03ab 653e ba3a 5fbd f8c8 72bd
00000030: da67 0a3e e1e6 ba3c 3339 00bd c8e2 87bd
00000040: 27c0 3d3e 7516 123e 6c3f e1bd 5bc5 123e
00000050: 58fe 1dbd cdb4 003e 8584 833d 6b43 43bd
00000060: 28dc aebd eb67 573d 5a7d dc3d 57fa aa3d
00000070: d159 aa3d 4a74 47bc 9e14 2abe 0d45 393e
00000080: 1bc9 61bd d698 11be c4e5 a73e 6c59 f63d
00000090: 50a8 0e3d 084f 0d3e 19ce 153e ab03 923e
000000a0: e99b fd3d a1af 2f3e bcb4 b4bd 5025 99bd
000000b0: 62e1 5a3d 9abb 29bc e9af fc3e 3a32 003e
000000c0: 3d64 17be ac7f 863d 938a a3bd 3f56 663b
000000d0: 4f44 b7bd e7fb 2abd 1fde c3bd b74f 2a3e
000000e0: e903 7cbe a33f d03c 72ee 39be 17e9 243d
000000f0: b0ea 50be 06ff 673e 47b6 b1bb e584 5d3b
00000100: 36b3 50be 987c 4bbd e7c0 03bc 3cd5 663e
00000110: 62e0 2b3e 5f63 2dbc 2b46 633d 1940 6abe
00000120: 8027 83bc 3cc5 d03c 17b6 14be f5dc a0bd
00000130: 2fca 3c3d 42db 483e 2feb e1bd 893c 27bd
00000140: 8ccd 0abe 156b ef3d 0105 9ebd 3ecb 203e
00000150: 4012 0bbe 2542 ba3c e69b 2f3d 0057 a2bd
00000160: 9016 753d dcff d33e c95f 0b3e aa96 06be
00000170: 834b d0bd fc52 ad3d 7312 f83d ff8d 813d
00000180: 6b48 8fbb 62b8 e03a 365f 433e dff7 1f3e
00000190: 46c7 623d a9a2 fcbd 4950 8fbb d60c c2bd
000001a0: 168a 32be 45a0 683d b1a9 1e3d c08b 653d
000001b0: 7917 aebe 733b a7bd bf3c c43d 7905 773e
000001c0: 2fcd 1dbe bdec cebd 3775 703d 6953 97bd
000001d0: 56c8 833c fd1b aabd dda8 013e edd0 45be
000001e0: ade2 1abd 93f7 d83d 6811 49bd fff7 1d3d
000001f0: 05c7 c33b f46d 1e3e aa66 5fbe 4029 333e
00000200: df59 2ebc 7a8a 5dbd 18e3 8ebc 831d 1ebe
00000210: 58e5 f73d 8fac 4ebe a2de 67bc 620b 263e
00000220: 7b41 a4be 5067 183e 62dc 44bc 8556 74bd
00000230: 6024 0b3e a6a1 9d3d 2b8c 883d 5423 d2bd
00000240: 66ad d03d 7bc2 94bd dc49 803d 30f2 1ebd
00000250: 0350 d33d 7be4 15be 1052 e1bd 0c75 a5bd
00000260: 8fea b7bd ab7e dbbc 90ce 3bbc 0502 0a3e
00000270: df65 9d3d f2d2 2dbe d1f6 203e 7528 a2bd
00000280: 08d5 033c eef7 443e d533 3abd 2fc3 62be
00000290: e238 0fbd e90c 81be 8902 c8be e320 b5bc
000002a0: a499 9ebd 7b56 1c3c fc6c 4dbd 75cd 8abd
000002b0: 999f 11bb 0a1e 2dbe f082 47be fa3b 923b
000002c0: dbe1 bd3d 0450 81be 7466 8e3d d623 293e
000002d0: 4de9 013d 8f36 e9bd 3b41 92bd 5591 063d
000002e0: cdf3 e83d aaad d03c 71d9 873d 833c 663d
000002f0: 5deb 8fbd c3dd a5be caae 65bd 3454 da3d
00000300: c5b3 76be 8afa 693e 1cce 283e e0fd 7e3d
00000310: 43c3 1abe 2376 eebd 654b c5bc a36a 6abe
00000320: 1b43 263d 8cbd 0b3e 3db4 f3bd e2a8 27be
00000330: 330b debd 5c9b 013e a9ac d83d b818 69bd
00000340: 8093 093e 4bb5 49be 6e63 093e be50 6e3d
00000350: 2e4f bcbc 89c5 b23b b6b5 46bc 07c0 9d3d
00000360: 055f 6fbe d5c1 e4bd 2dbb f3bd 20e0 dabd
00000370: 6044 b53d c615 1abc f1d6 d23d e96d 103d
00000380: fa0f b3bd c085 e6bb c2df 6cbc 6c8e 23bc
00000390: 210d 7e39 ca6c ad3d 9376 2d3e f0d2 52be
000003a0: 0bd7 87bd 5241 4b3e a962 063e f54e 1fbd
000003b0: d639 403d 4ce4 94bd 74cf f23d 656f 8b3b
000003c0: 5236 a53b ddc7 2e3e 1a1f b83b eff6 64be
000003d0: 1120 e93d d565 31be 8855 34bd 6085 bb3d
000003e0: 08a4 e73c f410 c3be c4aa 70bd 5c80 d1bd
000003f0: 5b3b cf3d 1c55 41be 3aa1 83bd 51dd 633d
0.16618527 0.002822326 -0.18271187 0.23721202 0.13626128 -0.14737241 0.00072966854 -0.029934026
0.01556337 0.22428517 -0.054499365 -0.05927369 0.13516179 0.02281517 -0.03130455 -0.06635052
0.18530332 0.14266379 -0.10998425 0.14333098 -0.03857264 0.1256897 0.064217605 -0.047671717
-0.08538085 0.05258934 0.107660964 0.0834853 0.08317912 -0.012173722 -0.16609427 0.18092747
-0.05512343 -0.14218459 0.32792485 0.120287746 0.034828484 0.1379968 0.14629401 0.28518423
0.12383253 0.17156841 -0.08823535 -0.0747782 0.053437598 -0.010359669 0.4935296 0.1251916
-0.14784332 0.0656732 -0.07985415 0.0035146622 -0.08948576 -0.04174414 -0.095638506 0.16631971
-0.24610867 0.02542097 -0.18157366 0.040261354 -0.20402026 0.22655877 -0.0054233405 0.0033801135
-0.20380864 -0.04967937 -0.008041597 0.2254228 0.16784814 -0.010582774 0.05548684 -0.22876014
-0.016010046 0.025484674 -0.14522587 -0.07854644 0.046091255 0.1961489 -0.11031186 -0.040829215
-0.13554972 0.11690346 -0.07715798 0.1570253 -0.1358118 0.022736618 0.042873286 -0.0792675
0.05983597 0.41406143 0.13610758 -0.13143411 -0.10170653 0.08463094 0.12112894 0.06325912
-0.0043726466 0.0017144794 0.19079289 0.15621899 0.055365823 -0.123357125 -0.0043735844 -0.094751045
-0.17435488 0.05679347 0.03873605 0.05604148 -0.34002283 -0.08165636 0.09581899 0.24123181
-0.15410303 -0.10103748 0.058705535 -0.07388956 0.016086739 -0.083061196 0.12662072 -0.1931798
-0.03781383 0.10594096 -0.049088866 0.038566586 0.0059746527 0.15471631 -0.21816507 0.17496204
-0.010641544 -0.05408714 -0.017442271 -0.15440945 0.12104291 -0.20183013 -0.014152201 0.1621528
-0.32081208 0.1488316 -0.012015434 -0.059652824 0.13588095 0.076968476 0.0666736 -0.102606446
0.10189323 -0.07263657 0.062640876 -0.038805187 0.103179954 -0.1463794 -0.1100198 -0.080789655
-0.089802854 -0.026793798 -0.011462823 0.13477333 0.07685446 -0.16975 0.15719153 -0.07917873
0.008046396 0.19235203 -0.045459587 -0.22144769 -0.034966357 -0.25205162 -0.39064434 -0.022110408
-0.077441484 0.009542103 -0.050152764 -0.06777469 -0.0022220372 -0.1690599 -0.19483542 0.004462716
0.09271594 -0.2525636 0.06953135 0.16517577 0.031716634 -0.11387359 -0.07141348 0.032853443
0.11374626 0.025473434 0.066332705 0.056210052 -0.07027314 -0.32395753 -0.056074895 0.10660592
-0.24092014 0.2284948 0.16484874 0.062253833 -0.15113549 -0.116436265 -0.024083802 -0.22892241
0.04059134 0.13646525 -0.11899612 -0.16373017 -0.1084198 0.12656921 0.10579807 -0.05690834
0.13435173 -0.19698064 0.13416836 0.05818247 -0.022986975 0.005455677 -0.012128284 0.07702642
-0.23376091 -0.11169783 -0.11900935 -0.1068728 0.08850932 -0.009404605 0.10294903 0.03526107
-0.08743282 -0.007034987 -0.014457645 -0.0099826865 0.00024228219 0.084680155 0.16939764 -0.20588279
-0.06632813 0.19849136 0.13123573 -0.03889366 0.046930157 -0.07270107 0.11855975 0.0042552226
0.005041876 0.1706843 0.005618942 -0.22359823 0.11383069 -0.17324002 -0.04402688 0.09156299
0.028276458 -0.38098872 -0.058756605 -0.10229561 0.10118743 -0.18880123 -0.06427236 0.055630986

fc2.bias f4 [64]
00000000: edb2 253d 2bed 02bd 0447 af3d 7131 9b3c
00000010: e5a5 c53d 5d5c 1c3d f86f 423b 788c 223e
00000020: a21b 983c 7997 b63b 566d cc3d 283b 3c3d
00000030: 7c44 ba3d 13fc f4bb b3f5 3abd 7d53 e0bd
00000040: 02f3 91bd dda0 ee3c 9430 f7bc 3a68 863d
00000050: 513a 87bd dd19 8c39 ed97 083e 0745 113e
00000060: 3525 91bd 7bf2 1fbe 148d f03b a7b1 07be
00000070: 3877 d03d 1c77 31bc bb45 613d 53ae 6c3d
00000080: 2409 913c 302d 23be b99a e2bd 8bfe e63d
00000090: 1ebe 443d 7506 a33d d399 15bd c587 273c
000000a0: 9775 b03d 2562 bcbd 5dc5 723d d52f abbd
000000b0: 1e45 bc3c 309d 753e b99e 9f3d 3766 51bd
000000c0: 7a97 e0bb 55f3 883d f8aa cebc a269 003c
000000d0: 9bee dcbc ba7f 153d b297 6c39 0904 9dbd
000000e0: d907 a1bd 1151 a73c 78ef 863d 5c27 9d3d
000000f0: 33a4 1abb e533 a5bd 2311 b23c 3016 153c
0.04045384 -0.031964462 0.08558467 0.018944474 0.096507825 0.038174022 0.002966879 0.15873897
0.018567864 0.005572256 0.09981792 0.045954853 0.090950936 -0.0074763387 -0.045644473 -0.10953424
-0.07126428 0.02912944 -0.030174531 0.065628484 -0.0660292 0.0002672215 0.13339205 0.14186488
-0.07087175 -0.15619843 0.0073410366 -0.13251363 0.10178989 -0.010831621 0.05499814 0.057783436
0.017704554 -0.15935206 -0.11064667 0.11279019 0.048032872 0.07960216 -0.03652365 0.010225241
0.086161785 -0.09198407 0.05927025 -0.083587326 0.022982176 0.23985744 0.07793946 -0.05112287
-0.006853995 0.06687037 -0.025228009 0.007837685 -0.026969245 0.036498763 0.00022563225 -0.07666785
-0.07862825 0.020424398 0.06588644 0.07673523 -0.0023596406 -0.08066539 0.021736687 0.009099528

fc3.weight f4 [2, 64]
00000000: cc44 46be 17d6 3abe 44c1 a8bd e978 f83d
00000010: adb7 bf3d cf8f 413e 8b44 4bbe e489 aa3d
00000020: 2dab 9cbe e057 b03c 7284 883e 4cfd 453d
00000030: d163 57bd 6eaa ebbd f1fb 20be 42cd debc
00000040: 7ec6 ccbd ed61 cf3d 03c4 6dbd 3446 58bd
00000050: f914 30bd 75b7 8a3c bb08 e23d fd84 d83d
00000060: 2a3e 6fbe 872c 1b3f babd 0e3e ba91 45bd
00000070: 8edf df3d d883 913e 5ae1 253e 9896 483e
00000080: 5b65 103d 852e f3bc 15e3 e5bd 63f5 5bbd
00000090: 404e 923d 8fbb ce3d 8b22 b1bd 0400 86bd
000000a0: 1b09 7a3d 7858 323e 733b 463e faa4 ddbd
000000b0: d6fe 37bd b27e f23d 4e04 0ebe bc4d c23d
000000c0: 0e53 83bd a79a bebd 1f85 bfbe 0232 09be
000000d0: 09ce 08be 8b5a acbd 8420 b53e c64d 453e
000000e0: 3fc4 edbd 62d8 8cbd 82fd a0bd f14c 713e
000000f0: 30e3 043e 574a 88bd fd16 6bbe 7379 9d3d
00000100: b1de da3d ed46 d33d ef8e ebbd 2747 47bf
00000110: b875 4d3e 412c 5f3d 9a0d 813e 1111 01be
00000120: 7db3 95bd 0cb7 b93e 7d74 2d3e fae3 a1bd
00000130: 54e9 25be d128 04be 7136 743e ca3d 203e
00000140: 4fdc c33c 74e8 1f3d 7885 cbbd 167e 1cbd
00000150: c8a4 8fbc 8ac5 cb3e c35e d8bd 6239 15be
00000160: 488b 7e3e 0c65 1f3f ea84 97bd b6db 833d
00000170: 0775 11be 2412 1f3e 658d 583e a242 a03e
00000180: 8213 ae3e 5e3d 4a3e 726a 9f3e 325c 21be
00000190: 74dd fbbd 58ca 42be b141 83bd 1110 9abe
000001a0: beb3 5ebe 3f95 833e 95d8 073f 5bf4 2e3e
000001b0: 604f d13e a676 dbbd 1a75 f5bd 004b dd3d
000001c0: c8f2 d93e 9cf7 2fbd f9d4 583e 9619 efbd
000001d0: 4db5 523d 7cf5 f2bd 7fe5 b43b 4539 763e
000001e0: b01d 113e ee2a fc3d 3d2b f0bd 3be6 053e
000001f0: f21e 373d e6a6 c43d da97 a23e d607 a53d
-0.19362181 -0.18245731 -0.082399875 0.12132437 0.09361205 0.18902515 -0.19850366 0.08327082
-0.30599347 0.021526277 0.26663548 0.048337266 -0.052585427 -0.11507116 -0.15721108 -0.027197484
-0.09998797 0.101261 -0.05804826 -0.052801326 -0.04298875 0.016933182 0.110368215 0.105722405
-0.23363557 0.6061482 0.13939562 -0.04823468 0.109313115 0.284209 0.16199246 0.19588697
0.03525291 -0.029685268 -0.11224953 -0.053700816 0.07143831 0.10094368 -0.08649167 -0.06542972
0.06104384 0.1741656 0.19358616 -0.108224824 -0.044920765 0.118405715 -0.1386883 0.09487483
-0.06412326 -0.09306841 -0.3740625 -0.13397983 -0.13359846 -0.08415707 0.3537637 0.1926795
-0.116096966 -0.06877209 -0.07860853 0.23564507 0.1297729 -0.06654804 -0.22957988 0.0768918
0.10687006 0.103162624 -0.11501872 -0.77842945 0.20064437 0.054485563 0.2520569 -0.12604167
-0.07309625 0.36272466 0.16938968 -0.07904811 -0.16202289 -0.12906195 0.23848893 0.1564857
0.023908762 0.039040044 -0.099375665 -0.038206182 -0.017534629 0.39799148 -0.10564949 -0.14572671
0.24857819 0.6226356 -0.07398398 0.06438391 -0.14204799 0.15534264 0.21147688 0.31300837
0.33999258 0.19749972 0.311359 -0.15757826 -0.12298098 -0.190225 -0.06409014 -0.30090383
-0.21748254 0.25699803 0.5306485 0.17085402 0.4088087 -0.1071599 -0.11985226 0.10805321
0.4256804 -0.042960748 0.21174993 -0.11674802 0.051442433 -0.11863229 0.005520522 0.24045284
0.14171481 0.12312876 -0.11726997 0.13076107 0.044707246 0.09602146 0.3175648 0.08058135

fc3.bias f4 [2]
00000000: 056b 7cbd 5b00 37bd
-0.0616255 -0.044678073
